gru_model/gru_model_scaled.pth (torch, 166838 bytes, 10 tensors)

gru.weight_ih_l0 f4 [192, 15]
-0.06926879 -0.29192683 0.1395532 0.082999416 -0.23723096 -0.12578377 0.14874932 0.101092815
0.15461461 0.057365302 0.015474206 -0.115627 -0.038063634 -0.064871565 -0.084424995 0.20426665
0.043428823 -0.050692655 0.16774444 -0.24685813 -0.020388227 0.15909168 -0.09312953 0.19044603
0.16132933 0.14655678 -0.055858947 0.16773772 0.1285023 -0.20149907 0.03139988 0.049551554
-0.14825636 0.075725496 0.27619946 0.040043138 -0.21871838 0.02298218 0.042201582 -0.17890646
-0.29094493 -0.25028744 -0.10403315 -0.16233857 -0.020392591 0.08876098 0.20278773 -0.08090881
-0.21527906 0.19403575 -0.32508874 0.09450217 -0.068615094 0.0069693793 -0.037422054 -0.0913403
0.06297861 -0.048244596 -0.18764056 -0.36219457 0.102778964 -0.10482225 -0.24610439 -0.047789514
-0.115271844 -0.12025513 -0.18696499 0.09700313 -0.092325784 0.07025902 -0.20290451 0.06232067
-0.035860762 0.20990665 -0.11431062 0.049872253 -0.016510937 0.014646347 -0.04488456 -0.15320267
0.31795153 -0.39654902 -0.09816457 0.20251791 -0.13195607 -0.026148075 -0.016542397 0.14477344
-0.103514075 -0.3616908 0.15337248 -0.29655984 0.13237436 0.19747019 -0.48875165 0.23369245
0.05646798 0.091282755 -0.05959382 -0.05093455 0.01922932 -0.2785703 0.3608428 -0.0006130002
-0.07513767 -0.06378316 -0.17591387 0.008438943 -0.16166879 0.13139272 0.003934537 -0.032994628
-0.056281492 -0.28976816 -0.060909044 0.14410335 -0.025399376 -0.14937557 -0.10940202 -0.05465608
-0.30455464 -0.030121783 0.13949326 0.088963054 -0.26227874 0.23151857 -0.08459245 -0.10448393
0.06507946 -0.04235177 -0.1944613 -0.02158508 0.12600107 0.036676493 -0.19417758 -0.104869895
0.0032862143 -0.29877272 -0.12009695 -0.21649522 0.052034467 -0.1475088 -0.007286072 0.019248992
0.0058292625 -0.09569416 -0.12856504 0.06701206 -0.020779885 -0.40775523 0.1375652 -0.06336393
0.3058764 0.08088877 0.041497074 0.27258694 0.036823332 -0.048501372 -0.1468663 0.21486427
0.0849849 -0.097029366 0.12796018 0.108274 0.014336695 -0.10417064 -0.18250848 0.08513801
0.35706556 -0.24651854 0.36227968 -0.18487108 0.047298223 -0.1010023 -0.046683818 -0.03799324
-0.20162202 -0.1274154 -0.23441485 0.006097261 0.011719174 0.0074748974 0.27270818 0.06288801
-0.042258106 -0.0362863 0.2809418 -0.033505842 -0.15105988 0.2954362 0.313021 0.060224168
0.25766045 0.17496733 -0.49948233 -0.3549392 0.21201226 -0.6614501 0.015438871 0.43334177
-0.20611376 -0.15470459 0.05255349 0.18832135 0.063576646 -0.24674657 -0.06907806 -0.008420715
0.049532034 -0.3155321 0.18565224 0.060561173 -0.31606698 0.21002898 -0.08245008 0.114447586
-0.24444422 0.07674503 -0.05736698 -0.27347523 -0.25193673 -0.060738884 -0.12888439 0.0031573658
0.14985016 0.08165134 -0.060860854 -0.38211694 0.10313615 0.12896718 -0.15595762 0.12854673
0.060109243 0.053934224 -0.17433266 -0.10308602 -0.0077486383 0.08048722 0.016794495 -0.14697823
-0.16686472 -0.013940401 0.13204983 -0.042965733 -0.06663605 -0.021173539 -0.068211295 -0.11879012
0.12329812 0.0674037 -0.20773432 0.20839149 -0.018547665 0.12409954 -0.019679284 -0.14924279
00000000: ccdc 8dbd 6f77 95be 09e7 0e3e 99fb a93d
00000010: acec 72be 76cd 00be be51 183e c009 cf3d
00000020: 4b53 1e3e e1f7 6a3d 8687 7d3c d9cd ecbd
00000030: 9de8 1bbd 62db 84bd 03e7 acbd 472b 513e
00000040: 6ce2 313d 1aa3 4fbd 33c5 2b3e 61c8 7cbe
00000050: 3605 a7bc eee8 223e b2ba bebd 4904 433e
00000060: 8433 253e fb12 163e 5acc 64bd 70c3 2b3e
00000070: 1b96 033e c655 4ebe 299d 003d 92f6 4a3d
00000080: 84d0 17be f815 9b3d 046a 8d3e 4604 243d
00000090: b6f7 5fbe 2045 bc3c 91db 2c3d 4133 37be
000000a0: bcf6 94be ad25 80be 550f d5bd 153c 26be
000000b0: 5d0e a7bc 51c8 b53d 96a7 4f3e 85b3 a5bd
000000c0: 1d72 5cbe 4fb1 463e 0872 a6be 5b8a c13d
000000d0: 1286 8cbd 645f e43b de47 19bd a010 bbbd
000000e0: eefa 803d 209c 45bd d924 40be 9171 b9be
000000f0: c77d d23d 0cad d6bd ca02 7cbe f0be 43bd
00000100: a513 ecbd 5248 f6bd c073 3fbe 94a9 c63d
00000110: 4d15 bdbd f6e3 8f3d 33c6 4fbe f543 7f3d
00000120: bce2 12bd c5f1 563e b01b eabd d946 4c3d
00000130: f241 87bc 3bf7 6f3c dfd8 37bd 29e1 1cbe
00000140: 8bca a23e 7908 cbbe 820a c9bd db60 4f3e
00000150: 7e1f 07be 7d34 d6bc ec83 87bc 7d3f 143e
00000160: 30ff d3bd 892f b9be ad0d 1d3e b1d6 97be
00000170: 258d 073e a035 4a3e a83d fabe 134d 6f3e
00000180: f84a 673d 74f2 ba3d a618 74bd bfa0 50bd
00000190: cf86 9d3c c4a0 8ebe 63c0 b83e bfb1 20ba
000001a0: c7e1 99bd bfa0 82bd c422 34be 7e43 0a3c
000001b0: 818c 25be d08b 063e 4aed 803b 6025 07bd
000001c0: 6c87 66bd 7e5c 94be c37b 79bd d48f 133e
000001d0: 5a12 d0bc e9f5 18be 2b0e e0bd 0edf 5fbd
000001e0: 96ee 9bbe f5c1 f6bc 52d7 0e3e 4332 b63d
000001f0: 6649 86be 3413 6d3e ce3e adbd acfb d5bd
00000200: 6148 853d 0d79 2dbd dd20 47be 32d3 b0bc
00000210: 6d06 013e 173a 163d 7dd6 46be 07c6 d6bd
00000220: 875d 573b bdf8 98be 64f5 f5bd ecb0 5dbe
00000230: 1822 553d 8c0c 17be 00c0 eebb 10b0 9d3c
00000240: 6603 bf3b 4dfb c3bd 8ea6 03be 9e3d 893d
00000250: 943a aabc 4bc5 d0be e4dd 0c3e f3c4 81bd
00000260: d59b 9c3e 03a9 a53d d6f8 293d 8490 8b3e
00000270: 10d4 163d 60a9 46bd 1f64 16be 6105 5c3e
00000280: 900c ae3d 55b7 c6bd fe07 033e c2be dd3d
00000290: 75e4 6a3c 6b57 d5bd 81e3 3abe d65c ae3d
000002a0: 4cd1 b63e 5b6f 7cbe b97c b93e d84e 3dbe
000002b0: c8bb 413d 4bda cebd 8837 3fbd cd9e 1bbd
000002c0: 0176 4ebe 2f79 02be 720a 70be 88cb c73b
000002d0: c701 403c fcef f43b 68a0 8b3e 6ecb 803d
000002e0: d616 2dbd f1a0 14bd 9bd7 8f3e 6c3d 09bd
000002f0: 71af 1abe 6a43 973e 4a44 a03e 9ead 763d
00000300: 12ec 833e a32a 333e 26bc ffbe 97ba b5be
00000310: be19 593e cb54 29bf 52f3 7c3c f9de dd3e
00000320: 7c0f 53be e16a 1ebe 5442 573d 50d7 403e
00000330: 7934 823d 22ab 7cbe cc78 8dbd 0af7 09bc
00000340: 1ae2 4a3d 6c8d a1be 9f1b 3e3e fe0e 783d
00000350: 88d3 a1be d611 573e 96db a8bd 7f63 ea3d
00000360: 964f 7abe 802c 9d3d a3f9 6abd f204 8cbe
00000370: dafd 80be 56c9 78bd 45fa 03be cfeb 4e3b
00000380: 5272 193e d138 a73d 3b49 79bd d5a4 c3be
00000390: 0c39 d33d f90f 043e 5bb3 1fbe c1a1 033e
000003a0: 1c35 763d 22ea 5c3d 4384 32be c31e d3bd
000003b0: 4ae8 fdbb 7cd6 a43d 9c94 893c 7681 16be
000003c0: 96de 2abe 4866 64bc 1238 073e d6fc 2fbd
000003d0: 7b78 88bd 2174 adbc 5db2 8bbd 3c48 f3bd
000003e0: ba83 fc3d f30a 8a3d 4eb8 54be 9464 553e
000003f0: 46f1 97bc e627 fe3d 7336 a1bc 1ad3 18be

gru.weight_hh_l0 f4 [192, 64]
-0.15926497 -0.00912695 -0.010476052 0.14549522 0.21402848 0.19540255 -0.21456291 -0.2675631
0.10549558 0.2126838 -0.0031485066 0.007162666 -0.082949236 0.06600623 0.033778723 0.25363252
-0.138402 0.11379191 0.26333657 -0.059374597 -0.056982026 0.0022206593 0.06392082 0.14362362
-0.101874426 -0.1912982 -0.008528758 -0.14076737 -0.08242712 0.25919938 0.16437604 -0.06799388
-0.032023028 0.116037354 -0.24090306 0.124452725 0.23025587 0.07480238 0.036424734 0.22108066
-0.0874269 0.2640643 0.00059196766 -0.020348074 0.014410631 -0.06923875 -0.1626456 -0.23328182
-0.2262766 -0.01990913 -0.03558283 0.01007227 -0.11402564 -0.37257823 0.06335975 -0.018970544
-0.13791618 -0.1628364 0.1950776 0.04065578 -0.1704676 -0.054419454 -0.13339281 -0.09736944
-0.41903618 -0.13451843 0.102350794 0.00035387793 0.38219288 -0.2558454 -0.10917239 -0.14229934
-0.1272429 -0.1519561 -0.15682752 -0.17333226 -0.11307259 -0.23726952 0.003425339 -0.07421518
0.061315186 0.10510892 -0.19756384 0.09260358 -0.21162757 -0.12715581 -0.1085746 -0.10927356
0.051046714 0.29673937 0.03334092 -0.18264687 -0.37969908 -0.047324467 -0.016383806 -0.04732912
-0.33220404 -0.008979503 -0.029394543 0.11207725 -0.27552667 -0.34397584 -0.003577189 -0.12015012
-0.42881903 -0.082070455 -0.27295065 0.0460545 0.22702464 -0.04104775 -0.08735259 0.189395
0.50003874 -0.087558754 0.24241368 -0.025420176 0.024446977 0.4373438 0.051922627 0.03736452
-0.3062776 0.021876045 -0.29222593 0.11334467 0.2477763 0.03802307 0.030422611 0.06837812
0.32263765 0.10620903 -0.13582118 0.33896068 -0.2475209 0.046819657 -0.17247476 -0.37096855
0.08862364 0.18961327 0.13717434 0.16402777 -0.034316212 0.20087604 0.070059724 0.21611305
0.11314351 0.12788746 0.103561684 -0.22807471 0.09429592 0.015618271 0.18609528 0.0008673584
-0.023892947 -0.03616713 0.1955415 0.1787023 0.21115063 0.112959296 0.15498501 -0.10605823
0.13138242 0.14957444 0.10077897 0.101612195 0.30630052 0.044840172 -0.17750277 -0.04735435
0.38661757 -0.1257075 0.19476259 -0.06254566 -0.06997384 0.14502624 -0.028022023 -0.27475992
-0.33942968 0.116732776 -0.26985484 0.48997116 -0.031544667 -0.077585295 0.066314824 -0.15102898
0.25444457 0.0706894 0.03055053 0.27258512 -0.35643217 0.23627493 -0.10680321 -0.050326902
-0.19577985 -0.40725213 0.08071218 -0.09417017 -0.0561485 -0.128124 0.031262916 0.13083385
-0.13832925 -0.14512703 -0.0066812774 0.019999336 0.072408214 -0.046360888 -0.22883031 -0.1790115
0.00054573896 0.15636656 -0.27890664 -0.06626463 -0.22936307 -0.07956278 0.10931437 -0.09435543
-0.15514596 0.3098559 -0.03559987 -0.030051196 -0.13470379 -0.10332289 -0.20053054 0.1613634
-0.09383616 -0.24650478 -0.017029 -0.041854262 -0.188777 0.01560645 0.28994957 -0.3845726
0.074184 -0.020178124 -0.41824713 -0.19873646 0.1793195 0.052617535 0.124207385 0.16097365
0.24087754 -0.052887123 0.08602428 0.24985379 0.0015365502 0.1747383 0.113877855 0.01760356
-0.4657048 -0.040180698 0.12811811 0.19917193 0.15968786 -0.14051063 -0.09235284 0.01682507
00000000: 5b16 23be 3489 15bc bfa3 2bbc b3fc 143e
00000010: 482a 5b3e 9b17 483e 61b6 5bbe 08fe 88be
00000020: 110e d83d c8c9 593e 2d57 4ebb ccb4 ea3b
00000030: 4ae1 a9bd 462e 873d 8f5b 0a3d 1fdc 813e
00000040: 41b9 0dbe bc0b e93d 0dd4 863e c732 73bd
00000050: fc65 69bd 7b88 113b ebe8 823d 1212 133e
00000060: 8aa3 d0bd ade3 43be 34bc 0bbc 5225 10be
00000070: 8dcf a8bd c8b5 843e 3152 283e 6040 8bbd
00000080: 942a 03bd fea4 ed3d 4baf 76be 12e1 fe3d
00000090: 32c8 6b3e fd31 993d 1a32 153d f862 623e
000000a0: e00c b3bd 7033 873e 472e 1b3a 01b1 a6bc
000000b0: 911a 6c3c 0ccd 8dbd 918c 26be 6ee1 6ebe
000000c0: 0eb5 67be 7918 a3bc 4dbf 11bd 2a06 253c
000000d0: 4686 e9bd 93c2 bebe c2c2 813d 1d68 9bbc
000000e0: e639 0dbe 96be 26be 6cc2 473e ad86 263d
000000f0: 0f8f 2ebe efe6 5ebd 2098 08be a169 c7bd
00000100: e98b d6be 33bf 09be 4b9d d13d b188 b939
00000110: c9ae c33e 2bfe 82be c695 dfbd ebb6 11be
00000120: f64b 02be 619a 1bbe 6597 20be 037e 31be
00000130: 9a92 e7bd c8f6 72be a77b 603b 21fe 97bd
00000140: a225 7b3d 5843 d73d 2d4e 4abe f2a6 bd3d
00000150: e6b4 58be 2235 02be 5c5c debd d1ca dfbd
00000160: 5c16 513d 39ee 973e 7d90 083d c807 3bbe
00000170: eb67 c2be 4dd7 41bd 5537 86bc 2edc 41bd
00000180: a616 aabe c41e 13bc d3cc f0bc c288 e53d
00000190: d511 8dbe 9a1d b0be 466f 6abb 4411 f6bd
000001a0: 2b8e dbbe 8e14 a8bd 30c0 8bbe a5a3 3c3d
000001b0: 2679 683e af21 28bd eae5 b2bd c3f0 413e
000001c0: 8a02 003f 0152 b3bd 4b3b 783e f93d d0bc
000001d0: 0745 c83c 87eb df3e d2ac 543d 8a0b 193d
000001e0: 6bd0 9cbe 6435 b33c a39e 95be 4021 e83d
000001f0: 12b9 7d3e 14be 1b3d d738 f93c d409 8c3d
00000200: c330 a53e 1f84 d93d b514 0bbe 418c ad3e
00000210: 1e76 7dbe f8c5 3f3d 399d 30be 97ef bdbe
00000220: 5080 b53d fb29 423e 6e77 0c3e e5f6 273e
00000230: 288f 0cbd 73b2 4d3e 797b 8f3d bd4c 5d3e
00000240: c9b7 e73d eef4 023e 2618 d43d 6b8c 69be
00000250: 381e c13d c7e3 7f3c c38f 3e3e 705f 633a
00000260: 24bb c3bc fc23 14bd 083c 483e bcfd 363e
00000270: df37 583e 3457 e73d 64b4 1e3e 0f35 d9bd
00000280: 1d89 063e 0b2a 193e 3465 ce3d 0e1a d03d
00000290: 6cd3 9c3e 54aa 373d 49c3 35be a3f6 41bd
000002a0: bdf2 c53e 78b9 00be d86f 473e f017 80bd
000002b0: 724e 8fbd c281 143e 718e e5bc 55ad 8cbe
000002c0: bac9 adbe 9811 ef3d 6a2a 8abe 80dd fa3e
000002d0: fb34 01bd 0ae5 9ebd 11d0 873d 57a7 1abe
000002e0: 8f46 823e 9bc5 903d 1b45 fa3c 4790 8b3e
000002f0: 477e b6be 0ef2 713e a4bb dabd 9523 4ebd
00000300: 837a 48be 5a83 d0be 6d4c a53d 4adc c0bd
00000310: f8fb 65bd f032 03be 8b0d 003d 4ff9 053e
00000320: 2fa6 0dbe 2e9c 14be 9eee dabb a6d5 a33c
00000330: c24a 943d eae4 3dbd 7e52 6abe ca4e 37be
00000340: ec0f 0f3a 8e1e 203e dacc 8ebe c0b5 87bd
00000350: 27de 6abe d0f1 a2bd 36e0 df3d 6b3d c1bd
00000360: 95de 1ebe 6fa5 9e3e 2bd1 11bd ed2d f6bc
00000370: caef 09be f49a d3bd e157 4dbe 723c 253e
00000380: 2c2d c0bd c06b 7cbe 6780 8bbc 606f 2bbd
00000390: c24e 41be 32b2 7f3c 4574 943e b3e6 c4be
000003a0: c8ed 973d 984c a5bc 7d24 d6be 9281 4bbe
000003b0: 889f 373e 7c85 573d 7160 fe3d 47d6 243e
000003c0: 9aa8 763e 2ba0 58bd 7f2d b03d acd9 7f3e
000003d0: 1266 c93a 99ee 323e cb38 e93d 5735 903c
000003e0: dc70 eebe 8494 24bd 6531 033e baf3 4b3e
000003f0: 3785 233e 05e2 0fbe 7c23 bdbd bbd4 893c

gru.bias_ih_l0 f4 [192]
0.1930045 0.028562605 0.029419994 0.19839695 0.25650564 0.22550578 -0.07289618 -0.05900242
0.12197727 0.20218594 0.09177001 -0.06662911 0.18049343 -0.037327673 0.04264031 0.016301464
0.10250221 0.22648619 -0.10501472 0.03337531 0.012096657 0.13584347 -0.08083452 0.088282876
-0.002289638 0.10779366 -0.060988113 -0.05611927 0.2660869 0.15176976 3.0327985e-05 0.1538532
0.12939695 -0.078373246 0.15820822 0.30253085 -0.05382459 0.21174172 -0.006697216 0.11710846
0.07404093 0.12569174 0.019902982 -0.08872602 0.020900756 0.14080495 0.025654467 -0.030302709
0.08414132 0.08817505 0.080048695 0.08388152 0.061416917 -0.02557939 0.06764183 0.112022445
-0.00888717 0.043618944 0.05383089 0.04167177 0.14360583 0.028206095 0.11835539 0.05308964
-0.39269617 0.0051118964 -0.25493997 -0.25753117 -0.3193854 -0.061796103 0.016066834 0.30038705
-0.15361753 0.105428755 -0.21668777 -0.058026813 -0.28980145 -0.16600908 -0.048755653 -0.056863658
-0.08546383 -0.1355688 -0.02511957 0.02672573 -0.1726273 -0.104534 -0.025990272 -0.26035854
-0.0499177 -0.18637408 -0.029926235 -0.2101747 0.112125464 -0.126099 -0.28136033 -0.02977113
-0.028975854 -0.09135089 -0.264944 -0.24725915 0.023326192 -0.053448156 -0.14119115 -0.019578835
-0.12115323 -0.3437996 -0.015530014 0.024063338 -0.06717098 -0.04224137 0.07255863 -0.073614076
-0.22714527 -0.20890926 -0.14440528 -0.07844209 -0.19150053 -0.16356802 -0.27846572 -0.24295187
-0.2678842 -0.08022617 -0.2992479 0.045934122 -0.2505358 -0.062248915 -0.17228712 -0.29728812
-0.046172496 0.039076623 -0.03346446 0.07069216 0.015682016 0.024378844 -0.15463117 -0.087985486
0.031715147 0.035325732 0.019592177 -0.021082336 -0.0061822906 -0.00064256723 -0.06291153 0.11255693
-0.056636646 0.09063542 0.0010274001 -0.040378463 0.021135652 -0.04283926 0.0385971 -0.031587027
0.08094528 0.08443095 -0.015919043 -0.016205898 0.08894461 0.031279597 0.079874024 -0.055747923
-0.06297204 -0.08143211 -0.09529779 -0.05014578 -0.0008229036 -0.008221285 0.0059534484 -0.05160957
-0.018204315 0.05816661 0.09442439 -0.10892276 0.0536777 -0.002040469 -0.010865601 0.026897887
0.054518994 0.118360095 -0.07603657 -0.03475584 -0.053362656 0.11352331 0.03253193 0.14695272
-0.06706538 -0.004989504 0.08677863 -0.1229258 -0.059429646 0.00802163 0.07178516 0.04109594
00000000: f9a2 453e 20fc e93c 3302 f13c 9228 4b3e
00000010: b554 833e fdea 663e 984a 95bd 86ac 71bd
00000020: 38cf f93d d509 4f3e eaf1 bb3d d874 88bd
00000030: 45d3 383e e7e4 18bd 9ba7 2e3d a68a 853c
00000040: aeec d13d ffeb 673e f511 d7bd 8db4 083d
00000050: 0f31 463c 8d1a 0b3e 928c a5bd a7cd b43d
00000060: c00d 16bb ecc2 dc3d acce 79bd 52dd 65bd
00000070: 8b3c 883e 8869 1b3e da68 fe37 b18b 1d3e
00000080: a280 043e 2782 a0bd 5601 223e 53e5 9a3e
00000090: 2c77 5cbd d2d2 583e 5274 dbbb 8fd6 ef3d
000000a0: c5a2 973d 56b5 003e 940b a33c fdb5 b5bd
000000b0: 1038 ab3c 2c2f 103e 5129 d23c 633d f8bc
000000c0: 4952 ac3d 1f95 b43d 92f0 a33d 13ca ab3d
000000d0: 4e90 7b3d de8b d1bc cd87 8a3d 066c e53d
000000e0: 7e9b 11bc c7a9 323d c87d 5c3d 05b0 2a3d
000000f0: 680d 133e 7810 e73c 5064 f23d 8674 593d
00000100: 790f c9be b281 a73b 7e87 82be 20db 83be
00000110: 7c86 a3be e91d 7dbd 989e 833c 55cc 993e
00000120: ea4d 1dbe 08eb d73d 66e3 5dbe 86ad 6dbd
00000130: db60 94be 49fe 29be 02b4 47bd dee9 68bd
00000140: a907 afbd 8cd2 0abe 8ec7 cdbc ebef da3c
00000150: 36c5 30be ec15 d6bd 8de9 d4bc b74d 85be
00000160: 8176 4cbd d9d8 3ebe dd27 f5bc 0938 57be
00000170: 09a2 e53d 1920 01be 760e 90be 96e2 f3bc
00000180: c55e edbc 2d16 bbbd bda6 87be 8131 7dbe
00000190: 9216 bf3c 74ec 5abd 6a94 10be cb63 a0bc
000001a0: 2f1f f8bd 8006 b0be 9a71 7ebc 7a20 c53c
000001b0: f090 89bd 4905 2dbd 9e99 943d fac2 96bd
000001c0: c598 68be 4fec 55be fade 13be 3fa6 a0bd
000001d0: b718 44be 607e 27be 0f93 8ebe 60c8 78be
000001e0: 1e28 89be 9e4d a4bd 0537 99be 6b25 3c3d
000001f0: 3a46 80be b8f8 7ebd 096c 30be 2636 98be
00000200: 5f1f 3dbd cf0e 203d 0812 09bd 0dc7 903d
00000210: 9277 803c 24b6 c73c a257 1ebe bc31 b4bd
00000220: bee7 013d b7b1 103d c67f a03c ddb4 acbc
00000230: d094 cabb f571 28ba c3d7 80bd 3f84 e63d
00000240: d4fb 67bd 109f b93d d4a9 863a e363 25bd
00000250: ad24 ad3c 3878 2fbd fe17 1e3d 6661 01bd
00000260: a4c6 a53d 22ea ac3d a768 82bc 3bc2 84bc
00000270: 9728 b63d 091f 003d fe94 a33d ef57 64bd
00000280: 7cf7 80bd e1c5 a6bd 7d2b c3bd a965 4dbd
00000290: 20b8 57ba 92b2 06bc 2515 c33b 8e64 53bd
000002a0: 3721 95bc 1c40 6e3d 9361 c13d e512 dfbd
000002b0: 26dd 5b3d 64b9 05bb a205 32bc f558 dc3c
000002c0: 4f4f 5f3d c766 f23d 10b9 9bbd 245c 0ebd
000002d0: cd92 5abd e97e e83d 3340 053d c67a 163e
000002e0: 9359 89bd fe7e a3bb ffb8 b13d 86c0 fbbd
000002f0: 806c 73bd 286d 033c 1904 933d 3754 283d

gru.bias_hh_l0 f4 [192]
0.12874746 -0.018979775 0.014240495 0.17835964 0.09844651 0.18117167 0.1449601 0.09884761
0.116733305 0.30284268 0.037694655 0.067413524 0.21010213 -0.025582604 -0.062387913 -0.011639957
0.050798584 0.16024132 -0.031238556 -0.072484985 -0.08965617 -0.00354957 0.079073034 0.08998493
-0.03818445 -0.09197196 0.06654316 0.17846546 0.11782594 0.084161215 -0.06626658 0.10280022
0.08055198 0.109199725 -0.014565495 0.34371346 0.0747165 -0.00017383091 0.19681051 -0.017440999
-0.006971697 0.027261801 0.014879777 -0.08866663 -0.029949652 -0.091634244 0.0053627333 -0.058709197
0.11030207 0.08054301 -0.07338594 0.13761082 0.16706921 0.04644492 0.026598506 0.13178127
0.08991453 0.16617678 -0.038465034 0.22348297 0.022307785 0.079611585 0.050962638 0.08329953
-0.30449373 0.07412347 -0.262893 -0.1096899 -0.23135222 -0.2657407 0.008402377 0.18067852
-0.22034039 -0.09978626 -0.30917844 -0.2520665 -0.25425065 -0.24581939 -0.043897405 0.10165891
0.078899585 -0.13989036 -0.133965 0.014106244 -0.1216616 -0.24414016 -0.14073429 -0.2403444
-0.05782935 -0.22863108 0.061394338 -0.12673295 -0.08981645 -0.12486681 -0.20009816 -0.1210278
0.007742624 -0.09866303 -0.20871799 -0.40021735 -0.15628897 -0.17626445 -0.102296926 -0.011111995
-0.116987675 -0.23955989 -0.058263734 0.049597606 0.05970744 -0.19719835 0.08638199 0.102928914
-0.12004081 -0.3094126 -0.2303249 -0.2279104 -0.23153403 -0.036805775 -0.36711082 -0.10783235
-0.23052678 -0.04666659 -0.22461975 -0.11165221 -0.26326108 0.10166266 0.04178005 -0.20791258
-0.11325026 -0.020784523 0.06841715 -0.0125007685 0.17121133 -0.0639363 0.02101387 0.007659184
-0.09938572 0.038813293 -0.13679428 0.05753578 0.124418825 -0.042217016 0.057435453 -0.038810518
-0.037815787 -0.114633545 -0.057957374 -0.0823789 0.02039358 -0.19789876 0.008737567 0.039369326
-0.0065557896 0.110442564 -0.102744676 -0.14054407 -0.067692146 0.088688545 -0.11537897 0.08869465
-0.007924226 0.119817406 -0.13637565 0.023915155 -0.041368052 -0.17884564 -0.079251304 0.0164328
0.014379129 0.065276735 0.099127084 0.04717524 0.052355833 0.015073893 0.03587753 -0.14051372
0.04693434 0.032163028 -0.060665082 -0.04476569 -0.06417983 -0.08818206 0.13407288 0.12435876
-0.06566049 -0.08331499 0.13726757 0.0961524 0.065461315 -0.06020696 -0.07242487 -0.063044995
00000000: 60d6 033e 797b 9bbc f750 693c e9a3 363e
00000010: 539e c93d 1185 393e 6c70 143e 9e70 ca3d
00000020: df11 ef3d 320e 9b3e b665 1a3d 1a10 8a3d
00000030: 0325 573e 9c92 d1bc 788a 7fbd 85b5 3ebc
00000040: 2d12 503d 4d16 243e 00e8 ffbc 0273 94bd
00000050: a79d b7bd e79f 68bb 0bf1 a13d 054a b83d
00000060: 4c67 1cbd cc5b bcbd c847 883d a6bf 363e
00000070: ba4e f13d b75c ac3d c6b6 87bd ec88 d23d
00000080: 70f8 a43d 1ba4 df3d 1da4 6ebc 36fb af3e
00000090: f704 993d 6146 36b9 b288 493e 6de0 8ebc
000000a0: d572 e4bb 2454 df3c 4fca 733c da96 b5bd
000000b0: f958 f5bc bcaa bbbd deb9 af3b 0e79 70bd
000000c0: 0de6 e13d bcf3 a43d 5e4b 96bd dae9 0c3e
000000d0: 3114 2b3e 073d 3e3d 1ce5 d93c abf1 063e
000000e0: 1c25 b83d 3f2a 2a3e 838d 1dbd b8d8 643e
000000f0: d1be b63c 660b a33d 33be 503d f298 aa3d
00000100: 9ae6 9bbe 0cce 973d e999 86be 19a5 e0bd
00000110: 99e7 6cbe 2a0f 88be 20aa 093c ca03 393e
00000120: e9a0 61be bd5c ccbd a34c 9ebe dc0e 81be
00000130: 242d 82be 14b8 7bbe c4cd 33bd 8c32 d03d
00000140: 1b96 a13d 6b3f 0fbe 1f2e 09be e01d 673c
00000150: b829 f9bd e1ff 79be a61c 10be d81c 76be
00000160: 78de 6cbd 441e 6abe a178 7b3d 48c6 01be
00000170: b0f1 b7bd 2cba ffbd 88e6 4cbe 6cdd f7bd
00000180: d6b5 fd3b d80f cabd 2bba 55be 4ae9 ccbe
00000190: 370a 20be ab7e 34be 0d81 d1bd 160f 36bc
000001a0: 3c97 efbd 304f 75be f4a5 6ebd dc26 4b3d
000001b0: ca8f 743d 5dee 49be 0ae9 b03d 65cc d23d
000001c0: f5d7 f5bd 546b 9ebe 4ada 6bbe 5861 69be
000001d0: 4217 6dbe a7c1 16bd f3f5 bbbe 35d7 dcbd
000001e0: 360f 6cbe 7725 3fbd b802 66be eaa9 e4bd
000001f0: 28ca 86be 8334 d03d 8f21 2b3d 09e7 54be
00000200: c1ef e7bd 4e44 aabc 4a1e 8c3d 06d0 4cbc
00000210: 0652 2f3e 09f1 82bd 4825 ac3c e4f9 fa3b
00000220: be8a cbbd b0fa 1e3d cd13 0cbe a3aa 6b3d
00000230: 4ccf fe3d c0eb 2cbd 7041 6b3d c7f7 1ebd
00000240: bae4 1abd fec4 eabd b664 6dbd 45b6 a8bd
00000250: 7010 a73c f9a5 4abe 0328 0f3c bb41 213d
00000260: f3d1 d6bb b62f e23d cd6b d2bd c9ea 0fbe
00000270: 2ea2 8abd 57a2 b53d cf4b ecbd 8aa5 b53d
00000280: 9dd4 01bc d462 f53d 0fa6 0bbe b7e9 c33c
00000290: 8c71 29bd 5023 37be 824e a2bd 149e 863c
000002a0: 7096 6b3c cfaf 853d 2403 cb3d d33a 413d
000002b0: 1273 563d 7df8 763c 51f4 123d d4e2 0fbe
000002c0: 393e 403d 61bd 033d f37b 78bd 3a5c 37bd
000002d0: b770 83bd cc98 b4bd 674a 093e ceaf fe3d
000002e0: 0279 86bd 0da1 aabd df8f 0c3e 8deb c43d
000002f0: 9510 863d 939b 76bd 7e53 94bd bc1d 81bd

gru.weight_ih_l1 f4 [192, 64]
-0.033090383 0.025904668 -0.051317032 0.31520063 0.075962685 0.058806732 -0.2528023 -0.51523167
-0.20312725 -0.012790261 -0.23873007 0.06325276 -0.11403233 -0.026788145 -0.30658117 0.5240133
0.082192324 -0.01513789 -0.1449927 -0.11825903 0.6462929 0.2543279 0.09151149 0.033484958
-0.20880926 0.021169528 0.56983536 -0.011756697 -0.01836531 0.334867 0.1595073 -0.06687525
0.23353824 0.34380558 0.14620422 -0.08681847 0.32840607 -0.10873941 -0.12640247 -0.088808775
-0.023022363 -0.051818766 -0.022590244 -0.121177234 -0.09108945 0.015062254 -0.03608868 -0.08945297
-0.5631039 0.087880515 -0.18995644 -0.16937955 -0.11639404 -0.51253986 -0.106272265 0.070253514
-0.01266854 0.1973888 0.43497312 0.2632918 0.020818604 0.10852779 0.44913357 -0.20672552
0.2189091 0.35869998 -0.5120491 0.15873885 0.12324066 0.051017854 -0.22453402 -0.14320761
-0.05409977 -0.44818726 -0.10886882 0.05541182 0.07660848 0.2065923 0.17924803 -0.08398453
0.07029245 0.20942794 0.23688632 -0.1557962 -0.054486334 0.25796634 -0.025104659 0.39664045
0.005628942 0.29475492 0.043935888 0.023249848 -0.119310915 -0.10523489 -0.091524795 0.17482074
-0.28469068 0.040031664 0.1956455 0.41572866 -0.14515793 0.07838887 -0.020858053 -0.17740786
-0.14318101 0.11781838 -0.13722253 -0.34678513 0.16748644 0.13138846 -0.19738552 0.18326126
0.11963793 -0.12965146 -0.15006892 -0.09451922 -0.25650826 0.17357928 0.6936029 0.033700906
0.30703768 -0.08169532 -0.23135455 0.09343632 -0.1404513 -0.30247185 0.01760537 0.13222274
-0.06801684 -0.35315517 0.035747703 0.09211043 -0.055779833 -0.16889516 -0.2819549 0.1601524
0.09620977 -0.0029737786 -0.09138533 -0.17158444 -0.19391713 -0.025401546 -0.26377016 -0.10251189
-0.012494989 0.006522319 -0.26303542 0.13594788 -0.2072225 -0.18877181 -0.048289217 -0.243399
-0.22902848 0.21470246 -0.0025771116 -0.1290651 -0.35194588 -0.13792817 0.08777316 -0.22455493
0.032064114 0.105810165 -0.25445193 -0.37050727 -0.018137738 -0.16762997 0.21406934 -0.18804115
-0.06955747 -0.020934194 -0.08400561 0.06335046 0.3383253 -0.08513003 0.06315622 -0.12773727
0.35791272 0.23620744 0.02337938 -0.11058714 0.10611458 -0.01223291 -0.026925199 -0.021726191
-0.1404066 0.16179885 -0.19132209 0.011794706 0.35886392 0.005260072 -0.07740697 -0.08931028
0.16169162 -0.4415108 0.07985411 -0.13034974 -0.23749828 -0.028319083 0.086177744 0.25553614
0.077488594 0.33533788 0.055659994 0.15242572 -0.13678962 -0.113596745 -0.14719711 -0.08276081
-0.1316558 -0.1554269 -0.5368097 0.38112095 0.053396586 -0.17091458 0.15951417 0.14717045
-0.11016053 0.12877057 -0.036060374 0.06304028 0.024710873 -0.27275097 0.21259537 -0.2499473
-0.0062858984 -0.07705485 -0.34803477 -0.29815695 -0.07011281 0.20199002 0.23628436 -0.008571958
0.026402144 -0.16905911 -0.319225 -0.047925565 -0.10410073 -0.09801685 0.23298886 -0.018810043
-0.19152002 0.39009842 -0.12911913 0.28116328 -0.009186078 -0.105865814 -0.03622873 -0.014183029
0.052492008 0.18561861 0.26440236 -0.035925094 0.20800678 0.21939872 -0.0055935807 -0.22404669
00000000: c889 07bd 0736 d43c cf31 52bd fa61 a13e
00000010: 5392 9b3d 54df 703d 4e6f 81be 39e6 03bf
00000020: 9700 50be 3e8e 51bc a875 74be aa8a 813d
00000030: c889 e9bd d072 dbbc 35f8 9cbe bc25 063f
00000040: 7354 a83d ea04 78bc f778 14be ca31 f2bd
00000050: 7473 253f 4437 823e 606a bb3d 8627 093d
00000060: 18d2 55be b86b ad3c bbe0 113f 299f 40bc
00000070: d972 96bc b073 ab3e e255 233e e4f5 88bd
00000080: a624 6f3e 4907 b03e 8fb6 153e e2cd b1bd
00000090: d724 a83e c5b2 debd a66f 01be 60e1 b5bd
000000a0: 6599 bcbc ea3f 54bd 2d0f b9bc c52b f8bd
000000b0: 1b8d babd acc7 763c b9d1 13bd 1e33 b7bd
000000c0: 9427 10bf b3fa b33d f183 42be d571 2dbe
000000d0: 0060 eebd d035 03bf 46a5 d9bd 13e1 8f3d
000000e0: b58f 4fbc 4a20 4a3e ccb4 de3e 2fce 863e
000000f0: c78b aa3c d143 de3d d6f4 e53e dbaf 53be
00000100: b529 603e 86a7 b73e a615 03bf 708c 223e
00000110: 9965 fc3d 19f8 503d 3fec 65be 04a5 12be
00000120: b897 5dbd cd78 e5be 9ef6 debd 81f7 623d
00000130: e8e4 9c3d ef8c 533e cc8c 373e 1500 acbd
00000140: 7df5 8f3d 4774 563e 5492 723e 0a89 1fbe
00000150: 102d 5fbd 2a14 843e 49a8 cdbc 7514 cb3e
00000160: fd72 b83b 1eea 963e 1ef6 333d 7776 be3c
00000170: 4859 f4bd 6485 d7bd 5a71 bbbd 3504 333e
00000180: fac2 91be 3ef8 233d 4b57 483e 63da d43e
00000190: 48a4 14be 588a a03d 82de aabc 68aa 35be
000001a0: 0b9e 12be c34a f13d 1084 0cbe d28d b1be
000001b0: 9181 2b3e b28a 063e 6e1f 4abe d7a8 3b3e
000001c0: bb04 f53d 5ac3 04be abab 19be 4b93 c1bd
000001d0: 0d55 83be c4be 313e f68f 313f f609 0a3d
000001e0: 0b34 9d3e e04f a7bd 35e8 6cbe 8b5b bf3d
000001f0: 77d2 0fbe 97dd 9abe 2339 903c 6665 073e
00000200: 6a4c 8bbd c1d0 b4be 2f6c 123d 65a4 bc3d
00000210: 6579 64bd daf2 2cbe 655c 90be fefe 233e
00000220: a109 c53d bae3 42bb 3b28 bbbd d5b3 2fbe
00000230: 3692 46be e716 d0bc e20c 87be c1f1 d1bd
00000240: c8b7 4cbc 2db9 d53b 94ac 86be ec35 0b3e
00000250: 2332 54be 664d 41be eaca 45bd 963d 79be
00000260: 7186 6abe f6da 5b3e c2e4 28bb a429 04be
00000270: 4032 b4be 0b3d 0dbe 6ac2 b33d baf1 65be
00000280: a955 033d 00b3 d83d 8647 82be 21b3 bdbe
00000290: 9895 94bc 31a7 2bbe fe34 5b3e dc8d 40be
000002a0: 2674 8ebd 307e abbc 220b acbd e3bd 813d
000002b0: f938 ad3e a758 aebd 0c58 813d 8fcd 02be
000002c0: 5640 b73e 5de0 713e 1d86 bf3c 837b e2bd
000002d0: 9a52 d93d 8b6c 48bc 3c92 dcbc 20fb b1bc
000002e0: bfc6 0fbe 99ae 253e f0e9 43be 953e 413c
000002f0: 03bd b73e af5c ac3b 8c87 9ebd 4fe8 b6bd
00000300: 7d92 253e b40d e2be 8d8a a33d 677a 05be
00000310: c032 73be 6cfd e7bc f57d b03d a2d5 823e
00000320: 57b2 9e3d 68b1 ab3e bcfb 633d 7d15 1c3e
00000330: 9412 0cbe 69a5 e8bd d7ba 16be 807e a9bd
00000340: c7d0 06be 3b28 1fbe 5c6c 09bf 4922 c33e
00000350: 61b6 5a3d 3b04 2fbe af57 233e dab3 163e
00000360: d89b e1bd 6fdc 033e 0bb4 13bd 431b 813d
00000370: 756e ca3c 04a6 8bbe 9ab2 593e 2ff2 7fbe
00000380: f0f9 cdbb efce 9dbd 9d31 b2be 07a8 98be
00000390: 4e97 8fbd 79d6 4e3e 87f4 713e 6671 0cbc
000003a0: 4f49 d83c d51d 2dbe 7671 a3be 994d 44bd
000003b0: c332 d5bd 0fbd c8bd a294 6e3e 8517 9abc
000003c0: d31d 44be fbba c73e ce37 04be a2f4 8f3e
000003d0: 3481 16bc 2dd0 d8bd 9464 14bd ef5f 68bc
000003e0: dc01 573d ce12 3e3e bf5f 873e 3126 13bd
000003f0: bbff 543e 0faa 603e 5b4a b7bb 7f6c 65be

gru.weight_hh_l1 f4 [192, 64]
-0.16421223 -0.23856638 -0.099464215 0.05994169 0.020271454 0.35042492 0.03777927 0.12007946
0.15630373 0.03261581 0.07587865 0.13395342 -0.09199577 0.035287857 -0.25300363 -0.28255367
-0.023962473 0.01341008 -0.0152731035 0.26132825 0.09201092 -0.15744399 3.1193587e-05 0.08163713
0.0035526182 0.09275539 0.024498278 0.06834587 0.00095481717 -0.04973516 0.09662474 0.014647395
-0.15158929 0.2399116 -0.13606961 -0.13134634 0.389968 -0.023577774 0.13064338 0.26229346
-0.124892734 0.06989856 0.022556098 0.119077966 0.24640484 0.060558602 -0.29254323 -0.0051831533
0.06936556 0.02662409 -0.07405469 0.17463656 0.03293361 -0.0859285 0.05802118 -0.19869274
-0.19141991 -0.05287914 0.05801447 0.05066667 0.043322753 0.0372943 0.0125596635 0.11802172
0.12660454 -0.5370267 0.17535643 -0.14382523 -0.010335453 -0.20018686 -0.108038254 -0.2704037
0.083414465 0.20798731 -0.21649016 0.17363766 0.06886083 0.23233333 -0.016321478 0.13773
0.2607933 0.3571129 -0.07990689 -0.16063714 0.29674807 0.2129433 0.20437299 -0.3824747
0.0038131613 -0.16262904 0.013203017 0.054296017 0.079645686 0.21192054 0.3660102 0.076129
-0.078015886 -0.049831185 0.27972203 -0.23460343 -0.04021644 -0.09433023 0.25447625 -0.16116448
0.059219472 0.007556573 0.055161998 -0.22155343 -0.22834921 -0.24267933 -0.033719692 -0.22211206
-0.082678765 -0.09597633 -0.4637501 0.23571728 -0.18175879 -0.064818546 0.14023966 0.25409442
0.012745053 -0.16213924 -0.32356432 0.012088948 -0.10877641 0.051659297 0.15586466 -0.13639377
-0.030220293 0.0043098414 -0.15326595 0.11385405 -0.09243603 -0.06530888 0.051229738 0.3530697
-0.0030533308 -0.039029833 0.006483177 -0.016131239 -0.07467882 0.2229602 0.0043311357 -0.032803804
-0.06491364 -0.08208146 0.037098434 0.018214094 -0.09090792 0.05296694 0.12083134 0.019731496
-0.09890792 0.28484988 -0.013798204 -0.055755295 -0.22891366 -0.19115125 0.068723865 0.050477713
-0.09442138 -0.17780438 0.09666686 0.1633951 -0.009553335 0.3195912 0.08163229 -0.20136689
-0.059305962 0.12967604 0.28649136 -0.04482204 -0.11923206 -0.06528078 -0.11176112 0.106253244
-0.0043054586 0.1419082 0.31415364 -0.11611306 0.11668838 -0.30413026 0.13456696 0.15884854
-0.16396672 -0.036257613 -0.059430864 0.054540914 0.0681918 -0.17125571 0.3112439 -0.046521593
0.20287876 0.13693796 -0.09913986 0.14358719 0.116030075 0.18688935 0.022575341 0.23084138
-0.13982865 -0.08391055 0.11487855 -0.1859849 0.13170128 -0.1509333 -0.13133934 0.05308911
-0.065944806 0.00075543835 -0.038772974 0.18609042 -0.07795181 -0.18371508 -0.16456743 0.045043454
-0.13975687 -0.05480213 0.008992957 -0.097053654 -0.14669172 -0.044651244 -0.19006078 0.021181999
0.011515657 -0.2647667 -0.12728056 0.065445736 0.046234164 0.02930664 0.0018782937 0.014001139
-0.062138293 -0.16196175 0.023586981 -0.056246452 -0.032782968 0.020211138 -0.37090302 0.05742268
0.17275348 0.13679595 0.107526444 0.076189935 0.050456356 0.09356128 0.3378198 -0.06682311
-0.08690949 -0.22550897 0.27866217 0.032221027 0.015215302 0.18701793 0.024992928 -0.15975739
00000000: 4027 28be bf4a 74be e5b3 cbbd 6b85 753d
00000010: 5210 a63c e56a b33e 70be 1a3d 38ec f53d
00000020: 160e 203e 2898 053d 4466 9b3d 162b 093e
00000030: 4768 bcbd 008a 103d b189 81be e0aa 90be
00000040: f34c c4bc f4b5 5b3c 0a3c 7abc d1cc 853e
00000050: 3970 bc3d ff38 21be dcd5 0238 5e31 a73d
00000060: 0bd3 683b 8af6 bd3d 9db0 c83c ebf8 8b3d
00000070: b24c 7a3a 18b7 4bbd 31e3 c53d a1fb 6f3c
00000080: 393a 1bbe 63ab 753e d555 0bbe a87f 06be
00000090: e3a9 c73e 2d26 c1bc 61c7 053e 544b 863e
000000a0: c3c7 ffbd fa26 8f3d 91c7 b83c 26df f33d
000000b0: 8d51 7c3e 4c0c 783d 3ac8 95be 71d7 a9bb
000000c0: 880f 8e3d c31a da3c fca9 97bd edd3 323e
000000d0: 65e5 063d 48fb afbd 9ea7 6d3d 1c76 4bbe
000000e0: 9503 44be cc97 58bd 95a0 6d3d db87 4f3d
000000f0: 3373 313d e8c1 183d 0cc7 4d3c 5fb5 f13d
00000100: 9fa4 013e 957a 09bf a390 333e ec46 13be
00000110: 0856 29bc c9fd 4cbe 2943 ddbd 5b72 8abe
00000120: 34d5 aa3d a0fa 543e 99af 5dbe 12ce 313e
00000130: e806 8d3d cae8 6d3e 9fb4 85bc 1809 0d3e
00000140: b386 853e 81d7 b63e 39a6 a3bd 107e 24be
00000150: 5def 973e cf0d 5a3e 2747 513e b9d3 c3be
00000160: 3be6 793b 3a88 26be 7851 583c 8065 5e3d
00000170: 471d a33d b301 593e b065 bb3e 85e9 9b3d
00000180: cbc6 9fbd c91b 4cbd ba37 8f3e e23b 70be
00000190: feb9 24bd 3530 c1bd b64a 823e 4d08 25be
000001a0: 1e90 723d 219d f73b 8cf1 613d e7de 62be
000001b0: 60d4 69be ee80 78be a91d 0abd 5871 63be
000001c0: 7c53 a9bd 3d8f c4bd a770 edbe df5f 713e
000001d0: fa1e 3abe 96bf 84bd fc9a 0f3e aa18 823e
000001e0: a0d0 503c d407 26be 39aa a5be b910 463c
000001f0: 2bc6 debd b398 533d fc9a 1f3e cfaa 0bbe
00000200: 8c90 f7bc 9239 8d3b c0f1 1cbe 502c e93d
00000210: 1a4f bdbd a9c0 85bd 46d6 513d 8dc5 b43e
00000220: 641a 48bb bfdd 1fbd d570 d43b a925 84bc
00000230: 36f1 98bd ae4f 643e 33ec 8d3b 485d 06bd
00000240: 71f1 84bd 531a a8bd 87f4 173d b935 953c
00000250: ee2d babd ddf3 583d 6c76 f73d f2a3 a13c
00000260: 3c90 cabd d8d7 913e dd11 62bc aa5f 64bd
00000270: 5868 6abe 27bd 43be 19bf 8c3d b8c1 4e3d
00000280: ff5f c1bd 5a12 36be 46f9 c53d 0c51 273e
00000290: 9785 1cbc 75a1 a33e d42e a73d 1f33 4ebe
000002a0: cfea 72bd ccc9 043e ffae 923e 5197 37bd
000002b0: f02f f4bd eeb1 85bd 04e3 e4bd 4d9b d93d
000002c0: ce14 8dbb 6250 113e bfd8 a03e afcc edbd
000002d0: 51fa ee3d f6b6 9bbe eccb 093e 31a9 223e
000002e0: e4e6 27be dd82 14bd c76d 73bd 4b66 5f3d
000002f0: 24a8 8b3d a85d 2fbe 5c5b 9f3e 6d8d 3ebd
00000300: 73bf 4f3e 7739 0c3e d709 cbbd 8508 133e
00000310: 2da1 ed3d ec5f 3f3e ecef b83c af61 6c3e
00000320: 3e2f 0fbe 4bd9 abbd 7245 eb3d d372 3ebe
00000330: b3dc 063e 428e 1abe d27d 06be f773 593d
00000340: 120e 87bd 9c08 463a 69d0 1ebd 7d8e 3e3e
00000350: 33a5 9fbd ce1f 3cbe 5d84 28be 7c7f 383d
00000360: 6d1c 0fbe 3378 60bd 3257 133c 11c4 c6bd
00000370: 5b36 16be 39e4 36bd 4b9f 42be df85 ad3c
00000380: 2bac 3c3c 808f 87be d655 02be 6a08 863d
00000390: 0960 3d3d 7b14 f03c 1431 f63a 0965 653c
000003a0: b984 7ebd 4dd9 25be 7c39 c13c ae62 66bd
000003b0: 6f47 06bd d491 a53c 00e7 bdbe 0b34 6b3d
000003c0: 4ae6 303e 3d14 0c3e d336 dc3d 7809 9c3d
000003d0: 53ab 4e3d 0e9d bf3d b8f6 ac3e 8eda 88bd
000003e0: 9afd b1bd d3eb 66be cfac 8e3e 32fa 033d
000003f0: 9a49 793c a181 3f3e f8bd cc3c 7197 23be

gru.bias_ih_l1 f4 [192]
-0.0186028 0.1752887 0.016348595 0.16835979 -0.14112027 -0.012431498 -0.113961264 0.09517601
-0.05783316 -0.06793524 -0.0029438697 0.068254344 0.21986961 0.094897114 0.08643998 0.0100619085
0.12767398 -0.10422238 0.20113848 0.19525053 0.09448272 -0.06551352 0.14585523 0.03058178
0.12569578 -0.076527975 0.15132205 0.04122731 -0.13754319 0.26736104 0.12424089 0.113407865
0.10786583 -0.036774263 0.18278573 0.1734875 0.18964666 0.013008928 0.19889922 0.1362059
0.18537144 0.16888013 0.023689015 0.2051645 -0.07269586 0.20438653 -0.09914748 0.13466538
0.12593377 0.05637548 0.06968952 0.21786943 0.059936084 0.1510912 0.008003114 -0.012406173
0.18510403 -0.00024948208 0.014986081 0.08269757 -0.010620562 0.1317862 -0.02895783 0.05732263
-0.09610137 -0.09746257 -0.117388695 -0.045428727 0.1533424 -0.17583169 -0.16008553 -0.21993229
-0.2253313 -0.16674402 -0.4494886 -0.19087768 -0.036559653 -0.14118756 -0.33519736 0.17584974
-0.16460678 -0.062385976 -0.08933762 -0.4268731 -0.04273684 -0.039163828 -0.071938954 -0.23318182
-0.14133362 -0.05256804 -0.26261607 -0.0706526 -0.31583688 -0.17697029 -0.13839167 0.094355695
0.010829025 -0.09278838 -0.2522738 -0.0539282 0.015217051 -0.14783983 -0.4036196 -0.19548298
-0.19689256 0.15276276 -0.3060779 -0.18953855 -0.1415195 -0.37920558 -0.101544544 -0.24438913
-0.10254098 -0.21827222 -0.12522136 -0.17590444 -0.18726893 -0.17785338 0.17896721 0.20148551
-0.17277847 -0.2832426 -0.036128905 -0.30819112 0.010591777 -0.18045673 0.03002104 -0.25013986
-0.1251828 -0.07250061 -0.025495332 -0.11772808 0.100818336 -0.059029017 0.039586365 0.106424294
-0.028020758 0.13629892 -0.08997126 -0.0721544 0.097995296 -0.023170874 -0.20272319 0.05226693
0.04616459 0.07566057 -0.08225414 -0.08386549 0.021983005 -0.091683775 0.013022571 -0.022172403
-0.11765624 -0.04035461 0.015352024 -0.005031772 -0.04228188 -0.05066218 -0.0073210034 0.035977475
-0.112067126 -0.121695004 -0.09518203 -0.04038571 0.10849158 0.028793458 0.049866717 -0.031309515
0.12249269 0.08695398 0.034728587 -0.1463966 0.1002748 -0.027458474 0.06875154 0.08656441
0.12724212 -0.12027288 -0.0450331 0.040796295 0.11952622 -0.12128955 -0.04249228 -0.061353043
-0.0048848293 -0.04554085 -0.12331579 0.11112592 -0.07794574 0.13901815 0.0055360487 0.036368605
00000000: e664 98bc e27e 333e 7ded 853c 8266 2c3e
00000010: d581 10be 7bad 4bbc 8664 e9bd a4eb c23d
00000020: 77e2 6cbd a221 8bbd f0ed 40bb efc8 8b3d
00000030: 8025 613e 6b59 c23d 7207 b13d b4da 243c
00000040: f8bc 023e 8b72 d5bd 3ff7 4d3e c1ef 473e
00000050: 2880 c13d f42b 86bd 135b 153e a486 fa3c
00000060: 65b6 003e b3ba 9cbd 2bf4 1a3e f8dd 283d
00000070: 1fd8 0cbe 8ce3 883e 0272 fe3d 6242 e83d
00000080: c3e8 dc3d 9ca0 16bd 2f2c 3b3e b5a6 313e
00000090: bc32 423e 6623 553c 3dac 4b3e 8f79 0b3e
000000a0: 03d2 3d3e eaee 2c3e 770f c23c a516 523e
000000b0: 91e1 94bd b44a 513e d60d cbbd b9e5 093e
000000c0: c8f4 003e fae9 663d 61b9 8e3d 2a19 5f3e
000000d0: 8a7f 753d a7b7 1a3e 7e1f 033c 4343 4bbc
000000e0: e98b 3d3e ebcc 82b9 2e88 753c 585d a93d
000000f0: de01 2ebc f6f2 063e f938 edbc 22cb 6a3d
00000100: ccd0 c4bd 759a c7bd 7c69 f0bd 7913 3abd
00000110: ca05 1d3e 390d 34be 76ed 23be ee35 61be
00000120: 40bd 66be f2be 2abe 5f23 e6be 7075 43be
00000130: 93bf 15bd 7993 10be fd9e abbe f411 343e
00000140: ae8e 28be 7088 7fbd a4f6 b6bd 1c8f dabe
00000150: d30c 2fbd 406a 20bd bb54 93bd 37c7 6ebe
00000160: c3b9 10be 9651 57bd 9d75 86be 4fb2 90bd
00000170: 5fb5 a1be b337 35be 8cb6 0dbe 8f3d c13d
00000180: 396c 313c d607 bebd 082a 81be d1e3 5cbd
00000190: f050 793c 5363 17be 3aa7 cebe b12c 48be
000001a0: 349e 49be d76d 1c3e 3eb6 9cbe 6516 42be
000001b0: 7dea 10be 3c27 c2be 96f6 cfbd 2541 7abe
000001c0: 0101 d2bd c182 5fbe 073a 00be 4b20 34be
000001d0: 6dc3 3fbe 321f 36be 2e43 373e 3852 4e3e
000001e0: d7ec 30be 2d05 91be e7fb 13bd 3acb 9dbe
000001f0: 2289 2d3c a6c9 38be afee f53c 5512 80be
00000200: ec2f 00be 337b 94bd 96db d0bc 6b1b f1bd
00000210: d879 ce3d 69c8 71bd 5025 223d fbf4 d93d
00000220: ca8b e5bc f291 0b3e da42 b8bd b0c5 93bd
00000230: c2b1 c83d d8d0 bdbc ab96 4fbe d915 563d
00000240: 1517 3d3d eef3 9a3d dc74 a8bd acc1 abbd
00000250: b415 b43c b4c4 bbbd 9f5c 553c e6a2 b5bc
00000260: c1f5 f0bd e04a 25bd 0e87 7b3c 90e1 a4bb
00000270: c42f 2dbd 2583 4fbd 07e5 efbb 1e5d 133d
00000280: 7383 e5bd 3b3b f9bd ccee c2bd 7c6b 25bd
00000290: d530 de3d 42e0 eb3c 0b41 4c3d 683e 00bd
000002a0: 73dd fa3d ee14 b23d 903f 0e3d fee8 15be
000002b0: e05c cd3d 98f0 e0bc 9bcd 8c3d ae48 b13d
000002c0: c24b 023e a151 f6bd a174 38bd 041a 273d
000002d0: 2aca f43d a866 f8bd 630c 2ebd 544d 7bbd
000002e0: eb10 a0bb 0b89 3abd fd8c fcbd fd95 e33d
000002f0: 04a2 9fbd c65a 0e3e be67 b53b 3ff7 143d

gru.bias_hh_l1 f4 [192]
0.10863473 0.06871411 -0.034158617 0.16315791 -0.12060633 -0.029437058 0.020079894 0.120427944
0.08554363 -0.09506703 0.0024499795 -0.011798248 0.28285068 0.19909634 0.1678196 0.09430758
0.075254135 0.07509522 0.19597468 0.049490012 0.18738863 0.09960223 -0.0036014705 0.052365266
0.18698272 0.16357787 -0.025420036 0.07603166 -0.055920646 0.09414678 -0.032416087 -0.055907596
-0.022955047 0.087721646 0.18360023 0.1440824 0.20654814 0.057325415 0.3465408 0.142367
0.07729021 0.17369944 0.18711539 0.15191466 0.107176445 0.08462738 -0.100611776 0.25360098
0.057610657 -0.12645271 0.11717525 0.18219136 0.089163795 0.21932271 -0.029586302 0.12658347
0.16907057 0.2059332 0.099068105 0.1283252 0.08481583 0.18344633 -0.07720843 0.08308078
-0.12780344 -0.10167756 -0.08728831 -0.030276215 0.2912323 -0.04182201 -0.22034122 -0.04169757
-0.22302686 -0.35155782 -0.3269971 -0.25227833 -0.005712082 -0.16890186 -0.24875687 0.15562502
-0.1280483 0.106303886 -0.026402352 -0.38731077 0.08389299 0.100659244 -0.101553194 -0.07893359
-0.040378615 0.039518435 -0.26713458 -0.17028978 -0.13163666 -0.12654912 -0.18966998 0.09002995
0.048209008 -0.27862844 -0.4337174 -0.029458608 0.05443627 -0.14037359 -0.32025278 -0.10986665
-0.15942352 0.009164243 -0.31643227 -0.19979201 -0.1718945 -0.39403284 -0.024452724 -0.13851349
-0.17355329 -0.21122424 -0.20833541 -0.3613494 -0.25751585 -0.09746231 0.082212694 0.27482516
-0.26113096 -0.36552987 -0.07244666 -0.27025408 -0.01597417 -0.34814677 -0.021471078 -0.07345428
-0.04229247 -0.12582766 0.093633674 -0.010530613 -0.04470028 0.013747582 -0.048214506 -0.077347316
0.10534468 0.012415509 -0.058217056 0.08432394 -0.052144658 -0.03057755 0.092009366 -0.11507308
0.022561386 0.11595669 0.06314463 -0.109178156 0.060630184 0.088126086 -0.003264739 -0.06335577
-0.116207115 -0.115026765 0.053230494 0.0038601642 0.1406469 -0.012433595 0.12499731 -0.09080445
-0.03735356 0.103274636 0.0075488347 -0.070114605 0.14443761 0.13505006 -0.1081192 0.056194466
0.06664899 -0.14408383 0.06389388 -0.0859292 0.046530906 -0.1776817 -0.058093067 0.00789246
-0.12227312 -0.016079606 -0.08687944 0.124929376 -0.028974123 0.007831682 0.07027201 -0.08904933
-0.02010938 -0.15114437 -0.1613461 0.045014523 0.10861641 -0.06196038 0.022869868 -0.070331335
00000000: e37b de3d fcb9 8c3d e8e9 0bbd de12 273e
00000010: 7400 f7bd fc25 f1bc 977e a43c eda2 f63d
00000020: 8031 af3d 81b2 c2bd d68f 203b 704d 41bc
00000030: ced1 903e e9df 4b3e e7d8 2b3e 5524 c13d
00000040: d71e 9a3d 86cb 993d 96ad 483e 0ab6 4a3d
00000050: cee2 3f3e 41fc cb3d a606 6cbb f67c 563d
00000060: 6678 3f3e f580 273e ae3d d0bc 7db6 9b3d
00000070: 0c0d 65bd 07d0 c03d bbc6 04bd 5dff 64bd
00000080: 390c bcbc 68a7 b33d b301 3c3e 568a 133e
00000090: 5b81 533e 0ece 6a3d cc6d b13e a8c8 113e
000000a0: 544a 9e3d 44de 313e 2d9b 3f3e 848f 1b3e
000000b0: 537f db3d 1f51 ad3d 8c0d cebd fdd7 813e
000000c0: 27f9 6b3d d27c 01be 94f9 ef3d 5f90 3a3e
000000d0: 829b b63d 2296 603e f95e f2bc 199f 013e
000000e0: d620 2d3e 27e0 523e 38e4 ca3d ae67 033e
000000f0: ecb3 ad3d 5bd9 3b3e 741f 9ebd 4226 aa3d
00000100: e8de 02be 533c d0bd 37c4 b2bd d305 f8bc
00000110: 661c 953e 8e4d 2bbd 21a1 61be 12cb 2abd
00000120: 2761 64be 63ff b3be 2a6c a7be a02a 81be
00000130: 6b2c bbbb 9cf4 2cbe 1fba 7ebe 2a5c 1f3e
00000140: 181f 03be dab5 d93d bf49 d8bc 994d c6be
00000150: 17d0 ab3d 6f26 ce3d 1ffb cfbd efa7 a1bd
00000160: 0c64 25bd 15de 213d ddc5 88be 7260 2ebe
00000170: c3cb 06be 1896 01be d938 42be 9f61 b83d
00000180: cf76 453d 63a8 8ebe 3510 debe 2e53 f1bc
00000190: 91f8 5e3d 18be 0fbe 2cf8 a3be c401 e1bd
000001a0: eb3f 23be 9f25 163c 6903 a2be 4796 4cbe
000001b0: 1d05 30be acbe c9be 1451 c8bc 7bd6 0dbe
000001c0: f4b7 31be 2b4b 58be e155 55be ca02 b9be
000001d0: 1ed9 83be 529a c7bd 215f a83d e2b5 8c3e
000001e0: f5b2 85be bb26 bbbe ea5e 94bd be5e 8abe
000001f0: 43dc 82bc 4b40 b2be 1de4 afbc 336f 96bd
00000200: de3a 2dbd f7d8 00be 03c3 bf3d 9888 2cbc
00000210: a417 37bd 8a3d 613c 937c 45bd 4568 9ebd
00000220: f4be d73d 6b6a 4b3c 0275 6ebd 08b2 ac3d
00000230: a395 55bd c57d fabc 686f bc3d 6fab ebbd
00000240: a8d2 b83c b37a ed3d f951 813d cc98 dfbd
00000250: 5b57 783d 737b b43d 3bf5 55bb acc0 81bd
00000260: fffd edbd 2793 ebbd 3808 5a3d cffa 7c3b
00000270: be05 103e 47b6 4bbc 97fe ff3d aff7 b9bd
00000280: 0c00 19bd a781 d33d 375c f73b 3f98 8fbd
00000290: 74e7 133e 904a 0a3e 996d ddbd 2b2c 663d
000002a0: 447f 883d b68a 13be cbda 823d a6fb afbd
000002b0: 3197 3e3d 31f2 35be fff2 6dbd 604f 013c
000002c0: 546a fabd 61b9 83bc d9ed b1bd f9da ff3d
000002d0: 245b edbc 7550 003c c6ea 8f3d 7f5f b6bd
000002e0: 6dbc a4bc 97c5 1abe e937 25be 2661 383d
000002f0: 4872 de3d 2bca 7dbd 9759 bb3c e009 90bd

fc.weight f4 [4, 64]
0.17331141 0.20720169 -0.030571414 0.42672995 0.12840672 -0.2761659 -0.15787327 0.1638124
-0.17072268 0.10981334 -0.029294295 0.13661428 -0.41346875 0.18452933 -0.30690882 0.030342998
0.10858639 0.053093653 0.15678835 0.15872191 0.19280857 0.29975817 0.33226967 0.12833808
-0.042061836 0.056893777 0.3710148 0.033507146 -0.024491379 0.1134298 0.020533947 0.07608253
-0.023595955 -0.33611506 -0.49836674 0.05152297 0.14882208 0.21099262 -0.24183735 -0.23201531
-0.072690934 0.067350045 0.25969362 0.16232535 -0.028719503 -0.0693152 -0.23463592 0.10761306
0.3122535 0.11544501 -0.2179397 0.1751373 0.23280701 0.3665731 -0.20323274 -0.12141921
0.39843023 0.54746276 0.20967698 -0.14983252 -0.02557925 -0.51048374 0.009151511 -0.25620756
0.108660065 -0.1647121 -0.16828348 -0.10067095 0.009536391 -0.33653718 -0.20703386 0.17696694
-0.0667883 -0.0907857 0.08179628 -0.06807666 -0.0554231 -0.24511446 0.1117329 0.07491173
0.16254063 -0.027186265 -0.31121308 -0.20612343 -0.18489969 0.09854092 -0.024357935 -0.1148642
0.030861005 0.29595926 -0.42678034 0.065457046 -0.1556184 0.18337636 0.29043785 0.178973
0.17444718 0.16448036 -0.33247808 0.12335774 0.036071084 -0.24296091 0.121328965 0.17332694
-0.042385735 0.24569087 0.26558697 0.04746405 -0.2537927 -0.0005527532 -0.008883728 0.10428133
-0.14519049 0.31277007 0.291863 0.2930168 0.37631664 0.22094765 -0.121983945 0.12283935
0.26742828 0.2563281 -0.112154596 -0.019011935 -0.22454613 0.12037228 0.230114 0.18661985
-0.23308334 -0.18503928 -0.009762207 0.40601397 0.27130115 0.05263545 0.03193476 0.24601641
0.17495903 -0.26364258 -0.07792733 0.27410007 0.19456516 -0.122331694 -0.1345337 0.15559317
0.14144336 0.09472891 -0.12181351 -0.039261952 0.15756735 0.023252135 -0.048470035 0.1361387
-0.015939005 0.305496 -0.0080162715 -0.32957017 -0.16033834 0.13371143 -0.13239259 0.3326879
0.049174577 -0.061842844 -0.06717158 0.19620125 -0.24836844 -0.0072333105 0.20154858 -0.12193484
-0.18741377 0.050521795 0.08834165 0.008499408 0.16344193 -0.28643608 0.23551492 0.00093263603
-0.14829378 -0.0287567 0.24569218 0.0922073 -0.021658778 -0.020534363 0.09867086 0.29129204
0.08084721 -0.0075246734 0.051177718 -0.41846758 0.025481762 0.01320655 0.043925226 0.00023460224
0.27160254 -0.3059093 -0.130216 0.25388506 0.15213825 -0.16878234 0.37979925 -0.11171404
0.46337923 -0.029598918 0.29209775 0.25040126 -0.107562155 -0.04640988 -0.34573573 0.0790459
0.20646478 0.07993691 -0.025076656 -0.057895064 0.21533857 -0.056534693 0.15360257 0.1366865
-0.03706086 -0.045615256 -0.10522211 -0.016329253 -0.18352215 -0.005965906 0.3106182 0.15080881
-0.2834353 -0.33124813 -0.17304538 -0.20692688 -0.036002308 0.30086905 -0.24672017 -0.27897263
0.09713909 0.16884881 -0.14477405 0.11502234 -0.101985134 -0.23017174 0.051192343 0.27633712
-0.040996026 0.20819771 0.21716046 0.06719044 -0.037709665 0.042452443 0.34208712 0.04360023
-0.07741048 -0.11607554 -0.17615719 -0.06515918 0.006407455 -0.21875611 0.042565506 -0.36279055
00000000: 8c78 313e ae2c 543e e770 fabc 597c da3e
00000010: 0d7d 033e 9e65 8dbe 88a9 21be 70be 273e
00000020: edd1 2ebe d1e5 e03d 97fa efbc 9de4 0b3e
00000030: 2db2 d3be 42f5 3c3e 2723 9dbe e191 f83c
00000040: 8b62 de3d bb78 593d 208d 203e ff87 223e
00000050: 9c6f 453e e779 993e 401f aa3e 0f6b 033e
00000060: 0849 2cbd 7309 693d a7f5 bd3e ca3e 093d
00000070: 25a2 c8bc e24d e83d cf36 a83c 28d1 9b3d
00000080: 4e4c c1bc 4617 acbe ed29 ffbe c009 533d
00000090: d164 183e 730e 583e 36a4 77be 6c95 6dbe
000000a0: fcde 94bd d2ee 893d 90f6 843e 9e38 263e
000000b0: 2a45 ebbc 21f5 8dbd 6644 70be 3c64 dc3d
000000c0: b1df 9f3e 6f6e ec3d 962b 5fbe 3157 333e
000000d0: f664 6e3e 78af bb3e 3e1c 50be a3aa f8bd
000000e0: 0cff cb3e 8526 0c3f 90b5 563e b26d 19be
000000f0: 938b d1bc 10af 02bf 38f0 153c a32d 83be
00000100: 2b89 de3d 4aaa 28be 8152 2cbe 922c cebd
00000110: 863e 1c3c 9a4e acbe af00 54be d236 353e
00000120: 4ec8 88bd daed b9bd cf84 a73d c76b 8bbd
00000130: 5503 63bd 49ff 7abe 38d4 e43d 526b 993d
00000140: 0d71 263e bbb5 debc 5257 9fbe 0512 53be
00000150: 5856 3dbe d2cf c93d 4b8a c7bc ec3d ebbd
00000160: 38d0 fc3c f987 973e f482 dabe 580e 863d
00000170: 6e5a 1fbe 03c7 3b3e 45b4 943e b344 373e
00000180: 48a2 323e 8a6d 283e 913a aabe fca2 fc3d
00000190: 46bf 133d bfca 78be 527b f83d 9e7c 313e
000001a0: aa9c 2dbd 6396 7b3e 04fb 873e aa69 423d
000001b0: 1ef1 81be a4e6 10ba 0e8d 11bc 7391 d53d
000001c0: d1ac 14be 6623 a03e 116f 953e 4c06 963e
000001d0: 93ac c03e 1a40 623e b8d2 f9bd 3293 fb3d
000001e0: 5cec 883e 703d 833e 4fb1 e5bd ebbe 9bbc
000001f0: 6cef 65be be85 f63d 01a3 6b3e 4619 3f3e
00000200: 66ad 6ebe f07a 3dbe aaf1 1fbc 10e1 cf3e
00000210: fce7 8a3e 4598 573d 06ce 023d baeb 7b3e
00000220: 7628 333e 29fc 86be 5d98 9fbd d856 8c3e
00000230: 173c 473e 0a89 fabd 34c3 09be d153 1f3e
00000240: 87d6 103e 3b01 c23d 5d79 f9bd 24d1 20bd
00000250: 5659 213e 437b be3c 8488 46bd f267 0b3e
00000260: 8492 82bc f969 9c3e ae56 03bc 6cbd a8be
00000270: bc2f 24be a6eb 083e ec91 07be 1256 aa3e
00000280: 486b 493d ec4e 7dbd 4191 89bd fbe8 483e
00000290: 4c54 7ebe 6805 edbb c062 4e3e f9b8 f9bd
000002a0: 65e9 3fbe f1ef 4e3d 78ec b43d 1a41 0b3c
000002b0: 525d 273e c0a7 92be d32a 713e 257c 743a
000002c0: 53da 17be 2c93 ebbc bb96 7b3e 2ed7 bc3d
000002d0: c06d b1bc ae37 a8bc f313 ca3d 3b24 953e
000002e0: 3993 a53d 8991 f6bb ba9f 513d 6241 d6be
000002f0: 21bf d03c 4960 583c f0ea 333d 8fff 7539
00000300: 7d0f 8b3e 25a0 9cbe 5857 05be 39fd 813e
00000310: 21ca 1b3e 47d5 2cbe 0c75 c23e 55ca e4bd
00000320: 0b40 ed3e 6e79 f2bc d68d 953e 9834 803e
00000330: 8c49 dcbd 4918 3ebd 4604 b1be d1e2 a13d
00000340: 816b 533e f6b5 a33d 8f6d cdbc 6023 6dbd
00000350: b781 5c3e ec90 67bd fe49 1d3e 8cf7 0b3e
00000360: 21cd 17bd 10d7 3abd b17e d7bd edc4 85bc
00000370: 3bed 3bbe a67d c3bb 5909 9f3e a06d 1a3e
00000380: 6f1e 91be 5b99 a9be cf32 31be a4e4 53be
00000390: 2877 13bd 820b 9a3e 36a4 7cbe 80d5 8ebe
000003a0: dcf0 c63d b4e6 2c3e a63f 14be d590 eb3d
000003b0: 95dd d0bd 24b2 6bbe 10af 513d 0f7c 8d3e
000003c0: 73eb 27bd c831 553e 505f 5e3e 249b 893d
000003d0: 7375 1abd 9de2 2d3d 0b26 af3e 2896 323d
000003e0: 6389 9ebd 03b9 edbd 8d62 34be 2d72 85bd
000003f0: a1f5 d13b 9a01 60be 2b59 2e3d afbf b9be

fc.bias f4 [4]
0.10554531 -0.042177416 0.053474624 -0.11469776
00000000: 2428 d83d 3ac2 2cbd 3508 5b3d a9e6 eabd
