gru_model/learned_on_all_data.pth (torch, 166740 bytes, 10 tensors)

gru.weight_ih_l0 f4 [192, 15]
00000000: c0d6 1bbe b887 a9bd 7540 99be 1fa2 a53a
00000010: ba77 58bd 3551 46be 2f73 00be fa21 ccbd
00000020: ba23 603e 3d28 c7be 4e49 90be 586b 353d
00000030: 9188 1f3e 1783 1ebf 26a5 21bf 8071 233c
00000040: 5dab 4d3e 8660 8dbd affa 103e 4112 a5bd
00000050: be05 7fbd 4d64 083e 01f3 24bd 5c45 483e
00000060: 7a71 95be 950a 10bf 6b60 cabf a74c 3b3f
00000070: 93da 68bf 04f3 18bf d286 433e b9f4 9f3e
00000080: 3ed0 793d 9d31 a93e 2c3e 863e e890 2f3e
00000090: ebb8 b3bd 245f 253d a846 443d ba88 32bf
000000a0: 0c89 3fbe 9871 4c3e 510e 9abe aa28 c5bf
000000b0: c4c2 a63c 6d7d 053d 70a2 353e 16c4 083f
000000c0: 1c8e 613c a694 123e b0be 0a3f 6261 cd3d
000000d0: 1519 a53d a70e f4be 84d1 45be 81fa f6be
000000e0: 9429 c7bf c106 efbe a4b0 c8bf 6368 a4be
000000f0: 63fb 90be 7618 6dbe d45b 81be de2e cfbd
00000100: 1ba3 80be 34fa 893e e245 433d 2c46 1c3e
00000110: 75ec 123e d450 bcbe 4708 35ba 1416 483f
00000120: b2b7 463e ab67 853f 5691 a8bd a54d 833e
00000130: 80cc 973e ae7f 373c 429e 20bd 7053 87be
00000140: 2c4a 2e3d 9381 b8bd ff0b e03b d959 8dbd
00000150: 7e0f f4bd 4823 b8bd 638c 48bf a472 cdbc
00000160: dc7e 963f fb16 c0be d45f 4dbc 1c41 f8bc
00000170: cf1b aabd 8bcc fa3d 26e5 e13d ee34 0cbe
00000180: 5c6b cd3c ff95 963d 7730 843e dc46 b53e
00000190: e910 d4be 199b 83be 27fe 0b40 8d9a 793e
000001a0: 2b01 e93e 38cd 3d3d 893d b4be 6c9f a0bd
000001b0: ffae 53be a429 44be ce63 b1bc f7e9 d1bc
000001c0: b5e1 3fbe cb5f 37bd af3d a7bf 4aa5 98bf
000001d0: d6c1 8abf 77d2 a93e b44e 82bf 8b17 a2bf
000001e0: fff2 f3bc 9aea c63e 3895 103f 8edf f0bb
000001f0: 0bfb 433e 906d 9a3e 872c 743d 0f33 0fbe
00000200: 611b e4be 9f4a debe e601 1abf 17b1 abbf
00000210: 7121 483f c8f7 903e 81f5 f6be 7640 e5bd
00000220: 58ec 9d3c 6219 88bd e675 923d f23e c33d
00000230: 4604 f53d a828 9abd 4967 f63d 00bd 423e
00000240: 55b9 c6be a05f 51be aa9d 873e 9fde c7bd
00000250: f999 5140 ecfe eebe b113 1a3e b229 34bf
00000260: d460 52bf 1d0e 103e fdbc 3e3e 26dd 29be
00000270: 53ee 473d 787b e4bc 9c9a a93e 07ff 7a3e
00000280: 7ae6 00be 39cc e9bf 8126 663f 009e 25be
00000290: 412f 823e c5d5 5f3d 6258 2c3e 844b 063e
000002a0: 241b 0b3e a52c 83bc 8a53 b53d 3490 b4bd
000002b0: 95d6 79bd 68b4 ebbc f55f 85be 39b5 e8be
000002c0: 0f0c a6bf b11d afbf b0ad e53c fb9e 76bd
000002d0: 2d7f 8abd eee0 2e3e 8bf2 143e 33a2 6dbd
000002e0: d332 2bbd d14b 213d c629 e73d 2e81 953d
000002f0: b4ac 98be a122 243e 6445 a0bc 52d1 bbbe
00000300: 23bd 86c0 e0c8 97c0 4974 703e f43d f1bd
00000310: dee6 93be e110 3dbe 442b 99bd 0d63 a93d
00000320: cfbf 6e3d 2b08 eebd 521f ac3d c14d 57bc
00000330: 1c73 fe3e 112a 3c3f 6f7f 2e3e 3b87 063f
00000340: 653b 7e3f 20f6 e43e 1352 1cbe 2cca 64be
00000350: 663a 06be b224 67be cff1 48be fc23 48bc
00000360: 74b0 c9bc a25e e1bc e599 c93e 636a 12bf
00000370: a366 b0be a08a ffbe 47f5 a4bf a090 a6bf
00000380: bc86 b6be 11b7 5a3e 791d 603e 9574 b13e
00000390: 841a 8cbd b860 983e d1ee f53e cd53 2abc
000003a0: b4eb 523f 1987 073d b98c 073f 6d47 73bf
000003b0: ab58 bb3f eeba 59be 4fad e6be 9c1d 423e
000003c0: 28c4 983c e8eb 22be c336 93be 92c4 df3d
000003d0: caab bf3c fad3 4a3e fedf 803d c3dc 973d
000003e0: 7a06 2c3e c3d4 2fbe afff 0fbf 8a9f d83e
000003f0: ae44 f93d 344c b73f 8631 c03e 5dc9 c6bd
-0.1521864 -0.082778394 -0.2993199 0.0012636817 -0.052848555 -0.19366916 -0.12543939 -0.09967418
0.21888629 -0.38897887 -0.28180927 0.044291824 0.1557944 -0.6191878 -0.6314262 0.009975791
0.20084901 -0.06903176 0.14158128 -0.08060122 -0.062261336 0.13319512 -0.04027081 0.19557709
-0.29188138 -0.56266147 -1.5810674 0.7316384 -0.9095852 -0.5974581 0.19094399 0.31241396
0.06098961 0.33045664 0.26219308 0.17145121 -0.08775505 0.040373936 0.047918946 -0.6973988
-0.18704623 0.19965208 -0.30089048 -1.5403035 0.020356543 0.03259032 0.17737746 0.53424203
0.013766792 0.14314517 0.54197216 0.1002834 0.08061425 -0.4766743 -0.19318205 -0.48237994
-1.5559564 -0.4668484 -1.5678906 -0.3211089 -0.28316793 -0.23153862 -0.25265372 -0.10116361
-0.2512444 0.26948702 0.047674067 0.15261143 0.14348014 -0.36780417 -0.00069058355 0.7815869
0.19406012 1.0422262 -0.08230846 0.25645176 0.2964821 0.011199875 -0.039213426 -0.26430845
0.042551205 -0.09009089 0.0068373675 -0.06901903 -0.119170174 -0.08991104 -0.78339213 -0.025079079
1.1757464 -0.37517533 -0.012535054 -0.030304484 -0.08306085 0.12246045 0.11030035 -0.13692066
0.025075607 0.07352828 0.25818226 0.35405624 -0.4141915 -0.25704268 2.1873872 0.24375363
0.45508704 0.04633829 -0.35203198 -0.07842907 -0.20672224 -0.1915651 -0.021654036 -0.025624258
-0.18738444 -0.04476909 -1.3065699 -1.1925442 -1.0840404 0.33168384 -1.0180268 -1.2663435
-0.029778956 0.38850862 0.5647769 -0.0073508685 0.19138734 0.30161715 0.059612777 -0.13984321
-0.44552138 -0.43416306 -0.60159147 -1.3413419 0.7817603 0.28314042 -0.4823418 -0.111939356
0.019277737 -0.066454664 0.071513936 0.0953349 0.11963706 -0.07527286 0.12031419 0.1901741
-0.38813272 -0.20446634 0.26487476 -0.097592585 3.2750227 -0.46678865 0.15046574 -0.7037612
-0.82179 0.14067884 0.18626781 -0.16588268 0.048811268 -0.027890906 0.3312577 0.24511348
-0.1258792 -1.8265449 0.899025 -0.16173553 0.25426677 0.054647226 0.1683059 0.13114744
0.13584572 -0.0160125 0.088538244 -0.08816567 -0.060995657 -0.028772548 -0.26049772 -0.45450762
-1.297243 -1.3680936 0.028036922 -0.06021021 -0.06762538 0.17077991 0.14545648 -0.058016013
-0.041796517 0.039378945 0.112872645 0.0730003 -0.29819262 0.16028835 -0.019564338 -0.36683136
-4.210588 -4.743271 0.2348186 -0.11779395 -0.28887075 -0.1846347 -0.074789554 0.082708456
0.05828839 -0.11622652 0.084044114 -0.013141097 0.49697196 0.7350169 0.170408 0.52550095
0.9930938 0.44719028 -0.15265684 -0.22342747 -0.13108215 -0.22572592 -0.19623493 -0.012215611
-0.024620272 -0.027510945 0.39375225 -0.57193583 -0.34453306 -0.4991045 -1.2887353 -1.3012886
-0.3564967 0.21358897 0.21886243 0.34659258 -0.06840995 0.2976129 0.48033765 -0.010395956
0.82390904 0.033087824 0.529491 -0.9503086 1.4636434 -0.21262714 -0.450541 0.18956608
0.018648222 -0.15910304 -0.28752717 0.10926165 0.023397345 0.19807425 0.06292723 0.07415154
0.16799346 -0.17171006 -0.5624952 0.4230922 0.12171303 1.432013 0.37537783 -0.09706376

gru.weight_hh_l0 f4 [192, 64]
00000000: ed3e 5e3f 3d4f c83f 4418 83bf 411d 213e
00000010: 0a2b 89be 3ead d43f d9dc 63bf afcd a2bf
00000020: 4499 6dbd 4a3a 433e 6a68 393d dc63 afbe
00000030: 3e1d 383f 5642 0fbe fa11 8abe b64d 2abf
00000040: 5816 f3be 6ac5 703f 3c1a 90bf 029c ed3f
00000050: 4f96 a13e 2e33 2b3f ce2d 9f3f d6ac a63f
00000060: 3993 c23f fd0a 2abf 58b0 2d40 d4f7 943f
00000070: a6d7 063f 5b41 76bf c9f5 2ac0 df21 703f
00000080: d468 30bf 1c7e 6dbf 3b2c c1bf 147a ce3f
00000090: 51e0 c3bf a456 acbe 3100 3340 8833 413e
000000a0: ad34 f5bf 1897 813f 44dc 19bf 8c8d 623f
000000b0: b5bb bd3f 255d 653f aaae 41bf ea86 d03e
000000c0: 89e4 993f dcc7 1dbf faae c9be a97a 883f
000000d0: 3f27 4bbe 1a3a 87bf 6f68 c13f f595 483f
000000e0: 6145 05c0 5edb cb3f 64f1 8abe 5dc7 65be
000000f0: ae2c 12c0 f33b 11c0 6880 ccbe 8fa7 513e
00000100: 4753 c83e d5a1 d3be 50dc b3be f958 283f
00000110: 9248 5ebe a4c0 d03d 5cf9 97be 435f 93bf
00000120: bfcb 87bf 73d5 f6be 989f c9bf 4920 c93e
00000130: f3f6 783f c64c 94bf df07 39bf c1cd c63e
00000140: a828 343f 860f aa3f 2d81 28be 78c6 abbe
00000150: fb4d 263f 7c12 61bf 065b b13e c4f9 0e3e
00000160: eaad 2d3f 73fe fb3f 9cfd 533f 8b71 223e
00000170: 7bfa 96bf f5d6 9ebe 3b34 c4bf 41ff 4bbf
00000180: f230 a6bd 57ff 793f 9405 09bf b996 eb3f
00000190: 7005 e9be c290 273e 4049 bc3e c175 eb3e
000001a0: 4c1e af3e a3a7 0d3f f769 cbbe 01ca dfbd
000001b0: ab63 e53e fa4e 673e acad 2ebf 9e0d 123f
000001c0: 6178 d13e b7a5 1240 00df 06bf df5a abbe
000001d0: 998d 2b3e c66e f53d 8983 173f 39dd 97bd
000001e0: 214f 91bf 6c3b 75be 8aa4 ddbf dcae 3c3f
000001f0: 3e99 c3be 0ebf 57bf b480 37bd e83f 073f
00000200: 674a edbe e367 1dbf fdbe 663f 092a 8c3e
00000210: 1630 9dbf 4651 b1bf 0e04 1ebe 76c5 adbd
00000220: 208b 94be cddd 78bd 82ee 1bbf 705a 4d3f
00000230: ddf9 4ebd 5524 04bf b22d 943d 414c 843e
00000240: 7a4d 3a3f c520 923e c2df 813c 8a69 923e
00000250: 3b90 233e 0295 003f f1b2 683e 3b29 52bf
00000260: 3210 febe e32a 03bf 4019 f5be a91b 993e
00000270: 76d1 8b3f 59fd 01bf a07a 623d 63a3 bcbe
00000280: a2c5 b0bf 142b 873e 745e 523f 35ab 513f
00000290: 3084 2e3f 786d 0fbf d524 2a3f d9d7 90bf
000002a0: 536b 693f 6096 ec3e 85fe 34bd 9e52 543f
000002b0: bece 5d3e ad56 003f cb3e ad3e 8c13 89bf
000002c0: 6bcc da3d ab01 b8bc 947d 6dbf 1d56 dc3d
000002d0: 256d d0be 69bf f0bf ec3f 393f b181 2dbe
000002e0: 97cf 7dbe 3e3e 683f 1796 2a3f 6ca8 31be
000002f0: 3ca6 ae3f 5877 b1bf 6ad6 4bbf 49dd 983e
00000300: f3fa f8be fc86 bd3c fbe4 d4be 2607 3dbf
00000310: 79a4 ce3e b64e 863e 8f1d 18bf 0912 a4bf
00000320: e3bd 8ebf da8e 65bd b261 bfbe cc9e 1740
00000330: 379a 913f 59bb cebe 07ba 033f d1a5 c13e
00000340: 5e17 d33e 2d48 a83e 57f8 823f 2c95 0bbf
00000350: c397 2ebe 4b38 a5be 7139 b33f 5953 ab3e
00000360: 5b5c 0fbf 31b8 5fbc 25e5 d63d 93a1 013f
00000370: f51b cfbb 9f7e 263e 994b d1bf e044 29bf
00000380: 3763 a5be 96bf c8be 3603 06bf badb 0a3e
00000390: 5ecf 9abe 5c42 39be 956c 733f 4a55 373f
000003a0: e8ff eebd d15e e33f 6c8c 5e3e 34a5 483e
000003b0: 81cf acbe b1cb 053f 261a 09be dfda a7bf
000003c0: b50c 513f c8c8 ca3e edec 2dbf dd16 5ebf
000003d0: 6cf5 91be a0ab 45be cf96 003f dd87 dcbc
000003e0: 5182 59bf 8a5f febd 75fe 92bf 9229 c93e
000003f0: fe77 9dbf d2a9 a8bf fc43 97bf bf89 6abe
0.8681477 1.5649182 -1.024178 0.15733816 -0.2679065 1.6615369 -0.8900886 -1.271902
-0.058007494 0.19065204 0.045265593 -0.34255874 0.7191962 -0.13990149 -0.2696684 -0.6652483
-0.47477984 0.9405123 -1.1258006 1.8563235 0.3155999 0.6687497 1.2435853 1.3021495
1.5201179 -0.66423017 2.7138882 1.1638131 0.52672803 -0.96193475 -2.6712515 0.93801683
-0.68909955 -0.9277055 -1.5091623 1.6131005 -1.5302831 -0.33659852 2.7968867 0.18867314
-1.91567 1.0124235 -0.60101724 0.88497233 1.4822909 0.8959525 -0.7565714 0.4072793
1.2022868 -0.61633086 -0.3939131 1.0662433 -0.1983919 -1.0564606 1.5109996 0.78353816
-2.0823596 1.592632 -0.2713729 -0.22439332 -2.283977 -2.269284 -0.39941716 0.20474075
0.39126036 -0.41334406 -0.35129023 0.6576076 -0.21707371 0.10192993 -0.29682434 -1.1513447
-1.0609053 -0.48209724 -1.5751829 0.39282444 0.97251815 -1.1585929 -0.72277635 0.38828853
0.70374537 1.3285987 -0.16455527 -0.33549857 0.6496274 -0.8791883 0.34639758 0.13962466
0.67843497 1.9687027 0.8280885 0.15863626 -1.179519 -0.31023374 -1.532844 -0.7968636
-0.08114804 0.9765524 -0.53524137 1.8405372 -0.4551196 0.16363814 0.36774635 0.45988277
0.34202802 0.5533392 -0.39729282 -0.10927201 0.44802603 0.22588721 -0.6823375 0.5705203
0.40912154 2.2913644 -0.5268402 -0.33467767 0.16753234 0.11984019 0.5918508 -0.07415242
-1.1352273 -0.23948449 -1.7315838 0.73704314 -0.38202852 -0.842759 -0.044800475 0.5283189
-0.46345827 -0.61486644 0.90135175 0.2737582 -1.22803 -1.3852928 -0.15431234 -0.08484928
-0.29012394 -0.0607584 -0.6091081 0.8021612 -0.050531257 -0.5161794 0.07235278 0.25839427
0.7277447 0.28540626 0.015853766 0.28596145 0.15972988 0.5022737 0.2272451 -0.8209416
-0.4962173 -0.51237315 -0.47870827 0.29903916 1.0923297 -0.507772 0.055292726 -0.36843404
-1.3810313 0.26400054 0.82175374 0.81901866 0.6817045 -0.5602641 0.6646245 -1.1315871
0.9117939 0.46208477 -0.04418804 0.82938564 0.21660897 0.50132257 0.3383697 -1.070909
0.10683521 -0.022461733 -0.9276974 0.10758612 -0.4070827 -1.8808414 0.7236316 -0.16944005
-0.2478622 0.90719974 0.6663527 -0.17349404 1.3644481 -1.3864546 -0.79624045 0.29856327
-0.4862896 0.023135655 -0.41580948 -0.7383903 0.40359858 0.26231927 -0.594201 -1.2818004
-1.1151699 -0.056044437 -0.37379223 2.3690672 1.1375188 -0.4037731 0.5145573 0.3782182
0.41228765 0.32867566 1.0232037 -0.54524493 -0.1705008 -0.3226951 1.4001905 0.33462027
-0.560003 -0.0136547545 0.104929246 0.5063717 -0.0063204714 0.1625924 -1.6351196 -0.6612072
-0.32302257 -0.39208668 -0.5234865 0.13560382 -0.30236334 -0.1809172 0.9508756 0.71614516
-0.11669904 1.7763311 0.21733254 0.1959427 -0.33752063 0.52263933 -0.13388881 -1.3113669
0.81660014 0.3960631 -0.67939645 -0.86753637 -0.28507555 -0.19303751 0.50230116 -0.026920253
-0.8496447 -0.124205664 -1.1483904 0.39289528 -1.2302244 -1.3176825 -1.1817622 -0.22904108

gru.bias_ih_l0 f4 [192]
00000000: 9a25 54bf 63f8 c0be beaa 653e be05 89be
00000010: 6a1f 093e 50a0 26be 8676 083f 53c1 a6bf
00000020: f848 dcbe 4b1e 00bf b425 1b3e 7179 333c
00000030: d0a1 e8bb e8df d83e 67e8 f1be 2ebd 3f3e
00000040: 3424 bd3e e8d4 69be d292 f6bd ddd4 163e
00000050: fe6d 413f 31d6 683e a6a9 e2bb ec30 e43d
00000060: b85e 933e e13b 18be b10c 6bbf 6d51 1040
00000070: 338e e0be 1c48 c0bd a8ec 703e 2b21 b0bc
00000080: 1f9f 803d 8980 b33f 359a 5fbe 9337 eebe
00000090: c703 603c aaf8 6c3e a4d7 f83e 3e28 00bd
000000a0: 7bb0 40bf 55c2 203e 583a 7d3f eb28 6c3e
000000b0: eb92 1abf 7054 513f 810b 0ebf db29 9f3e
000000c0: 1624 973e 6ba6 b8bd 2f6c 57be adae 11bf
000000d0: c8c8 b63e c5be c63e e70f b5be 47ee c1bd
000000e0: 9542 ae3e 82c2 a13e 8aff 243f 86fd 3e3f
000000f0: 542f fe3e 4b63 a4be 96e7 38be f3a3 d7be
00000100: b7df 8cc0 cb35 4bbf e020 a1bf 5fa9 22c0
00000110: fc40 5bbf 672f c63d 5f63 72c0 1787 8bbf
00000120: 054f 4cbf 1eab a0bf b127 8cbf e3db 92bf
00000130: 60de 96be fc0b abbe c98f a53e 5376 2cbf
00000140: 58db ecbf 4cbd 67bf 617d cabf f110 b7be
00000150: dfe6 20bf 7378 d7bf 3f77 37bf 925f bbbf
00000160: 7b1a 0ec0 74f8 79bf 7b3c 94be adf9 afbe
00000170: 13af 32bf a711 1fbf 80ee 58bf aa4c b8be
00000180: a02e 6bc0 adbd 993f 8c78 cabd 7320 77bf
00000190: 9c46 2b3f b539 08c0 8276 89bf 3ef3 2f3e
000001a0: da1f 58bf d7d8 8d3f 067f adbf 6cc6 e8bf
000001b0: e1d6 303f b995 9bbf 3f29 a4bf 36a6 e3be
000001c0: 1402 47c0 1275 15be 4dff 343e 2abc 82c0
000001d0: dcef 983d fdd9 66bf 6cc6 a1c0 5f76 dbbf
000001e0: a397 7fbf c5b5 26bf 9f94 92bf 6443 19c0
000001f0: c934 2dc0 e661 f3bf 5c6c 193d d588 65bf
00000200: 0699 873f 4c4e 323f 3b7a 8fbf ac81 a73f
00000210: 9731 1c3f a480 643e fc70 94bd 321b 833e
00000220: b837 9f3e f547 c63e 3783 283e 50f4 babf
00000230: 07b2 a6bf 8544 e83f e771 81bf 96b5 983f
00000240: 0f41 0140 0d5e 6ebe 8fa5 903e 6d5f b83f
00000250: 5acf 703f dc40 c93f 2bae 5f3d cc01 4cbf
00000260: ac7b 89be 5a2e bfbe ad03 013f 6338 813f
00000270: c60e f8be 4c80 413f 455f 3d3f 1cab f1bf
00000280: 5502 2c3f 7150 263f ac80 23bf 2e33 073e
00000290: 3d2d 93bf 2cce b73f ecd2 81be 27c8 4cbf
000002a0: 7713 c0bc d0bd 6bbf 66c4 f43f baeb 9e3e
000002b0: 4574 59bf 2e85 e9be d51c 043f e2c4 4c3f
000002c0: 78d7 03c0 96f4 9b3f 3ad9 ef3f c632 02c0
000002d0: 3634 0dbf d219 ef3f 746e e2bf 7f09 3bbe
000002e0: 1ae3 84be 0bbc 8dbf 6e83 a8bf da93 42bf
000002f0: e532 17bf ee0f dc3e 3f53 0240 ec4b 34be
-0.82869875 -0.37689504 0.22428414 -0.26762193 0.1339089 -0.16272092 0.5330585 -1.3027748
-0.4302442 -0.50046223 0.15151101 0.010954247 -0.0070993677 0.42358327 -0.4724762 0.1872451
0.36941683 -0.22835124 -0.120397225 0.14729638 0.7555846 0.22737958 -0.0069171963 0.111421436
0.28783202 -0.14866592 -0.9181624 2.2549698 -0.4385849 -0.09388754 0.23527777 -0.02150019
0.0628035 1.4023601 -0.21836169 -0.46526775 0.013672776 0.23141733 0.4860202 -0.031288378
-0.7526929 0.15699132 0.9891715 0.23062484 -0.6038043 0.81769466 -0.55486304 0.3108662
0.2951972 -0.09016117 -0.21037363 -0.5690716 0.3570006 0.3881742 -0.35363695 -0.09469276
0.34035173 0.3159371 0.6445242 0.74605596 0.49645483 -0.32107005 -0.18057093 -0.4211727
-4.402309 -0.79378957 -1.2588158 -2.5415876 -0.85646033 0.0967701 -3.7873151 -1.0900601
-0.79808074 -1.2552221 -1.0949613 -1.1473354 -0.29466534 -0.3340758 0.32336262 -0.6736805
-1.8504438 -0.9052322 -1.5819513 -0.35755113 -0.6285228 -1.6833633 -0.7166633 -1.4638541
-2.2203662 -0.97644734 -0.28952393 -0.34370175 -0.6979839 -0.6213631 -0.8473892 -0.3599599
-3.6747208 1.201101 -0.09886274 -0.9653389 0.66904616 -2.1285222 -1.0739291 0.17182633
-0.844236 1.1081799 -1.355439 -1.8185554 0.6907788 -1.2155067 -1.2825087 -0.44462746
-3.1095018 -0.1459544 0.17675515 -4.0854692 0.074676245 -0.90176374 -5.0554714 -1.7145499
-0.99840754 -0.6512111 -1.1451606 -2.3947382 -2.7063468 -1.9014251 0.037456855 -0.89661914
1.0593574 0.6965072 -1.1209177 1.3086448 0.6101317 0.22314698 -0.072481126 0.25606686
0.31097198 0.38726774 0.16456304 -1.4605808 -1.302308 1.814591 -1.0112885 1.1930416
2.0195959 -0.23278065 0.2825131 1.4404122 0.94066393 1.5722919 0.05460946 -0.7969024
-0.26852167 -0.3734005 0.50396234 1.0095333 -0.4844877 0.7558639 0.73973495 -1.8880343
0.6719106 0.64966494 -0.6386821 0.13203117 -1.1498181 1.4359794 -0.25356233 -0.7999291
-0.023446782 -0.92086506 1.9122436 0.3103922 -0.8494304 -0.4560942 0.51606494 0.7998792
-2.0600262 1.2184017 1.8738167 -2.034349 -0.5515779 1.8679755 -1.7689958 -0.18265341
-0.25954515 -1.1073011 -1.3165109 -0.76006854 -0.59062034 0.42980903 2.036331 -0.17607087

gru.bias_hh_l0 f4 [192]
00000000: 2a63 23bf 5d46 eabe f9a2 7c3e 113c 75be
00000010: 8612 403e 2bb0 83be 55d3 d73e b180 9ebf
00000020: 3823 9fbe 2766 04bf 643c 483e 2b0e ee3d
00000030: fa71 81bd 3e23 b73e 9143 e6be 25bf 343e
00000040: 1e1f ad3e bf34 90be a504 813d 7130 4a3e
00000050: 1ea9 353f a8c4 f13d cbcf 2cbd 97f1 323e
00000060: 78ba d73e 2edd 9abe aaa9 80bf 83ad 1a40
00000070: a505 a9be 4ae7 abbd a32c ab3e b3b2 663a
00000080: d6f0 a63d 350f 9f3f f797 0fbe 5b77 f0be
00000090: 1a6b 27be d1db 473e f73c e23e 3099 16be
000000a0: 59d3 4fbf 4b92 e23d f193 7f3f 05ed 663e
000000b0: 625e 24bf ee9e 483f fff9 fcbe 609e 8d3e
000000c0: 6630 ca3e f872 99bd c84a 82be 38d0 02bf
000000d0: 84cd aa3e d161 b83e 42ea 65be 8740 f0bc
000000e0: 66b1 bc3e 8602 6a3e 8cbd 343f 190a 143f
000000f0: af89 9b3e 7139 c1be f4b5 7bbe 5199 a5be
00000100: fb48 8dc0 b32b 37bf 612f b5bf c121 31c0
00000110: d5c7 71bf 7da0 d03d f379 6ac0 e91b 5ebf
00000120: c887 64bf d9c7 a5bf f85f 97bf 2db6 a3bf
00000130: e9f2 eabe a2c2 21be 8505 df3e 7225 27bf
00000140: ede4 d7bf 6c9c 63bf d9ba bdbf df7f a1be
00000150: d7f4 24bf f4a8 eebf 5d0c 26bf 9459 c0bf
00000160: 556a 0ec0 5a1c 7bbf fb84 96be 38b5 bdbe
00000170: 9dfb 55bf c7f4 12bf 6e73 42bf b27a ccbe
00000180: 1948 69c0 e8b8 993f 20ad 39be 04df 46bf
00000190: 3e68 383f f213 12c0 c624 86bf 49ee fd3d
000001a0: b9f4 81bf d8e1 6c3f defe c9bf 7ea4 d7bf
000001b0: 8355 4c3f 260d 8fbf 03bc 8cbf 8757 b4be
000001c0: a271 42c0 3eb0 6fbe 0fae 213e 8a08 7ac0
000001d0: 81b6 56bc a066 60bf bc01 9fc0 5a5e e5bf
000001e0: ea9b 86bf 59ca 16bf 6c66 84bf dd8a 19c0
000001f0: dec5 23c0 841e efbf 367d 2b3e fa57 48bf
00000200: 1d9d 0440 1375 27be d302 6dbf 98c9 543f
00000210: 2399 a23f 533f 213f 8530 3f3f 12c1 69bd
00000220: 8ace d2bf d8f1 843f ae72 8fbc 142f cdbe
00000230: 2f4a 77bd f8d3 dd3f 5e8e 373d 0291 b03f
00000240: 3347 8540 9beb 06be e989 52be 041d 5d3f
00000250: 0be9 8640 7c7e a53f 4be2 893d 5c8c a4bf
00000260: 8808 fd3c f04e 65be 7ef8 69be d1e8 9c3f
00000270: 85a6 b03d 27cd 733f 3b47 2b3f e9d1 17c0
00000280: b1d1 053f 6fd2 113f 4cc3 3dbf fb4b 9a3e
00000290: 8570 7cbf bf73 b63f 722b 75be 06ee b6bf
000002a0: c5dd 2c3f 48dd 2dbf 40ec bc3f 32ef d1bd
000002b0: ef84 793f 711c f8be be42 713f e1f3 2d40
000002c0: 0a4c 2dc0 7aa6 403f 9f30 fe3e 58ff 28c0
000002d0: d218 cebf 61ab e03f 5acc c1bf e81f 1abe
000002e0: 95a8 66be eb74 a1bf e388 9dbe 9511 b8be
000002f0: 078e dbbc 15e6 0d3f 2b57 b73f 90bc 483f
-0.6382319 -0.45756808 0.24671544 -0.23948695 0.18757066 -0.25720343 0.4215342 -1.2383024
-0.31081557 -0.5171837 0.19554287 0.11623796 -0.063205674 0.35769075 -0.44973424 0.17651041
0.33812803 -0.28165242 0.06299714 0.19745041 0.7096118 0.11805087 -0.042190354 0.17474972
0.42134452 -0.30246872 -1.0051777 2.4168403 -0.3301212 -0.08393724 0.33432493 0.0008800432
0.081514046 1.2426516 -0.14022814 -0.4696606 -0.1634945 0.19517447 0.44187137 -0.14706874
-0.81181866 0.110630594 0.99835116 0.22551353 -0.64206517 0.7836751 -0.49409482 0.27659893
0.3949005 -0.07492632 -0.2544768 -0.51098967 0.3335992 0.36012128 -0.22452644 -0.029327644
0.36854094 0.22852525 0.70601726 0.5782791 0.30378482 -0.37739137 -0.24581128 -0.32343534
-4.4151587 -0.71551055 -1.4155084 -2.7676852 -0.94445544 0.10186861 -3.6636932 -0.8676134
-0.89269686 -1.2951614 -1.1826162 -1.2789971 -0.4588845 -0.15796903 0.435589 -0.6529151
-1.6866738 -0.88910556 -1.4822646 -0.3154287 -0.64436096 -1.864531 -0.64862615 -1.5027337
-2.22524 -0.98090136 -0.2939833 -0.3705232 -0.83587056 -0.5740475 -0.7595738 -0.3993736
-3.6450255 1.2009554 -0.18132448 -0.77684045 0.7203406 -2.2824674 -1.0479972 0.12398965
-1.0152808 0.9253211 -1.5780904 -1.6847074 0.7981798 -1.1175888 -1.0994877 -0.35223028
-3.0381856 -0.23407075 0.15789054 -3.9067712 -0.013105036 -0.87656593 -4.9689617 -1.7919419
-1.0516331 -0.5890251 -1.0343757 -2.3991005 -2.5589519 -1.8681188 0.16746983 -0.7825924
2.0720894 -0.16353254 -0.92582434 0.8312011 1.2702984 0.6298725 0.7468341 -0.05706889
-1.6469281 1.0386305 -0.017510738 -0.4007498 -0.06037348 1.7330313 0.044813506 1.3794253
4.1649413 -0.13175814 -0.20560421 0.863724 4.2159476 1.2929225 0.06732615 -1.2855334
0.030887857 -0.22393394 -0.22848698 1.225855 0.08625511 0.9523491 0.66905564 -2.372187
0.5227309 0.5696172 -0.74126124 0.30136093 -0.9860919 1.4254073 -0.23942354 -1.4291389
0.67525893 -0.67915773 1.4759598 -0.10250701 0.97468466 -0.484592 0.94242465 2.7180102
-2.707766 0.75254023 0.4964647 -2.640585 -1.6101325 1.7552301 -1.5140488 -0.15051234
-0.22525246 -1.2613806 -0.307685 -0.35950914 -0.026801122 0.554292 1.4323477 0.78412724

gru.weight_ih_l1 f4 [192, 64]
00000000: 2b76 7cbf dd4a 433f 9adc 23be e632 6b3f
00000010: 2bc6 a13f 34bf 5a3e 438a 8cbe 8433 573f
00000020: e554 0cbf 9036 363e b264 e03f 49fc 1fbe
00000030: f95f bebf 0307 24bf ea32 86be a6cb b53f
00000040: 90ea 65be f12a 363f ff98 b33e 3f84 023f
00000050: 12a0 10bf d338 61bf 4425 2cc0 ce86 b63f
00000060: e644 84bf a0b4 8e3e 16c8 8cbe b681 1cbf
00000070: cfc0 cf3f 3e8a f23f 4800 103f e091 713f
00000080: 7587 d33d 0621 f33e 4f64 6d3f 43c7 a1bf
00000090: dff2 32bf 1b4a cdbe 177b 643f 02ea 903f
000000a0: d8c3 373e de59 33bf 34f9 20bf 02b4 4bbf
000000b0: f4f8 9dbf cbe6 143f 6b4d 693d adce 593f
000000c0: 7a60 193e 3b89 96bd 680f 25bf 815d c1bf
000000d0: 487c 8c3e bf13 fb3e a9b3 2f3e 407f 0fbe
000000e0: b385 c23f 203b c83e a378 043e 692d 803f
000000f0: a53d 613e 3d49 8c3f 2501 303f 46b2 11c0
00000100: d531 6abc 8c6b 8abf 3bda 8a3f c3c2 373f
00000110: 4471 08bf 8af4 a6bb 507e 473f a94e cb3e
00000120: 605c 04bf 4902 90bf 0a3b 84bf 3ff1 083f
00000130: 9c31 813f 517f f73e 7c9d 23bf c5ff f03f
00000140: 4a73 0cbf 5e8b 753f 54f1 943e 2692 d4be
00000150: 7543 64bf b203 92bf 4071 eabe ea05 0740
00000160: 1f32 eebe 6ba2 9fbe 26f9 18bf a307 653e
00000170: 9da6 63bf d73f 2bbf 2f6a b03f 3343 e13f
00000180: de6e 153e 1230 16bf 954a 453f 4f37 e8be
00000190: 2c4e 8b3d dfcb d2be 1861 043f c15f ee3e
000001a0: 39b3 7c3f 36cf 083f 0431 cdbe b6a5 513e
000001b0: 95a5 cebe 5dfd e13f 448c b5bf 13b3 aa3f
000001c0: eb93 2abf 13f2 4dbe 1fe5 bebe 8582 2e3f
000001d0: 3acc 83bd 2a7f 0ebf ba42 6f3f 8fcd cebe
000001e0: 8ac8 9e3e 8ef3 0d40 06ec 273f b3d2 02be
000001f0: fcb0 28be ed93 2b3f 1221 9abe ce10 073f
00000200: 00af 563f 353c febd 26a6 82be d5d6 e13e
00000210: 0420 d7be a08a c4bd 3769 4d3d 49b1 2c3e
00000220: 83e5 813f a2c7 043f 1218 c3bf 7d21 013d
00000230: ae65 93bf 10bc 8ebf 177f 0f3e 3b44 02bf
00000240: 4d80 5fbe 8d7c 3abf baa0 29be 3c22 3bbe
00000250: 9976 a4be 8791 6bbf 09c2 1c3e 2172 933e
00000260: 656e 80bf 997a 17bd dfd8 04bf c2a0 abbd
00000270: b4fa d83e 2c12 e63e cf35 32bf ad73 1940
00000280: aeb6 d4bf b3f1 74bf 5661 d83d af91 abbe
00000290: 21a9 edbe 00c1 87be badf 5cbf 1cbc b0be
000002a0: 267a d03e 4b6a d5be 2bc3 e9bf baa3 963f
000002b0: 5076 ddbe 0ebb 2ebf ec50 d8be 0eeb 2d3f
000002c0: dc5a 263f cd60 573e e606 31bf dac0 2240
000002d0: 9067 223d 1471 463f 07bd 5b3f 0c19 06bf
000002e0: bc33 0abf d534 6ebe 3422 3b3e 1f72 5cbf
000002f0: 769f 4dbf 6748 d03e 4975 213f 6971 28be
00000300: 568c b53e 86d1 f9bd d734 34bc 9817 c9bf
00000310: 4776 8cbe 7081 8cbf 0019 953e 0230 c8bc
00000320: 2714 d43e 935a 92be b794 dabf e97f 843e
00000330: c79d 0abe 9323 063f f890 96bf 92d9 cbbf
00000340: 0cf7 16bf 6003 ca3e e4ee 8c3f 313f b73f
00000350: e3d9 793f 929b 95bf 986e 0e3b 678e dabf
00000360: 5564 053f 029b 58bf ea34 34bd 179c 29be
00000370: 51c3 42bf b0c5 043f a28b 1bbf f6bd 183f
00000380: 2d83 9cbd b0bf 36be 675d 613e 9c18 79be
00000390: 835f 30bf f77e a63f e56e 99bf 9942 76bf
000003a0: 4a38 383e 831e 943e e0d7 cdbe 760d f23e
000003b0: 128b 1e3e 95c7 bdbe f74d ad3e 654c a33f
000003c0: fe1d 5f3f c172 5e3f 325b 0440 493e 733d
000003d0: 1f41 78be a686 243f 5627 cabf 162d b13f
000003e0: a940 01bf ea0e 5e3d bc82 f5be c373 8e3f
000003f0: 9abe 073f 8103 7a3f b47b e73c cd80 54bf
-0.9861781 0.7628611 -0.16002122 0.9187454 1.2638601 0.21362 -0.27449235 0.8406298
-0.5481704 0.17794251 1.753073 -0.15623583 -1.4873039 -0.640732 -0.2621072 1.4202774
-0.2245276 0.71159273 0.35077664 0.5098304 -0.5649425 -0.8797733 -2.6897745 1.4259889
-1.0333526 0.2787218 -0.27496403 -0.61135423 1.6230716 1.8948438 0.5625043 0.9436321
0.10328571 0.47486132 0.92731184 -1.2638935 -0.6990184 -0.400956 0.8925032 1.1321414
0.17945802 -0.70059 -0.62880254 -0.79571545 -1.23416 0.5816466 0.056958597 0.8508099
0.14978209 -0.073503934 -0.64476633 -1.510666 0.2743857 0.49038503 0.17158379 -0.14013386
1.5197052 0.3910761 0.12936644 1.0013858 0.21996172 1.095985 0.68751746 -2.276506
-0.014294107 -1.0814071 1.0847849 0.7178156 -0.5329783 -0.0050950693 0.7792711 0.3970845
-0.51703453 -1.1250697 -1.0330517 0.5349311 1.0093265 0.48339322 -0.6391218 1.8828055
-0.5486342 0.9591578 0.2909037 -0.41517752 -0.8916543 -1.1407378 -0.45789528 2.109736
-0.46522614 -0.31178603 -0.5975517 0.22366194 -0.88926107 -0.66894287 1.3782405 1.7598633
0.14593074 -0.586671 0.7706693 -0.45354697 0.068020195 -0.41171166 0.51710653 0.4655743
0.9871097 0.5344118 -0.40076458 0.2047337 -0.40360704 1.7655445 -1.4183431 1.3335899
-0.66631955 -0.20111875 -0.3728418 0.68167907 -0.064354375 -0.55662787 0.9346119 -0.40391204
0.31012374 2.2179904 0.6559452 -0.12775688 -0.16473764 0.6702259 -0.30103356 0.52760017
0.8386078 -0.12413827 -0.25517386 0.44109216 -0.42016613 -0.09596753 0.05014917 0.16864504
1.0148166 0.51867115 -1.5241721 0.031526078 -1.1515405 -1.1151142 0.14013325 -0.5088536
-0.21826287 -0.728463 -0.16565219 -0.18274778 -0.32121733 -0.9201893 0.15308394 0.2879801
-1.003369 -0.036982153 -0.5189342 -0.083802715 0.4237877 0.4493574 -0.69613355 2.3976853
-1.661825 -0.95681304 0.1056544 -0.33509585 -0.46418098 -0.26514435 -0.8627888 -0.34518516
0.40718192 -0.41682658 -1.8262686 1.1768715 -0.43254328 -0.6825417 -0.42249238 0.6793679
0.6498239 0.2103302 -0.6915115 2.5430207 0.039649546 0.77516294 0.8583531 -0.5238197
-0.5398519 -0.23262341 0.18274766 -0.86111635 -0.80321443 0.4068024 0.6306959 -0.16449513
0.3545863 -0.121981665 -0.010998926 -1.5710325 -0.27433988 -1.0977001 0.29120636 -0.024436954
0.41421625 -0.28584728 -1.7076634 0.25878838 -0.1353675 0.5239803 -1.1762991 -1.5925772
-0.58970714 0.394557 1.1010404 1.431616 0.97598094 -1.1688101 0.00217334 -1.7074708
0.5210622 -0.84611523 -0.043995775 -0.1656345 -0.7607928 0.5186415 -0.6075994 0.5966486
-0.07642207 -0.1784656 0.22008286 -0.24325794 -0.6889574 1.3007497 -1.1986967 -0.9619537
0.17990223 0.2892953 -0.40203762 0.47275895 0.15482739 -0.37066332 0.33848545 1.2757689
0.8715514 0.8689385 2.0680661 0.05938557 -0.24243592 0.6426796 -1.5793254 1.3841884
-0.5048929 0.054213442 -0.47951305 1.1129078 0.5302521 0.97661597 0.028257228 -0.83009034

gru.weight_hh_l1 f4 [192, 64]
00000000: 5543 273f b30b 9cbd 6acc 02bf 9eca a73f
00000010: 0a44 2abf d0a4 2bbf f3cf 9dbf 9e8b 29bf
00000020: 24bc 01bf cb17 af3f 3711 9bbe 81f5 083f
00000030: 426b 26bf cbe6 963f 46a8 0a3f 3eae 8bbf
00000040: 3a59 263f 785f eb3e e3b6 23bf c33d e0bf
00000050: b06e 9fbf 9119 d43c 383e 263f 13fc 0a3f
00000060: 8d56 4cbf 268b aebf 8a25 ebbe 6b16 dfbe
00000070: abe5 143f 85ff f83d 5f9b b23f 2274 b4bf
00000080: 3544 c43e fd9e adbe f397 02bf 1374 05bf
00000090: 3fb3 f33e 2818 c6be 1523 713f 3821 5fbf
000000a0: aa7d ccbf 4ad3 343f 67eb cdbe 05ba 643f
000000b0: 8c14 253e 644c 19bf 28b2 a1bd 3d35 9ebf
000000c0: a96d 2f3e de0b cbbe 447a 9f3e 8cea 0dbe
000000d0: 5821 693e 4ec1 3abf c849 27bf 3bf8 ee3e
000000e0: 1ef4 91be d37c a43e 7a34 0d3f 4276 0bbf
000000f0: 15b6 5bbf a2d3 8c3e 2c66 43be 1a6b 193d
00000100: f86c 8c3f d656 473e 349c 81be 8ac4 c7be
00000110: baf6 5fbf cdfa d13f d041 2c3f 9e1f 8dbf
00000120: 9a03 b73d fdba 473f acc7 443e 1df9 7dbf
00000130: 4c9e 623f 81d1 553e 89cc 803f 8048 b8bf
00000140: 9b34 1fbf 4103 5ebd 71cd 35bf fbe3 1d3f
00000150: ba95 093f b1d1 f23e 2d3b 1440 e323 d5bd
00000160: 315c 00be 78e4 e3be c579 5dbf 9ad8 cbbe
00000170: 64e0 a6be 6821 b33b 1371 a0bd 7a3b 133f
00000180: 7141 e43e 5dc6 dbbe 7fb7 11c0 e9ff a23e
00000190: fd10 b33e d585 5bbf 4124 433d 6c60 cf3d
000001a0: 9f25 02bf d0b1 cdbd e82c 07bf a5fb 04bf
000001b0: f994 c7bf 2d10 8f3f e2e8 ff3c 7f9c 9a3e
000001c0: 834a 86bf 86b3 243f 0e25 593e 837c 263e
000001d0: f43c d0bf e384 50bf 7790 f2bf daa9 83bf
000001e0: c95c d13f 0179 bc3e 9d12 3f3f b7ae 67be
000001f0: 81f3 34bf 31dd 77be d3b4 b0bd 1d36 253f
00000200: 6518 2a3f 3cc7 92bf 46f6 523f 52b3 13bf
00000210: 8f00 233e 9db8 a4bf 6e57 ecbe fb9c 20bf
00000220: 89d2 c6bf 49e8 87be 4fed 5c3f 740d 3cbe
00000230: 32c1 60be d970 993f 8c1e 9cbd 3b28 83bf
00000240: 860c 19bf b222 c1be c4ae b2bf c055 07c0
00000250: 505a 25bf 6966 063f aac6 0f3f 7694 f83f
00000260: 0374 a33f 219f 82be f04c 973f 19b7 9f3f
00000270: 95cf bcbe a5d3 2c3f 4995 833f b63c 89bd
00000280: 5139 8cbf cf9a afbf a61e 8dbe d45d e5be
00000290: 8e60 cf3e f24d b9be b965 7f3e 5209 f7be
000002a0: 2de4 e3bf b780 e4be 681a 92be 6095 7a3f
000002b0: a2cd f4be 2f68 f93e 1af2 a83e fd6f 2a3f
000002c0: 9fc5 6cbf d153 12bf bf15 75bf a576 febf
000002d0: 5348 c1bf 2502 2bbf 26bb 1ebf 99ee db3c
000002e0: a23c 7fbe 282b 70bf 051f 903e d9bc 8f3d
000002f0: a082 a0bf 8d2f f63f 18c7 5abe 4858 23bd
00000300: 6d56 c6bf fa89 803f d3e1 69bf fb39 053e
00000310: 3d6d 7cbf 3eb2 7e3f aff7 36bf 3922 a63c
00000320: 7c3e b73f 4493 48be 7991 83be 5d0f 4bbf
00000330: 9e4c 89bf 25d6 2ebf 300e 84bf 2a87 10c0
00000340: d9d7 2b3f b3c3 50bf 794a c83e d337 ff3c
00000350: 58e2 d23e 1c37 2f3f 7edc bfbe 8dcc 86bd
00000360: b0c9 3b3f 3c40 933f b46c c4bd daf2 20bf
00000370: 951e d53e 88fc a13f f9f9 17bf fd00 b3bf
00000380: 4857 4b3e 03f3 aa3c 6d3f a03e 7671 083f
00000390: 72eb 45bf b755 24bf 3aeb 553f 01c5 61bf
000003a0: 3d91 21bf 70ec a33f dc98 5abe c3d1 943e
000003b0: baa6 c23d 9844 8d3d 1d68 8fbf e255 0640
000003c0: b090 c93f 5200 bfbe 2690 d73e 6ba4 0440
000003d0: 636f aabf 4f7c 00bf a849 ff3e d875 df3d
000003e0: 6252 b0ba 883f 093f 4caa f13e 7f35 c7be
000003f0: 6335 36bf c406 e43c 002a abbf 65e8 50c0
0.65337116 -0.07619419 -0.5109316 1.3108709 -0.6651007 -0.6704836 -1.2329086 -0.66228664
-0.50677705 1.3679136 -0.3028657 0.5349961 -0.6500741 1.1789182 0.54163015 -1.091255
0.649799 0.45971274 -0.6395094 -1.7518848 -1.2455654 0.025891097 0.6493869 0.54290885
-0.79819566 -1.3636215 -0.45927078 -0.4357179 0.58162946 0.121581115 1.3953665 -1.4097941
0.38333288 -0.3391036 -0.51013106 -0.5213024 0.4759769 -0.38690305 0.94194156 -0.8716006
-1.597585 0.706349 -0.4021866 0.89346343 0.1612112 -0.5988219 -0.07895309 -1.2359997
0.17131676 -0.3965749 0.3114797 -0.13859004 0.22766626 -0.7295121 -0.65346956 0.4667376
-0.2850656 0.32126483 0.551582 -0.5447732 -0.8582471 0.27505213 -0.19081944 0.037455656
1.0970755 0.19466719 -0.25314486 -0.39017135 -0.8748585 1.6404663 0.6728792 -1.1025274
0.08936234 0.78019696 0.19216794 -0.9920824 0.8852279 0.208807 1.0062419 -1.4397125
-0.62189645 -0.054202322 -0.71016604 0.61675996 0.5374409 0.47425607 2.3161118 -0.104072355
-0.12535168 -0.44510245 -0.8651393 -0.3981369 -0.3259307 0.005466629 -0.07834067 0.5751263
0.44581178 -0.42924777 -2.2768247 0.3183587 0.349739 -0.85751086 0.047641996 0.10125813
-0.50838655 -0.10043681 -0.52802896 -0.5194648 -1.5592338 1.1176811 0.031238977 0.30197522
-1.0491489 0.6433643 0.21205541 0.16258435 -1.6268601 -0.8145277 -1.8950337 -1.028621
1.6356441 0.3681107 0.74637777 -0.22625242 -0.7068406 -0.24205472 -0.086282395 0.64535695
0.66443473 -1.1467052 0.82407033 -0.57695496 0.15918182 -1.286884 -0.46160454 -0.62739533
-1.5533 -0.26544407 0.86299604 -0.18364507 -0.21948698 1.1987563 -0.07623014 -1.0246652
-0.59784734 -0.37721783 -1.3959584 -2.1146088 -0.6459093 0.52500015 0.5616251 1.9420307
1.2769779 -0.2551203 1.1820354 1.2477752 -0.36877123 0.67510444 1.0279933 -0.06701033
-1.0954992 -1.3719119 -0.27562445 -0.44798148 0.40503353 -0.3619228 0.24941148 -0.48249298
-1.7804009 -0.44629452 -0.2853577 0.9788418 -0.47813135 0.48712298 0.3299721 0.6657713
-0.92489046 -0.57159144 -0.95736307 -1.9879957 -1.5100197 -0.6680015 -0.62004316 0.02684717
-0.24925473 -0.9381585 0.28148666 0.07018442 -1.2539864 1.9233261 -0.2136501 -0.039879113
-1.5495125 1.0042107 -0.91360205 0.13010399 -0.98604184 0.99490726 -0.71471685 0.02027999
1.4315944 -0.19587427 -0.25696924 -0.7932032 -1.0726507 -0.6829551 -1.031683 -2.2582498
0.6712623 -0.81548613 0.39119318 0.031154549 0.41188312 0.68443465 -0.3747291 -0.06581984
0.73354626 1.1503978 -0.09591046 -0.6287056 0.41624895 1.2655191 -0.59365803 -1.3984677
0.19857514 0.02086783 0.3129839 0.5329813 -0.77312386 -0.6419329 0.8356205 -0.8819123
-0.6311224 1.280653 -0.21347374 0.29066285 0.09504457 0.06897849 -1.1203648 2.0989919
1.574728 -0.37304932 0.42102164 2.0725353 -1.3315243 -0.5018968 0.49860883 0.10911149
-0.0013452286 0.53612566 0.4720024 -0.38908002 -0.7117521 0.027835257 -1.3372192 -3.2641842

gru.bias_ih_l1 f4 [192]
00000000: 260c c73d 763d a4be 07b3 2dbd 6dee 8a3f
00000010: f9ef 9b3f 3c04 0e3f 26be c4be 5343 05be
00000020: fe7d cf3e a6c3 5c3f 46d9 9a3f 76c1 d0be
00000030: b7d7 6a3e 7bba 5e3f aedf 4f3e d2a5 0b3f
00000040: 06c9 22be 4b21 673f ab55 0a3d 7be0 f0be
00000050: e8fd 8c3d 6d12 3a3e 38fb 553e 673c 263f
00000060: 365d fbbd f906 2e3f 72a7 033e c390 4e3c
00000070: aad2 623f da55 293e 6a6c 9d3e 934d bf3e
00000080: e85e 473f 446b 823f b2c4 72be 5435 933f
00000090: 340a 1c3f 881f 413f 2ef9 5e3f 366c 903e
000000a0: 6404 8f3e ffd3 c53e fd32 b03e 5205 913f
000000b0: b63b f7be 5887 b13e 737e 07bd 25e1 d7be
000000c0: f778 77be c4c4 4a3f dae0 b93c 6aaf 7dbe
000000d0: d29f a73e ad6f c13e 1c0f 02bf 023b 45bf
000000e0: 4d64 14bf 014c 7f3e 25c3 843c efe4 313e
000000f0: 7ee5 853d fb8f 273f ba59 a8bd fe41 053e
00000100: f789 093f eca5 9d3f 0b18 143f e65d 313f
00000110: b8aa de3e dafa dc3f 677a e4be a68b 203e
00000120: a0b9 873f 6f70 1b3f 6f33 8b3f 68a0 463e
00000130: 2bc7 373f e51c 9b3e adbc 1e3f 6314 9e3e
00000140: 265e ad3e 8729 243f 05e8 bf3f 1845 a13e
00000150: d133 bfbe e4e8 d13f c05f 4a3c 9a4f 5b3f
00000160: 48dd 43be 2e24 2b3e 1876 473f dc7f 663f
00000170: 0e8b 4c3f fa76 293f cb78 b43e 497b f43f
00000180: 0820 b73f 210f a63f d3df 9dbe d220 243f
00000190: a423 243f f37f 59be 364a 213f 222b 583f
000001a0: f53f a03f 32e4 8cbd bb1e 113f 2217 423e
000001b0: 7c83 4d3f bc27 883f 37b7 033f fb41 de3d
000001c0: f1c3 8d3f 2b10 0b3f 60b7 153f 6917 6b3f
000001d0: 2745 863f 71ba 733f 319e af3f 5d58 22be
000001e0: f80c 433f 9f17 5bbe ae9b 813f c520 e63e
000001f0: 6cb7 e33e 2eb7 a23f 14c4 833f 5131 a23f
00000200: 9fab efbe 7bcc d2bc cf52 aa3e 08af 08bf
00000210: a032 51bf 9104 653f 9677 99bd 6782 5d3e
00000220: ce84 813f 5dc5 4abd 6806 dc3c ea77 27be
00000230: 8657 f03d 8e63 1e3e f558 933e 6e39 58bf
00000240: 2faf 1f3f 0c4a 5dbe d77d 06be f5e3 0a3d
00000250: 4732 aabe 8a99 2bbf d03a 4ebf 9aba a03e
00000260: c2f5 fabd 5968 523f 829c 483f f990 113f
00000270: 0078 4c3f 780d 1a3d 40c8 2e3f 6dd2 44bf
00000280: 9f59 e43e 5cc0 a43f d407 3dbd d649 2c3f
00000290: c0b2 ce3e 8b8a e3be 1f86 723f c248 35bf
000002a0: a4bd 233f a48e 6a3e 207e 0f3f 42a2 acbd
000002b0: a902 d53f 978a 4e3c 8acd 6abe 5702 563e
000002c0: 726c 7c3f cb2e 7ebe 48d1 bdbe b8ce 9a3f
000002d0: c385 283e ea79 64be c960 ecbe 6463 7f3f
000002e0: 08d8 73bf f0f0 1e3f d22c 2abe 9342 9e3e
000002f0: 3b2f 62be ff4a e63e 267f 3abe fee2 9c3e
0.09719114 -0.3207814 -0.042407062 1.0854012 1.2182609 0.5547521 -0.38426322 -0.13013963
0.40525812 0.86236036 1.2097557 -0.407726 0.22933851 0.87003297 0.20300171 0.54549897
-0.15896997 0.90285176 0.033773106 -0.47046265 0.06884366 0.18171091 0.20896614 0.64935917
-0.12273638 0.6797939 0.12856844 0.012607756 0.886027 0.16536656 0.30746776 0.37363872
0.7787919 1.0188985 -0.23707846 1.150065 0.6095307 0.7543874 0.8709897 0.28207558
0.27933037 0.38638303 0.344139 1.1329749 -0.48287743 0.34673572 -0.033079576 -0.4216396
-0.24167238 0.7920649 0.022690225 -0.24773946 0.3273912 0.37780514 -0.50804305 -0.77043164
-0.57965547 0.24931337 0.016206333 0.17372487 0.06537913 0.6545407 -0.08220239 0.13013455
0.5372614 1.231626 0.57849187 0.692839 0.43489623 1.7264054 -0.44624636 0.15678272
1.0603523 0.60718435 1.0875071 0.19397128 0.7178828 0.30295482 0.62006646 0.3087493
0.33860892 0.64125866 1.4992682 0.31498027 -0.3734422 1.6399198 0.01235193 0.8566834
-0.19127381 0.1671302 0.7791457 0.9003885 0.7989968 0.6619717 0.35248408 1.9100124
1.430665 1.2973367 -0.30834827 0.6411258 0.64116883 -0.21240215 0.6300386 0.84440815
1.2519518 -0.06879462 0.56687516 0.18954137 0.80278754 1.0637126 0.5145144 0.108524285
1.1075422 0.54321545 0.58482933 0.91832596 1.0489854 0.9520636 1.3720151 -0.1585402
0.76191664 -0.2139573 1.0125635 0.44946876 0.44475877 1.2712152 1.0294213 1.26713
-0.46810624 -0.02573227 0.33266303 -0.53392076 -0.8171787 0.8946009 -0.07493512 0.21631776
1.0118654 -0.049504627 0.026858523 -0.16354337 0.11735444 0.15467665 0.28778806 -0.8446263
0.62376684 -0.21610278 -0.13133942 0.033908803 -0.33241484 -0.67031157 -0.8055849 0.31392366
-0.12253906 0.8219047 0.7836381 0.56861836 0.79870605 0.0376105 0.6827431 -0.76883584
0.44599625 1.2871203 -0.046150044 0.67300165 0.4037075 -0.44441637 0.947359 -0.70814145
0.63961244 0.22905976 0.56051826 -0.08429386 1.6641437 0.012606285 -0.2292997 0.2089933
0.98602974 -0.24822538 -0.3707373 1.2094336 0.16457276 -0.22312132 -0.4616759 0.99761033
-0.9525151 0.6208639 -0.1661866 0.30910167 -0.2208833 0.44979092 -0.18212566 0.3064193

gru.bias_hh_l1 f4 [192]
00000000: 4985 483e ca0a 9abe cd2d 463d f197 623f
00000010: 0185 853f 5c7a 143f 9283 a1be 8f5f 32be
00000020: 4928 c63e 3952 463f e51e 933f 0d50 c2be
00000030: ab86 833e dad2 453f 593f 2a3e a571 bd3e
00000040: c8f5 39be 004c 503f 98cb f8bb 5415 0fbf
00000050: d838 9a3c 087f 823e f412 f63d 18d3 483f
00000060: c286 9fbd 6915 173f b715 183e 1963 38be
00000070: 10a9 673f 755a c13d b071 943e 3de8 c73e
00000080: e851 253f 284a 883f 9e9b bbbe 64af a03f
00000090: 64cd 173f babf 223f dddc 513f f5f9 733e
000000a0: 53b6 763e f841 d03e bb84 d13e 03dc 883f
000000b0: 7152 0bbf ae77 943e 4c95 41bd 79e6 c7be
000000c0: 7145 48be 23af 563f 91c8 a23c 63fc 38be
000000d0: 5ec4 f53d 2fe4 5a3e 83e7 cebe ffe2 3dbf
000000e0: a43c 3ebf 0a8c 9b3e a306 16be 9e6b e73d
000000f0: fd87 bc3c a546 1d3f 2a92 dbbc 2d05 fa3d
00000100: c466 2d3f e4a6 953f 0c8b 103f 6092 173f
00000110: 63ea ba3e 0836 e73f 97d1 d9be e3dd e63d
00000120: 81da 773f 4184 263f c0e3 8a3f e612 593e
00000130: 3bf4 153f efb0 1c3e 1997 163f 66b9 823e
00000140: bdd4 cc3e 95ff 223f 2601 b03f dff6 0b3f
00000150: d6d2 c2be 9fd1 d43f 36a9 f33d 121d 663f
00000160: 1cf6 c0bd 0ce6 9c3e 6d20 5a3f 0817 623f
00000170: e394 4b3f c866 163f d108 bb3e a7da df3f
00000180: 580c c43f c13d aa3f dcc0 bbbe ecc9 cc3e
00000190: 739c 3c3f 7493 88be b6de 1f3f 303c 2b3f
000001a0: ba68 b43f e2a8 29bd 63c5 0a3f 9f40 1a3e
000001b0: 974c 403f cddc 733f deeb 183f f26c be3d
000001c0: 7feb 723f 1daf f13e 64ed 043f 82f4 843f
000001d0: fcac 703f 3661 743f 87ea a03f ba4b 1fbd
000001e0: 60f4 613f 022d 52be 0889 633f e250 023f
000001f0: 388d d93e 188c a23f 5c7e 9a3f 681a a73f
00000200: 3b1e 36be 8d79 86bf 0b67 ffbe 3145 5a3e
00000210: 1108 02be a646 4cbd 0bfa 233f 379e 84bf
00000220: 7c3b dc3e 9ddc acbf c8a0 373d e5a0 08be
00000230: 1671 683e 631d 033f 7681 f1bd d4bb c8bf
00000240: 052d b53e 7f0b 653d ce7b d1be a87e f33e
00000250: 6c6e 163f 83ff b7be 3c4e 04bf d0fa 0a3e
00000260: 79a3 f8bf 86f2 593f cb03 0b3f 3273 7c3d
00000270: b227 d43f fe41 95be a98e 8b3f 35a9 f9be
00000280: 0d83 15bf 8d0c 9e3f a249 0d3f 8df5 ad3e
00000290: 0020 803d 16a1 cebd 7d48 963f f10d a7bf
000002a0: 9c4f 123f 70e2 3d3f 54e3 e33e a54e 2a3f
000002b0: 47a4 343f a738 23be c279 52bf 92cb 67bf
000002c0: 6aba 53bf 9a17 2fbe 7468 cbbe 7e48 11bf
000002d0: eb87 a93f 9836 7c3d 2b35 f9be 898e 393f
000002e0: ab1c 40bf cf08 b93e c1ac 0bbf 747d 093f
000002f0: 1430 76bf dc21 4cbf 15bc 9bbf d0ae 1e3f
0.19582094 -0.30086356 0.048383523 0.88513094 1.0431215 0.57999206 -0.31545693 -0.17419265
0.3870261 0.7746921 1.1493803 -0.379517 0.2568868 0.7727486 0.16625728 0.37000766
-0.18160164 0.81365967 -0.0075926296 -0.5589192 0.018825933 0.25487542 0.12015334 0.78447104
-0.07789375 0.59017044 0.14852034 -0.18006553 0.90492344 0.094410814 0.28992987 0.3904437
0.64578104 1.0647631 -0.36642164 1.2553525 0.59297776 0.635738 0.81977636 0.2382582
0.24092989 0.4067533 0.40921578 1.0692142 -0.5442267 0.28997558 -0.04726152 -0.39043024
-0.1955774 0.8386099 0.019871028 -0.18065028 0.12000345 0.21376108 -0.40411004 -0.74174494
-0.7431128 0.3038028 -0.14650969 0.11299823 0.023014063 0.6143592 -0.026803095 0.122080185
0.6773493 1.1691556 0.5646217 0.59207726 0.36506948 1.8063364 -0.42542717 0.1127279
0.96817786 0.65045553 1.0850754 0.21198615 0.5857579 0.1530187 0.58824307 0.25532073
0.40006056 0.6367124 1.375035 0.5467357 -0.3805148 1.6626471 0.11897509 0.8988811
-0.09421942 0.30644262 0.8520573 0.8831639 0.7952406 0.5875058 0.36530164 1.7488602
1.5316267 1.3300096 -0.36670578 0.39997804 0.7367622 -0.26674998 0.62449205 0.66888714
1.409446 -0.041420825 0.5420744 0.15063713 0.75116867 0.9525879 0.59734905 0.092981234
0.9489059 0.47203913 0.5192473 1.0387118 0.94013953 0.9546083 1.2571572 -0.038890578
0.8826351 -0.20524982 0.8888097 0.5090467 0.42490554 1.2699003 1.2069812 1.3054934
-0.1778497 -1.0505844 -0.49883303 0.21315457 -0.1269839 -0.049872063 0.6405341 -1.0360783
0.43014133 -1.3504826 0.044831067 -0.13342626 0.22699389 0.51216716 -0.11792271 -1.568232
0.3538591 0.055919167 -0.40914768 0.4755757 0.5876224 -0.35937127 -0.51681876 0.1357224
-1.9424888 0.85135686 0.5430266 0.061633296 1.6574614 -0.2915191 1.0902911 -0.48761907
-0.5840309 1.234758 0.5519048 0.33976403 0.062561035 -0.100893185 1.1740872 -1.305113
0.57152724 0.7417364 0.44509375 0.6652625 0.7056317 -0.1593958 -0.8221704 -0.90545
-0.8270632 -0.17098847 -0.3972813 -0.5675124 1.3244604 0.061575502 -0.48673376 0.72483116
-0.75043744 0.36139533 -0.54560477 0.5370705 -0.9616711 -0.79739165 -1.2166773 0.6198549

fc.weight f4 [4, 64]
00000000: 1f1b e2bc fbfd 3e3e 3177 89be eec4 983e
00000010: 0eb4 7a3e 5282 92ba ef05 ac3e 60f4 b3bd
00000020: 27b0 ebbe a961 11bf e3eb d1bd b041 de3e
00000030: be11 a43e 0308 6fbe 2be3 e5bd 3c86 1ebe
00000040: eb2e a5be 77a8 25bf 0fed 553e 357e 053e
00000050: e150 503e 630c 573d dcf4 31be 3e29 91bd
00000060: 9f74 93ba bf07 de3e 35dc f2be 3ab3 a93e
00000070: 3950 873e e63b 0a3d 509b e93e fe1b 72be
00000080: f29b 9d3d 9be4 ca3e cea8 47bc 83c3 91be
00000090: 65f8 a63d 3ae3 8bbd 8ed6 9b3e dd32 e9be
000000a0: d463 073f adf4 b5bd b822 5a3d 2bb7 a93d
000000b0: 6dba 463f 822c 11be 09a9 d53d 4b7c a5be
000000c0: c706 1a3e 6d9b 0e3f 2c65 14be 0bf7 3abf
000000d0: 3a05 df3d a79c 8c3e ba02 6d3f c8fa 7ebe
000000e0: 1c68 4fbe e8f2 64be 7608 5cbe fd16 84be
000000f0: ef45 17bc ed99 1abd 0b8f dd3e 6e02 d1be
00000100: 38a7 20be 6add db3e 4a4e abbe 32e6 1e3e
00000110: 328c 0a3f 0f12 a33d 452c f33e bf28 9c3d
00000120: dd01 01bf 1e3b 7bbf 1ff6 01bc 72be 473f
00000130: 24fd 783e 585b d2be f362 f7be 3671 413d
00000140: f120 efbe 2d43 6fbf d8ff 103f 575c b93e
00000150: 1d51 f13d 3bb0 1bbe 7c49 27bd d5c2 e0bd
00000160: f8fe eb3d 91de 2b3f b62d 7fbe 05a4 273f
00000170: 10ea 073e 4c5a b23d 417f 413f 9d1e 21bf
00000180: be5a 563e 6ddc 693f b6a8 e93b 04af 02bf
00000190: 297f e03c 1b7c 5a3d 9e61 053f 91c2 24bf
000001a0: 6972 573f 546d 9cbe 40fb 953e 61b1 da3d
000001b0: 78ae 973f 836f 43be 84f4 1abe 22cf 39bf
000001c0: 36dd 943e 4104 6f3f e234 2cbd 4286 9bbf
000001d0: 3f4f 9b3e 92e2 f43e a278 c93f 537e 27bf
000001e0: f83b d3be 30c4 fcbd 0dbe eebe b729 03bf
000001f0: 22e9 b93d 908c 173d b511 2a3f 3747 35bf
00000200: 5f7c eabe 812c 5c3f 7ad4 36be 4e40 67be
00000210: 3feb 063f 7be9 253e 215b 083f 9f71 113f
00000220: 14fd d3be 0e48 85bf bd76 f43d 7ce2 8a3f
00000230: 2363 87be c384 11bf fdc2 63bf 28f3 133f
00000240: 8422 fbbe e8e9 3cbf 310d 7d3f 4ed4 003f
00000250: 763a 1fbe 6c75 e2be cb3d 353e 7c7c fbbd
00000260: 0a94 ca3e 4455 463f bfbb 1d3f ae40 4d3f
00000270: b5e2 b2be 6733 a1bc 817f 4b3f 1545 32bf
00000280: 6513 903e a3c6 b33f f5a5 883d 858c 08bf
00000290: 0787 debd 8a0f 9c3e 6b5a e83e e67e 18bf
000002a0: 9347 883f 88b2 d1be f228 2a3f 91ad f0bd
000002b0: 161b 9d3f cec1 6bbd 3185 c8be 0bac 5cbf
000002c0: df74 f93e 05e0 933f 5425 7f3e 0c17 8ebf
000002d0: 5544 363f a439 053f f03c d23f 9690 6fbf
000002e0: 153f 26bf f7eb eb3d 5983 77bf c898 43bf
000002f0: 87be c03e c457 b73e f6d0 5b3f 1815 42bf
00000300: af53 44bf 2280 943f 12d2 6e3d 714a 00bf
00000310: 8d46 993e 8290 833e 1b55 1f3f 8232 983f
00000320: 29fa d1be b6ad 68bf d058 3b3e 9832 ab3f
00000330: 4177 dabe 2bb1 03bf 4a3b 92bf fc04 8f3f
00000340: de0f c9be 19dd e2be 94e8 8e3f ef7c 123f
00000350: d8e4 0bbf 6691 33bf 3a7a 963d bb00 44be
00000360: 5544 353f 85dd 573f 6c80 d73f b8bf 363f
00000370: b6aa 65bf 4cd0 e8be 9cd7 353f 521b e0be
00000380: b786 bb3e 344a bd3f fd69 273e cd0c 7cbe
00000390: da68 c8be 65b1 133f 1625 2b3e 1094 a5be
000003a0: a87b a53f c1ae a9be 03e4 643f 3b2b 01bf
000003b0: 9f98 993f c43a 323e 92bc c2be e746 21bf
000003c0: 3f34 3b3f dce9 a43f 1115 163f 037a d3be
000003d0: 81f5 a23f 8964 b03e 18c6 ae3f 3313 5ebf
000003e0: 5d24 58bf 868c 653e ca02 cdbf 8581 75bf
000003f0: 1ac5 193f db3e 2a3f 833a 923f 5bd6 4fbf
-0.027600823 0.18651573 -0.26848748 0.29837745 0.24482748 -0.0011177754 0.33598277 -0.08786845
-0.4603283 -0.5678964 -0.1025007 0.4340949 0.32044786 -0.233429 -0.112249695 -0.15480894
-0.32262358 -0.6471018 0.20891212 0.13036425 0.20343353 0.052502047 -0.17378563 -0.070879444
-0.0011249966 0.43365285 -0.4743363 0.33144552 0.26428393 0.03374853 0.45626307 -0.2364349
0.0769576 0.39627537 -0.012186242 -0.28469476 0.08152846 -0.068304494 0.3043713 -0.45546618
0.528867 -0.08884559 0.053255767 0.0828689 0.77628213 -0.14177135 0.104326315 -0.3232139
0.15041648 0.5570591 -0.14491719 -0.7303321 0.10889669 0.27463266 0.92582285 -0.24900353
-0.20254558 -0.22358286 -0.21487603 -0.2579879 -0.009232982 -0.03774445 0.43273196 -0.40822166
-0.15688789 0.42942363 -0.33458167 0.155175 0.5412017 0.07962429 0.47494712 0.07624959
-0.5039347 -0.9813708 -0.007932215 0.7802497 0.24315315 -0.41085315 -0.4831768 0.047227107
-0.4670482 -0.9346188 0.56640387 0.36203262 0.11783049 -0.15203945 -0.040841565 -0.10974661
0.11523241 0.67136484 -0.24919781 0.6548465 0.13272882 0.08708629 0.755848 -0.6293734
0.20933053 0.9135197 0.0071307076 -0.510483 0.027404385 0.053341012 0.52102077 -0.64359385
0.8415895 -0.3055216 0.2929325 0.106783636 1.1850119 -0.19085507 -0.15132338 -0.72581685
0.2907502 0.93365866 -0.04204262 -1.2150347 0.30333897 0.4782911 1.5739939 -0.6542713
-0.4125669 -0.12342107 -0.46629372 -0.51235527 0.0907767 0.036999285 0.6643327 -0.7081179
-0.45798013 0.8600541 -0.17854491 -0.22583124 0.5270271 0.16202347 0.5326405 0.56814
-0.4140402 -1.0412614 0.1193671 1.0850368 -0.26442823 -0.56843203 -0.88969404 0.577929
-0.4904977 -0.7379441 0.98848253 0.5032395 -0.15549645 -0.4423021 0.17699353 -0.12279603
0.3956607 0.77473855 0.616146 0.8017682 -0.3493859 -0.01967783 0.7949143 -0.6963666
0.28139797 1.4044994 0.06672279 -0.53339416 -0.10865598 0.30480605 0.45381483 -0.5956863
1.0646843 -0.4095652 0.6646873 -0.11751855 1.2273891 -0.057557873 -0.39164117 -0.86200017
0.48721978 1.155274 0.24916583 -1.1100783 0.71198016 0.5204108 1.6424847 -0.93579996
-0.64940006 0.11519616 -0.96684796 -0.76405 0.3764536 0.35809147 0.85865724 -0.75813437
-0.7669019 1.1601603 0.058305807 -0.5011359 0.29936638 0.25696188 0.62239236 1.1890414
-0.4101117 -0.9089006 0.18295598 1.3374815 -0.4266911 -0.5144221 -1.1424344 1.1173396
-0.39269918 -0.4430931 1.1164727 0.57221884 -0.5464606 -0.70143735 0.073475316 -0.19140904
0.7080739 0.84322387 1.6836066 0.7138629 -0.8971361 -0.45471418 0.7103212 -0.43770844
0.36626217 1.478827 0.16349025 -0.24614258 -0.39142495 0.5769256 0.16713366 -0.32339525
1.2928362 -0.3314114 0.8941042 -0.5045659 1.1999701 0.1740523 -0.38034493 -0.62998813
0.73126596 1.2883868 0.58625895 -0.41304025 1.2731172 0.34451702 1.3654203 -0.86748046
-0.84430486 0.22416887 -1.6016476 -0.95900756 0.6006638 0.6650216 1.1424106 -0.81186455

fc.bias f4 [4]
00000000: 6b36 da3e 6ebc 933f 690e da3f af45 fa3f
0.42619643 1.1541879 1.7035648 1.9552516
