models/CRM_22.28.pth (torch, 49876 bytes, 10 tensors)

weight_ih_l0 f4 [96, 15]
0.6127334 0.04549571 -0.27698818 0.20215233 0.30918384 -0.68653446 -0.118757844 0.20988902
-0.027417539 -0.3225182 -0.3052368 0.11229465 0.11807625 0.07215339 0.29732782 -0.4787711
-0.23019259 -0.10379793 -0.44064635 0.38811162 -0.34922183 -0.030308746 0.17947717 -0.30134383
-0.8486925 -0.7070605 -0.43551883 0.22964618 0.2813973 -0.52849895 -0.054781526 0.46180385
0.09097291 -0.20481387 -0.6181954 0.13521987 0.17866237 0.06426465 -0.085880935 0.29818317
0.22215375 -0.46668407 -0.03807461 -0.0075263516 -0.974105 -0.2654842 -0.22023287 -0.33847126
-0.20495299 0.2134612 0.28519404 -0.30406088 -0.10405095 1.1173035 0.15162581 -0.2951477
-1.0221132 -0.26604548 0.09099511 -0.13618565 -0.06495825 -0.040600765 0.00399929 0.666713
0.13428932 -0.014980774 -0.33205864 -0.25911063 0.13023579 -0.033324365 -0.17013845 -0.33474907
-0.6678489 -0.2401095 -0.59115595 0.18995862 -0.16003004 0.013490076 -0.21675165 0.29191098
-0.7428797 0.30519152 0.42176983 -0.20431182 0.21909332 -0.106866054 0.38893655 -0.101902544
0.34412065 -0.07477393 0.0625143 -0.6244696 0.1939543 0.20163733 -0.2587939 -0.76210195
0.024871169 0.10435256 -0.2826343 -0.3291338 0.3728474 0.09247166 -0.16336079 0.36162257
0.6461339 -0.0005437755 0.08952255 -0.28749883 -0.2633913 -0.23128065 -0.35041118 -0.39471957
-0.5389073 1.4049155 -0.43359625 -0.15759116 0.008878377 -0.5662467 0.024353378 0.13322799
0.1751533 0.0894436 -0.19029135 0.8066489 -0.3623991 0.029157715 -0.076059416 -0.006808025
-0.19490755 -0.47953492 -0.35764316 -0.31594625 -0.30553848 -0.3704525 -0.081241235 0.084455624
0.0007478209 -0.0052212626 0.20838997 0.018886726 0.58093417 -0.05879245 0.26707375 -0.08541766
-0.43265724 0.06971812 -0.16247948 -0.8652885 -0.3778249 -0.2306123 -0.17900252 0.4551966
-0.01271023 -0.4791868 0.71721035 0.19140391 0.11354064 0.106259204 0.5058177 0.17191513
-0.16393927 -0.4579588 0.22766271 0.007974589 -1.1905644 0.12978026 -0.15942094 -0.04682435
0.16719185 -0.16390383 -0.84040475 0.018676996 -0.0762945 -0.048410192 0.3061132 0.19519053
-0.11109661 0.5928128 0.64259166 0.13734792 -0.20446019 0.1555273 -0.04145363 0.57539475
0.23445505 0.5333508 -0.37606752 -0.5679842 -0.66833466 0.07290456 -0.122521855 -0.026111478
-0.4918434 -0.15474826 0.41610003 -0.19787954 0.33988968 0.17959611 0.31782314 0.09988383
-0.050360136 0.09194172 -0.111375324 -0.36576658 0.06486429 0.37758908 0.18809226 -0.2501092
0.018173942 -0.33412105 -0.0045089833 0.16455336 -0.032440126 0.062233467 0.18115976 -0.07478858
-0.35265297 -0.12520708 -0.5705304 -0.20749548 0.14394027 -0.15389043 0.15734556 0.05363599
-0.8097525 0.0077969916 -0.6978062 0.24768774 0.070219815 0.145853 -0.8052766 0.50657284
0.9491746 -0.00024280032 -0.20109414 0.054368906 -0.013255482 0.111192234 0.06478609 0.4726358
0.0778026 0.377842 0.13174039 -0.073297404 0.57129335 0.4244501 0.14131072 0.18917167
0.00884234 -0.03914484 0.3271288 -0.23596951 0.01288757 0.31083724 -0.040069856 -0.32004386
00000000: 19dc 1c3f b659 3a3d 65d1 8dbe 0501 4f3e
00000010: 584d 9e3e b9c0 2fbf 5037 f3bd 26ed 563e
00000020: bf9a e0bc 1b21 a5be ff47 9cbe bdfa e53d
00000030: f6d1 f13d 28c5 933d 5a3b 983e 7c21 f5be
00000040: 9bb7 6bbe 0294 d4bd 669c e1be 91b6 c63e
00000050: 34cd b2be 0c4a f8bc ddc8 373e bd49 9abe
00000060: e943 59bf eb01 35bf 53fc debe 5e28 6b3e
00000070: 4f13 903e b54b 07bf 9862 60bd 8e71 ec3e
00000080: 0150 ba3d baba 51be 0e42 1ebf 1477 0a3e
00000090: 45f3 363e 2f9d 833d 58e2 afbd 77ab 983e
000000a0: 467c 633e 37f1 eebe 1ff4 1bbd 9d9f f6bb
000000b0: f25e 79bf 8ced 87be ba84 61be 1b4c adbe
000000c0: 32df 51be 9395 5a3e f404 923e dead 9bbe
000000d0: aa18 d5bd cd03 8f3f cc43 1b3e 991d 97be
000000e0: 9bd4 82bf 1d37 88be a55b ba3d 4074 0bbe
000000f0: d508 85bd fd4c 26bd 7a0c 833b b4ad 2a3f
00000100: 2483 093e ec71 75bc 9703 aabe 26aa 84be
00000110: 885c 053e 217f 08bd c638 2ebe 3b64 abbe
00000120: 25f8 2abf 44df 75be ff55 17bf 8384 423e
00000130: eade 23be 7b05 5d3c 25f4 5dbe 5b75 953e
00000140: 5d2d 3ebf 1042 9c3e 37f2 d73e 1e37 51be
00000150: 005a 603e 97dc dabd b122 c73e 48b2 d0bd
00000160: 9530 b03e 1323 99bd 7f07 803d 3ddd 1fbf
00000170: f59b 463e 047a 4e3e a280 84be 1d19 43bf
00000180: 9fbe cb3c ccb6 d53d 71b5 90be 3a84 a8be
00000190: dbe5 be3e c861 bd3d 0d48 27be 9826 b93e
000001a0: 0869 253f 288c 0eba 9957 b73d 0c33 93be
000001b0: 39db 86be d6d4 6cbe 1869 b3be af18 cabe
000001c0: d4f5 09bf 45d4 b33f 5400 debe 945f 21be
000001d0: 9d76 113c 8bf5 10bf bc80 c73c eb6c 083e
000001e0: 635b 333e 352e b73d bcdb 42be 8b80 4e3f
000001f0: 608c b9be 29dc ee3c 0ac5 9bbd da15 dfbb
00000200: d895 47be 9a85 f5be 011d b7be b5c3 a1be
00000210: 8a6f 9cbe f3ab bdbe ce61 a6bd 12f7 ac3d
00000220: 6909 443a 2017 abbb 2e64 553e 56b8 9a3c
00000230: 1ab8 143f 5ad0 70bd e4bd 883e 74ef aebd
00000240: 4085 ddbe 60c8 8e3d 0561 26be 8c83 5dbf
00000250: 4472 c1be a125 6cbe 704c 37be 870f e93e
00000260: 923e 50bc f957 f5be 199b 373f 63ff 433e
00000270: ff87 e83d 6d9e d93d 457d 013f 850a 303e
00000280: b2df 27be 9379 eabe 6a20 693e daa7 023c
00000290: 6a64 98bf 1ee5 043e 3e3f 23be e4ca 3fbd
000002a0: 5734 2b3e 68d6 27be c424 57bf 8000 993c
000002b0: 4a40 9cbd c449 46bd dfba 9c3e 07e0 473e
000002c0: 9f86 e3bd 94c2 173f e380 243f efa4 0c3e
000002d0: 035e 51be 8c42 1f3e 48cb 29bd 124d 133f
000002e0: fc14 703e ae89 083f ec8b c0be 6a67 11bf
000002f0: fb17 2bbf fc4e 953d bdec fabd bde7 d5bc
00000300: e6d2 fbbe 5476 1ebe 100b d53e efa0 4abe
00000310: 0506 ae3e 0be8 373e b7b9 a23e e58f cc3d
00000320: 6e46 4ebd f14b bc3d bf18 e4bd c245 bbbe
00000330: 92d7 843d 5b53 c13e 429b 403e 500e 80be
00000340: 85e1 943c ea11 abbe 18c0 93bb ad80 283e
00000350: f0df 04bd 85e8 7e3d f281 393e c12a 99bd
00000360: ee8e b4be 4936 00be 480e 12bf b279 54be
00000370: 1465 133e 7495 1dbe 321f 213e 69b1 5b3d
00000380: f14b 4fbf e87d ff3b 6da3 32bf dba1 7d3e
00000390: 68cf 8f3d 7d5a 153e 9b26 4ebf c2ae 013f
000003a0: 1bfd 723f 3798 7eb9 9feb 4dbe eeb1 5e3d
000003b0: 852d 59bc c1b8 e33d 92ae 843d 52fd f13e
000003c0: f856 9f3d 8274 c13e f4e6 063e f31c 96bd
000003d0: 4840 123f 8651 d93e c2b3 103e 38b6 413e
000003e0: 76df 103c 5756 20bd 6d7d a73e fea1 71be
000003f0: 6326 533c 0f26 9f3e 4a20 24bd cadc a3be

weight_hh_l0 f4 [96, 32]
-0.03926167 -0.3042493 -0.27348804 0.24969174 0.08769025 -0.23241206 -0.07369881 0.13664451
0.27582282 -0.6132314 -0.1573853 -0.25949773 0.29697004 0.181675 -0.032741923 0.05729658
-0.18749784 -0.053425673 -0.052867826 0.07030903 -0.7091698 0.3956391 -0.17748408 0.16261862
-0.25963715 -0.15624966 -0.64148366 0.28148037 0.5270137 0.25294003 0.11949918 0.14950413
-0.49868193 0.35843724 0.030451203 -0.11078576 0.2492646 -0.10369844 0.030500319 -0.20251404
1.0660331 -0.02146419 -0.1073907 0.05504059 0.4293159 -0.35435018 0.018254142 -0.6120759
0.006005775 0.016486494 -0.5584398 0.35726514 -0.82653105 0.8393511 0.5286022 0.24357477
-0.5664427 -0.4764225 -0.85892504 0.4734147 0.57807964 0.7288343 0.75293446 0.15104577
-0.23451962 -0.06215408 0.2235428 -0.32656097 0.13802284 -0.5174651 -0.27592993 0.27077028
0.36132368 0.23396464 -0.38907856 -0.3489975 0.46129555 0.060637906 -0.037660196 -0.072108366
0.9860067 0.09984356 -0.012617998 0.45047507 -0.24105726 -0.46138564 0.002625714 -0.72840405
-0.5497831 -0.25761372 -0.17739818 0.1592856 0.122309245 0.22784613 -0.5166728 -0.35646695
0.09936611 -0.007623441 1.0458361 0.39833 0.013001102 0.019170644 0.95405185 -0.88253814
0.26666754 -0.35180503 0.31686625 0.72263914 0.45806754 -0.45198238 0.2297196 -0.09488574
0.2606678 0.36269185 -0.12731986 0.06765817 -0.8304308 -0.3647605 0.5711158 0.27246606
0.088952795 -0.61498535 0.32625815 -0.28977728 -0.08718716 0.21242152 -0.110707544 -0.15425856
0.41235712 0.13777861 -0.33988696 -0.4977964 0.15025951 0.19766067 0.50987995 -0.51616347
0.29156256 -0.45359468 -0.21715595 0.56547266 -0.08994926 -0.40950027 -0.28659067 0.106375664
0.026785687 0.34341753 -0.20773536 0.26158452 -0.121921934 0.0018440913 0.11897051 -0.3042695
0.2490987 -0.05868033 -0.17592342 -0.26435465 0.07669379 0.3308444 -0.19137362 0.019771997
0.056811355 -0.2617321 -0.39409754 -0.3669407 0.09978206 0.26787314 -0.21046868 -0.3402193
-0.010238133 -0.1918947 0.09833961 0.13149062 -0.13799413 -0.19139631 -0.8688879 -0.2175442
0.029582053 0.035847075 0.5797068 0.2721255 -0.09302249 0.16400173 -0.3118735 0.5328696
0.3204814 -0.14326988 -0.19421606 0.46234778 0.021189302 0.5485519 0.15058431 0.16337836
0.004635587 -0.9255522 -0.2257267 -0.18487068 0.7658192 -0.13618636 -0.4655224 -0.71738166
0.58899146 -0.27835122 0.057135575 -0.21536873 0.07905813 0.09338899 0.2297234 0.1724595
0.15332313 -0.09951225 0.062904395 0.32075772 -0.13722321 0.112702504 -0.23294751 0.23577657
0.043451235 0.050648224 -0.25928074 -0.25362554 0.4170582 0.13248935 -0.3283799 0.08247628
-0.47302625 -0.7111563 -0.4567905 0.12058545 -0.47381207 -0.24917112 0.40370378 -0.23206411
0.2257486 -0.14264812 -0.1650846 -0.023313832 0.5790238 -0.037382036 0.28147048 0.4110597
0.05548332 0.020978061 -0.7893935 0.9739052 -0.79481953 -0.95902616 -0.06479782 0.20695244
0.08711308 -0.42097446 -0.32572612 -0.2515937 -0.039154887 -0.38708493 0.29836693 -0.17402442
00000000: d8d0 20bd 90c6 9bbe a006 8cbe 31af 7f3e
00000010: f296 b33d 6dfd 6dbe 67ef 96bd 8aec 0b3e
00000020: a638 8d3e bcfc 1cbf 9d29 21be e3dc 84be
00000030: 750c 983e 0309 3a3e 651c 06bd d2af 6a3d
00000040: 6fff 3fbe e1d4 5abd ef8b 58bd 2efe 8f3d
00000050: 278c 35bf 3591 ca3e 63be 35be 7f85 263e
00000060: 29ef 84be e9ff 1fbe 4638 24bf 321e 903e
00000070: 5fea 063f 5b81 813e fcbb f43d 9c17 193e
00000080: 3d53 ffbe 1685 b73e cd74 f93c a5e3 e2bd
00000090: 383f 7f3e d95f d4bd cedb f93c d75f 4fbe
000000a0: c673 883f abd5 afbc a8ef dbbd 3e72 613d
000000b0: 4bcf db3e 636d b5be b689 953c 02b1 1cbf
000000c0: 18cc c43b af0e 873c e9f5 0ebf 75eb b63e
000000d0: 8a97 53bf b7df 563f 7952 073f aa6b 793e
000000e0: 6402 11bf a6ed f3be 83e2 5bbf 6963 f23e
000000f0: 07fd 133f e294 3a3f 50c0 403f beab 1a3e
00000100: e925 70be 4795 7ebd 67e8 643e 0033 a7be
00000110: dc55 0d3e 9878 04bf b046 8dbe 67a2 8a3e
00000120: 6bff b83e 6d94 6f3e 4e35 c7be cdaf b2be
00000130: ee2e ec3e 745f 783d 9441 1abd 8dad 93bd
00000140: ef6a 7c3f c87a cc3d b8bb 4ebc aba4 e63e
00000150: b7d7 76be bd3a ecbe 2c14 2c3b b078 3abf
00000160: 96be 0cbf f2e5 83be dea7 35be c41b 233e
00000170: 457d fa3d 7f50 693e ab44 04bf d682 b6be
00000180: 7680 cb3d 0fce f9bb f5dd 853f e9f1 cb3e
00000190: 9302 553c c10b 9d3c be3c 743f 05ee 61bf
000001a0: a688 883e ca1f b4be 4b3c a23e e1fe 383f
000001b0: d487 ea3e 3c6a e7be 9d3b 6b3e 7453 c2bd
000001c0: 4076 853e bfb2 b93e 2360 02be 5e90 8a3d
000001d0: 1d97 54bf e3c1 babe a534 123f ac80 8b3e
000001e0: e22c b63d ae6f 1dbf 4f0b a73e b05d 94be
000001f0: 2f8f b2bd 0785 593e a3ba e2bd f5f5 1dbe
00000200: 7920 d33e d615 0d3e aa05 aebe 2bdf febe
00000210: a1dd 193e 8f67 4a3e 7e87 023f 4a23 04bf
00000220: b047 953e 903d e8be 215e 5ebe d1c2 103f
00000230: 5137 b8bd 05aa d1be 03bc 92be 7cdb d93d
00000240: a86d db3c 6cd4 af3e 94b8 54be 68ee 853e
00000250: 35b2 f9bd 70b5 f13a d0a6 f33d 36c9 9bbe
00000260: bb13 7f3e c95a 70bd 4525 34be 7e59 87be
00000270: a211 9d3d 7064 a93e 72f7 43be e2f8 a13c
00000280: 06b3 683d c001 86be 27c7 c9be a7df bbbe
00000290: 895a cc3d ab26 893e 1a85 57be 3931 aebe
000002a0: d8bd 27bc 0b80 44be 4766 c93d 7aa5 063e
000002b0: 554e 0dbe 65fd 43be 706f 5ebf e8c3 5ebe
000002c0: 1056 f23c 62d4 123d aa67 143f 0954 8b3e
000002d0: 9382 bebd 12f0 273e e2ad 9fbe 246a 083f
000002e0: 2316 a43e 57b5 12be 93e0 46be d9b8 ec3e
000002f0: 3095 ad3c e66d 0c3f c632 1a3e a84c 273e
00000300: 1fe6 973b fdf0 6cbf e624 67be bd4e 3dbe
00000310: ba0c 443f 7074 0bbe f458 eebe 53a6 37bf
00000320: 25c8 163f 0d84 8ebe fe06 6a3d 9f89 5cbe
00000330: 3be9 a13d ba42 bf3d 9c3c 6b3e 3999 303e
00000340: bd00 1d3e 14cd cbbd 05d4 803d 5b3a a43e
00000350: 3e84 0cbe 92d0 e63d cb89 6ebe 6a6f 713e
00000360: ecf9 313d 8374 4f3d 72c0 84be 35db 81be
00000370: a788 d53e 4aab 073e 6921 a8be 53e9 a83d
00000380: 7f30 f2be 570e 36bf 72e0 e9be 81f5 f63d
00000390: 7f97 f2be b726 7fbe 43b2 ce3e 37a2 6dbe
000003a0: a42a 673e 5912 12be f00b 29be a6fc bebc
000003b0: e73a 143f e81d 19bd e61c 903e 6b76 d23e
000003c0: 7a42 633d 2fda ab3c b115 4abf da51 793f
000003d0: 4b79 4bbf bd82 75bf b8b4 84bd 57eb 533e
000003e0: 5868 b23d f789 d7be 93c5 a6be e4d0 80be
000003f0: e060 20bd ff2f c6be 8dc3 983e 7533 32be

bias_ih_l0 f4 [96]
-0.019827418 0.203707 0.30318165 0.54553443 0.058530793 0.20988548 -0.18723212 0.095035926
-0.15521127 0.10443381 0.09679084 -0.12047676 -0.01940569 0.4650397 0.02026997 0.3190116
0.50311214 0.28796774 0.16962358 0.33440357 0.017633274 0.21169908 -0.052782893 0.23901808
-0.13553162 0.16343278 -0.038573522 -0.078811295 0.047669437 0.057719935 0.115817785 0.24246244
0.24773642 -0.060422216 -0.22916813 -0.3734877 -0.66450274 -0.30878657 0.11659823 -0.25259954
0.021973917 0.14668164 0.18444753 -0.099200375 -0.14489856 0.106860615 -0.1484083 -0.33217505
-0.25899705 -0.3927977 0.08992003 0.30453566 -0.12402364 -0.28289112 -0.0066826255 0.0052269893
-0.066766284 0.19636336 -0.20075794 -0.22426572 -0.47189775 -0.13867724 -0.21961446 0.2758083
-0.004752931 0.094023354 -0.18135715 -0.10706355 0.003489947 0.16418172 -0.29299337 -0.008146561
-0.11220582 0.14643052 0.08909604 0.050946053 0.26859313 -0.027392687 0.023915047 -0.023037722
0.11211468 -0.089916594 0.070719235 -0.13227493 0.2707783 -4.646081e-06 0.08025302 -0.16194928
0.23328139 -0.039931986 0.16707058 -0.102882765 -0.15331537 -0.06812855 -0.024521321 0.10447563
00000000: 1c6d a2bc 9198 503e a03a 9b3e 25a8 0b3f
00000010: fcbd 6f3d 38ec 563e c7b9 3fbe 32a2 c23d
00000020: b4ef 1ebe 65e1 d53d 473a c63d 85bc f6bd
00000030: aef8 9ebc af19 ee3e 350d a63c 7d55 a33e
00000040: f5cb 003f 8270 933e ceb1 2d3e f236 ab3e
00000050: a873 903c a5c7 583e e032 58bd 28c1 743e
00000060: cdc8 0abe ec5a 273e 45ff 1dbd d167 a1bd
00000070: 0741 433d bd6b 6c3d e031 ed3d 1348 783e
00000080: 9eae 7d3e 497d 77bd 0dab 6abe c839 bfbe
00000090: da1c 2abf 4619 9ebe 0ecb ee3d ba54 81be
000000a0: a502 b43c b633 163e d0df 3c3e 9129 cbbd
000000b0: 4a60 14be bdd9 da3d 58f8 17be d912 aabe
000000c0: 439b 84be c81c c9be fe27 b83d 19ec 9b3e
000000d0: 1b00 febd 1bd7 90be edf9 dabb 2a47 ab3b
000000e0: c3bc 88bd 7a13 493e 7d93 4dbe eaa5 65be
000000f0: 959c f1be 6801 0ebe 9de2 60be bf36 8d3e
00000100: 7abe 9bbb 518f c03d b0b5 39be 2244 dbbd
00000110: 98b7 643b 411f 283e 3a03 96be 2779 05bc
00000120: 2acc e5bd e2f1 153e fc77 b63d cfac 503d
00000130: 0a85 893e a166 e0bc 7de9 c33c 9bb9 bcbc
00000140: 629c e53d 3126 b8bd 3fd5 903d 1473 07be
00000150: 74a3 8a3e 88e5 9bb6 b25b a43d 08d6 25be
00000160: 51e1 6e3e b98f 23bd 8d14 2b3e 33b4 d2bd
00000170: b4fe 1cbe fb86 8bbd f0e0 c8bc 52f7 d53d

bias_hh_l0 f4 [96]
-0.22766678 0.34620598 0.315487 0.44852322 0.30288592 0.009830562 -0.08222529 0.25509515
-0.0651978 -0.07676072 0.12591839 0.043134864 0.0069587226 0.33996066 0.17622352 0.15209307
0.57631713 0.4024664 0.050480716 -0.004988839 -0.06754949 0.31248578 -0.064494714 0.2431207
0.002765357 0.23007154 0.103053935 0.051141802 0.050444998 0.104096256 0.2740688 0.2926851
-0.017590106 -0.17247519 -0.2337296 -0.3318222 -0.79313374 -0.06872174 0.23209627 -0.274778
0.31215948 0.11815047 0.005737168 -0.072895624 -0.23080502 0.011381807 -0.07449634 -0.26121792
-0.42263246 -0.29331252 -0.031400725 0.32101825 -0.19948624 -0.012095214 -0.11933898 -0.04629211
0.06783379 0.077784784 -0.24688633 -0.02093038 -0.19800048 -0.033924744 -0.28238246 0.29228416
0.14176762 -0.00060882553 0.09994175 -0.05470931 0.24691291 0.06844746 0.15811427 0.093347274
0.14012316 0.0068431916 -0.011212614 0.09859074 0.021623913 -0.22706063 -0.00094916765 0.15199879
0.13243447 -0.028365085 0.016066741 0.009675622 0.23343793 -0.14751233 -0.20749152 -0.096960075
-0.030868715 0.03390734 0.18217458 0.18151148 0.050410297 0.02745381 -0.09211086 -0.0939806
00000000: 7b21 69be e941 b13e 8387 a13e d6a4 e53e
00000010: dd13 9b3e 5e10 213c bc65 a8bd d59b 823e
00000020: 6d86 85bd b934 9dbd c0f0 003e 2fae 303d
00000030: ff05 e43b 530f ae3e f073 343e 49be 1b3e
00000040: 8589 133f 1310 ce3e dec4 4e3d 6a79 a3bb
00000050: 6357 8abd 23fe 9f3e ce15 84bd a2f4 783e
00000060: fe3a 353b e097 6b3e f10d d33d 117a 513d
00000070: 6a9f 4e3d 6b30 d53d bf52 8c3e d2da 953e
00000080: 2019 90bc 569d 30be d056 6fbe 99e4 a9be
00000090: d00a 4bbf fcbd 8cbd a5aa 6d3e b4af 8cbe
000000a0: 5ed3 9f3e e0f8 f13d dafe bb3b 4d4a 95bd
000000b0: 2758 6cbe c27a 3a3c 8991 98bd 5bbe 85be
000000c0: 4863 d8be 0f2d 96be 0c9e 00bd 815c a43e
000000d0: 1f46 4cbe 012b 46bc ff67 f4bd cc9c 3dbd
000000e0: 71ec 8a3d a14d 9f3d c5cf 7cbe 3076 abbc
000000f0: a3c0 4abe acf4 0abd 6f94 90be 45a6 953e
00000100: 882b 113e 9799 1fba 43ae cc3d df16 60bd
00000110: bdd6 7c3e 2f2e 8c3d b5e8 213e db2c bf3d
00000120: 727c 0f3e da3c e03b 1db5 37bc f1e9 c93d
00000130: a224 b13c 9582 68be 90d1 78ba 92a5 1b3e
00000140: e79c 073e e55d e8bc 669e 833c 8086 1e3c
00000150: 5a0a 6f3e 790d 17be a878 54be 0193 c6bd
00000160: 63e0 fcbc 6ce2 0a3d f98b 3a3e 25de 393e
00000170: 077b 4e3d d0e6 e03c 9ea4 bcbd e778 c0bd

weight_ih_l1 f4 [96, 32]
-0.045652192 -0.18249236 -0.34700397 0.32211903 -0.6374578 -0.21052217 0.85191756 0.5733107
-0.19003777 -0.47303402 0.5709593 0.5460837 -0.47716478 0.1583267 -0.37040284 -0.3604872
-0.05521677 0.047959078 0.63794917 -0.3045832 0.23202541 0.21761672 0.25622153 0.18743321
0.033831388 -0.028767237 0.041871537 -0.60169876 -0.6580703 -0.7144924 -0.1918832 -0.44268635
0.194645 0.0031904401 0.2183879 -0.23932871 0.39107263 0.26935157 -0.4000735 -0.34852403
0.14887457 0.05395664 -0.2807664 -0.26250145 -0.029247303 -0.33964625 0.30710116 0.2335769
-0.10181526 -0.23948602 -0.28092492 0.03678906 0.1786358 -0.15232415 0.088269986 0.61989874
0.27193144 0.65414095 0.20690317 -0.16785991 0.07104152 -0.44829214 0.1654406 -0.39495724
-0.05982486 -2.0907853e-05 -0.442555 0.3134978 -0.16605288 -0.21354333 0.7928603 0.40581328
0.22506249 -0.10140682 0.14277957 0.42258707 -0.22977598 0.5433014 -0.042961422 -0.67355996
0.2667335 0.73230433 0.20949183 -0.13893436 0.14522545 0.46763134 -0.12554727 -0.20177567
-0.14858706 -0.21386515 -0.6670957 0.20069027 -0.036739778 -0.38687828 -0.22218524 -0.01771722
-0.03396602 -0.15110701 0.509276 0.04631859 0.10323669 0.24413289 0.31270298 0.07772425
-0.17316702 -0.050368387 0.24638517 0.33199143 0.0049092732 -0.09160663 0.33400393 0.38785958
-0.62964237 -0.34829357 0.008755277 -0.23412089 -0.049270183 -0.19966935 0.08690548 -0.04236825
0.21126421 0.38249025 0.13710126 -0.26901504 0.11858221 -0.17924152 0.22029027 0.10460035
-0.05372292 0.391399 -0.05098268 -0.2171107 -0.5859498 -0.256711 0.21049526 -0.014696713
0.34963268 0.07532803 0.21339682 -0.13893993 -0.3991457 -0.06346044 -0.28701043 -0.02002988
0.07452166 0.4678668 -0.05778343 -0.18955304 -0.07506656 -0.29731965 0.35557282 0.104290366
-0.10999058 -0.6231892 0.046336133 -0.062248513 -0.32761717 -0.009584001 -0.12935306 -0.16911174
0.18671271 0.108305946 0.31309268 0.19552143 -0.023857528 -0.10633186 -0.17896552 -0.025879007
-0.18559314 -0.4720981 -0.100290604 -0.040619574 0.19394216 0.124103665 -0.3042341 -0.07058314
0.016742736 -0.6965481 0.13618892 0.2229277 -0.19390826 -0.03442763 0.0531694 0.49236917
0.57442236 0.042594954 0.037660826 -0.03295909 0.016961358 0.06521284 0.0023913106 -0.233362
-0.26652765 -0.27896878 -0.079762414 -0.12431092 0.42149296 -0.010753946 -0.7160262 -0.66698223
0.7450153 -0.20901008 -0.38577867 0.19001341 0.025003977 -0.51861095 -0.11455226 0.5578566
-0.5854644 -0.34348065 0.14019944 0.5898233 -0.6989467 -0.082111344 -0.06822262 0.4336948
-0.118284024 -0.028275644 -0.4967967 0.2887055 -0.3409996 0.030274428 0.30558604 0.42866564
-0.18323433 -0.09258344 -0.59166604 0.45519948 -0.15386337 -0.06880654 0.26812667 -0.40008736
0.0067937295 0.056369934 0.18644927 0.40338793 -0.04159788 -0.016719759 -0.3408924 -0.33815587
0.100443535 0.55875576 0.053426057 -0.43047175 -0.4968644 0.005305146 0.114042416 -0.20398839
-0.23341918 0.26138794 -0.043967698 -0.14934148 -0.4282993 -0.46889347 -0.31001613 -0.29842302
00000000: cbfd 3abd 47df 3abe 81aa b1be c9ec a43e
00000010: 6f30 23bf 2093 57be 4517 5a3f 7dc4 123f
00000020: 4399 42be 8431 f2be 642a 123f 24cc 0b3f
00000030: f14e f4be 6520 223e 71a5 bdbe c791 b8be
00000040: fb2a 62bd bd70 443d a350 233f 54f2 9bbe
00000050: 1298 6d3e ebd6 5e3e 782f 833e 7eee 3f3e
00000060: c892 0a3d 45a9 ebbc 7d81 2b3d ee08 1abf
00000070: 4c77 28bf f9e8 36bf 087d 44be c9a7 e2be
00000080: 0551 473e b416 513b 14a1 5f3e 9612 75be
00000090: ac3a c83e 73e8 893e 6fd6 ccbe be71 b2be
000000a0: 9372 183e a301 5d3d 9dc0 8fbe 9766 86be
000000b0: 0a98 efbc 1de6 adbe 5d3c 9d3e c82e 6f3e
000000c0: 8584 d0bd d33b 75be 64d5 8fbe 20b0 163d
000000d0: 4eec 363e ddfa 1bbe e5c6 b43d afb1 1e3f
000000e0: 993a 8b3e c875 273f 6dde 533e 78e3 2bbe
000000f0: 377e 913d 8c86 e5be 4369 293e d637 cabe
00000100: ea0a 75bd 4663 afb7 9296 e2be c982 a03e
00000110: c409 2abe 1aab 5abe e5f8 4a3f c2c6 cf3e
00000120: c876 663e 61ae cfbd cf34 123e 555d d83e
00000130: 654a 6bbe cd15 0b3f 51f8 2fbd 6d6e 2cbf
00000140: 4b91 883e 4c78 3b3f 0785 563e cf44 0ebe
00000150: fbb5 143e 606d ef3e 778f 00be 489e 4ebe
00000160: 3527 18be 77ff 5abe c9c6 2abf c081 4d3e
00000170: 737c 16bd e914 c6be 8784 63be b423 91bc
00000180: f41f 0bbd ccbb 1abe e95f 023f 90b8 3d3d
00000190: c26d d33d f9fd 793e 9b1a a03e e42d 9f3d
000001a0: b252 31be 154f 4ebd 654c 7c3e c8fa a93e
000001b0: f8dd a03b 429c bbbd 9002 ab3e 8895 c63e
000001c0: 3e30 21bf 8953 b2be 4b72 0f3c 63bd 6fbe
000001d0: 88cf 49bd 1f76 4cbe 80fb b13d 558a 2dbd
000001e0: a555 583e c3d5 c33e 4664 0c3e 57bc 89be
000001f0: 3bdb f23d 178b 37be c693 613e b538 d63d
00000200: 910c 5cbd 7365 c83e 37d3 50bd 4452 5ebe
00000210: ce00 16bf a06f 83be 128c 573e 7bca 70bc
00000220: 0e03 b33e 9545 9a3d b284 5a3e 4546 0ebe
00000230: d35c ccbe 8cf7 81bd 08f3 92be b415 a4bc
00000240: d09e 983d 3d8c ef3e 51ae 6cbd 311a 42be
00000250: 7fbc 99bd 483a 98be a40d b63e 3096 d53d
00000260: be42 e1bd 5489 1fbf f5ca 3d3d 4cf8 7ebd
00000270: 70bd a7be 3706 1dbc 2175 04be a12b 2dbe
00000280: 9e31 3f3e 82cf dd3d af4d a03e c536 483e
00000290: dd70 c3bc 85c4 d9bd bd42 37be 3600 d4bc
000002a0: 210c 3ebe d8b6 f1be 2965 cdbd b660 26bd
000002b0: c698 463e 102a fe3d 92c4 9bbe e58d 90bd
000002c0: 1028 893c fa50 32bf 1c75 0b3e 2947 643e
000002d0: e38f 46be fd03 0dbd 28c8 593d d017 fc3e
000002e0: 580d 133f 0c78 2e3d 3d42 1a3d 1c00 07bd
000002f0: 8cf2 8a3c 4f8e 853d 89b7 1c3b 73f6 6ebe
00000300: 5076 88be ffd4 8ebe 7a5a a3bd b996 febd
00000310: edcd d73e 5231 30bc 7e4d 37bf 59bf 2abf
00000320: 53b9 3e3f bd06 56be c884 c5be e092 423e
00000330: 24d5 cc3c b0c3 04bf 609a eabd b1cf 0e3f
00000340: ffe0 15bf b2dc afbe 7190 0f3e a9fe 163f
00000350: 2cee 32bf fe29 a8bd 4db8 8bbd 3f0d de3e
00000360: e53e f2bd 53a2 e7bc 235c febe 35d1 933e
00000370: 8097 aebe 1402 f83c c675 9c3e 107a db3e
00000380: c8a1 3bbe 639c bdbd 6d77 17bf e80f e93e
00000390: 5c8e 1dbe 71ea 8cbd e647 893e 40d8 ccbe
000003a0: ef9d de3b 29e4 663d 8fec 3e3e dd88 ce3e
000003b0: 8a62 2abd e0f7 88bc 7389 aebe c422 adbe
000003c0: 57b5 cd3d 9e0a 0f3f 48d5 5a3d cb66 dcbe
000003d0: 0365 febe cad6 ad3b 128f e93d 55e2 50be
000003e0: 7005 6fbe a4d4 853e 7917 34bd f9ec 18be
000003f0: 0c4a dbbe ce12 f0be 6fba 9ebe e7ca 98be

weight_hh_l1 f4 [96, 32]
-0.25103506 0.39164683 1.1232824 -0.05073655 0.043904427 -0.356728 0.51352626 0.31286612
0.49446106 0.32543087 -0.5637494 0.16846643 0.5910569 0.16398713 -0.28941146 0.389863
-0.22312422 0.081788346 0.019896746 -0.31572118 -0.26230827 0.43933234 -0.30878836 0.10301471
0.12049094 -0.35332724 0.2481439 0.10290144 -0.050018664 0.2394618 -0.060316246 -0.3273775
-0.11178595 -0.01397922 -0.06377747 -0.40378743 -0.07603351 0.0065853097 0.020867284 0.12392037
-0.5707074 -0.29104686 -0.086001396 -0.05966179 -0.1635248 0.3245177 0.06509052 0.2005643
-0.21683444 -0.24195255 0.3147318 0.4290768 0.47054917 -0.061643977 -0.040120143 -0.19407113
-0.49934992 0.3905023 -0.032491475 0.03862599 -0.08624259 0.2926287 -0.6423389 0.009442794
-0.39989227 -0.17630942 0.21983305 -0.16212514 -0.18130329 0.18332541 0.27793905 0.07440301
0.3811727 -0.5567199 0.041139744 0.2641721 0.21447031 0.19385043 -0.16981584 -0.045927864
0.08846683 0.0556171 0.045806903 -0.1108145 0.041550238 0.5903166 -0.1521153 0.2482128
0.11559847 -0.24298684 0.08469406 0.2563603 -0.14608166 0.21121852 0.2408032 -0.5513414
-0.22738044 -0.23018439 0.23733656 -0.53397435 -0.24890406 -0.40467006 0.22478639 -0.03522976
-0.14070912 -0.09069257 1.9677318e-05 0.0046252534 0.44631693 -0.07051359 0.49985608 0.09349234
-0.17714757 -0.46822125 0.45550752 0.17491525 -0.19841588 0.11345127 -0.15155472 -0.11670558
-0.58593893 0.3666716 -0.2033526 -0.15460034 -0.08368643 -0.18857229 -0.19751745 -0.13145736
-0.25461522 0.44812983 -0.6472978 0.07010807 -0.04880485 -0.0026609828 0.1402599 -0.14885043
-0.44668344 0.15155815 0.07556991 -0.124933936 -0.080726214 0.13904573 -0.024650298 0.101367354
0.55291057 0.34106165 -0.10919187 0.26583052 0.19708274 0.059201326 -0.34868225 -0.22132725
-0.18799303 -0.3342563 0.038362917 0.012743207 -0.100968994 -0.048381828 -0.07272525 -0.42071226
-0.27351525 -0.19973293 0.36627582 0.22819391 0.14697571 -0.030350145 -0.12354573 0.5228168
0.22817324 0.46436885 -0.045433566 0.27743188 -0.12233968 0.13226071 -0.14274022 -0.34812573
-0.1793018 -0.02957216 0.16885616 0.43830854 0.18614687 -0.38901427 -0.3558489 -0.38792887
0.15165317 0.021460947 0.50244784 0.18297222 -0.3442554 0.0035582217 0.10525625 -0.050550282
-0.3980709 -0.26581904 0.29650307 -0.10304159 -0.61779684 0.55927444 -0.339553 -0.06822234
0.33565333 -0.166878 0.18213417 0.3754984 -0.380342 0.35688233 0.055824455 -0.4297607
0.029277537 -0.20942345 -0.098539494 -0.12547669 0.19426246 -0.53803134 0.017825902 0.059164666
-0.11221292 0.0635555 0.21822304 0.013305791 -0.24334714 -0.17021187 -0.24271339 -0.032212604
-0.21400288 0.20852326 0.5271882 -0.24781878 -0.1579192 -0.16555245 0.48944858 0.22783202
0.73598385 -0.3701213 -0.14355466 0.19719486 0.6940788 0.02237432 -0.36473033 0.42550343
-0.19093385 0.40570992 0.46725857 -0.35319585 -0.29109007 0.40526512 -0.72868085 0.41300702
0.3152912 -0.17348494 0.20684083 -0.016567828 0.062092822 0.31182417 0.48822993 -0.1921542
00000000: ab87 80be ef85 c83e b8c7 8f3f 21d1 4fbd
00000010: 21d5 333d 0da5 b6be 7576 033f fd2f a03e
00000020: 002a fd3e e09e a63e e151 10bf 7782 2c3e
00000030: 814f 173f 3eec 273e bd2d 94be 209c c73e
00000040: ad7a 64be a680 a73d 80fe a23c 35a6 a1be
00000050: 454d 86be 2bf0 e03e 8219 9ebe 60f9 d23d
00000060: f4c3 f63d 4fe7 b4be 6f19 7e3e fdbd d23d
00000070: 5fe0 4cbd 7935 753e 2b0e 77bd 069e a7be
00000080: 08f0 e4bd 1909 65bc c39d 82bd 3abd cebe
00000090: 75b7 9bbd 95c9 d73b def1 aa3c f7c9 fd3d
000000a0: e119 12bf 1804 95be 8021 b0bd ec5f 74bd
000000b0: 0c73 27be 2f27 a63e 2e4e 853d ba60 4d3e
000000c0: d909 5ebe 69c2 77be 8724 a13e f4af db3e
000000d0: d2eb f03e 657e 7cbd 0555 24bd 95ba 46be
000000e0: cbaa ffbe ebef c73e c815 05bd 4936 1e3d
000000f0: f49f b0bd 6ed3 953e 5270 24bf f3b5 1a3c
00000100: aebe ccbe 758a 34be ea1b 613e 2204 26be
00000110: 92a7 39be a8b9 3b3e 074e 8e3e 9b60 983d
00000120: 1129 c33e 3285 0ebf 2682 283d 9141 873e
00000130: 1b9e 5b3e ba80 463e 34e4 2dbe db1e 3cbd
00000140: 192e b53d c2ce 633d 05a0 3b3d b6f2 e2bd
00000150: 9530 2a3d fd1e 173f 1dc4 1bbe 7f2b 7e3e
00000160: e4be ec3d 8bd1 78be 1474 ad3d a841 833e
00000170: 6e96 15be ab49 583e 1d95 763e b624 0dbf
00000180: 6bd6 68be 75b5 6bbe 5b08 733e 8bb2 08bf
00000190: b5e0 7ebe ea30 cfbe 672e 663e 154d 10bd
000001a0: 0d16 10be 07bd b9bd b810 a537 708f 973b
000001b0: a783 e43e 6e69 90bd 23ed ff3e e978 bf3d
000001c0: 2c66 35be b2ba efbe 4838 e93e fc1c 333e
000001d0: 882d 4bbe 2459 e83d 2931 1bbe 5603 efbd
000001e0: 1800 16bf 61bc bb3e aa3b 50be 8d4f 1ebe
000001f0: ca63 abbd 1819 41be 0442 4abe c29c 06be
00000200: ed5c 82be 4671 e53e 4fb5 25bf d294 8f3d
00000210: 98e7 47bd e263 2ebb 4ba0 0f3e 3f6c 18be
00000220: b1b3 e4be 0f32 1b3e 66c4 9a3d 5ddd ffbd
00000230: c953 a5bd 0162 0e3e 6cef c9bc b099 cf3d
00000240: 8c8b 0d3f a29f ae3e fd9f dfbd f01a 883e
00000250: 0fd0 493e 177d 723d 7b86 b2be 9ca3 62be
00000260: 3f81 40be a423 abbe 6f22 1d3d e2c8 503c
00000270: d5c8 cebd 062c 46bd faf0 94bd 9967 d7be
00000280: 310a 8cbe ca86 4cbe 8188 bb3e aaab 693e
00000290: cd80 163e dea0 f8bc 8b05 fdbd 52d7 053f
000002a0: 3fa6 693e c1c1 ed3e 8c18 3abd 8d0b 8e3e
000002b0: 3a8d fabd 5a6f 073e 7e2a 12be 893d b2be
000002c0: e49a 37be 5141 f2bc a1e8 2c3e fa69 e03e
000002d0: 499d 3e3e e12c c7be d431 b6be 9d9e c6be
000002e0: f84a 1b3e dece af3c 6ca0 003f 125d 3b3e
000002f0: 3e42 b0be 0e31 693b 9790 d73d d00d 4fbd
00000300: f3cf cbbe 6f19 88be 40cf 973e 7807 d3bd
00000310: ef27 1ebf 9c2c 0f3f e4d9 adbe 27b8 8bbd
00000320: c1da ab3e 11e2 2abe 6181 3a3e 5441 c03e
00000330: 30bc c2be 48b9 b63e 2fa8 643d 9809 dcbe
00000340: 72d7 ef3c 1a73 56be 13cf c9bd f67c 00be
00000350: bdec 463e 6cbc 09bf a007 923c a656 723d
00000360: e3cf e5bd 6329 823d dc75 5f3e 8800 5a3c
00000370: fe2f 79be 054c 2ebe dc89 78be 5df1 03bd
00000380: 9223 5bbe 1f87 553e cef5 063f 35c4 7dbe
00000390: 92b5 21be 9586 29be 0199 fa3e cc4c 693e
000003a0: 7069 3c3f 8a80 bdbe feff 12be 73ed 493e
000003b0: 26af 313f 5a4a b73c efbd babe 96db d93e
000003c0: 2a84 43be 36b9 cf3e 843c ef3e 16d6 b4be
000003d0: c209 95be e97e cf3e d48a 3abf a875 d33e
000003e0: d96d a13e 09a6 31be 15ce 533e 41b9 87bc
000003f0: 0b55 7e3d 6ba7 9f3e 46f9 f93e 12c4 44be

bias_ih_l1 f4 [96]
0.07841174 -0.21848714 -0.058024462 -0.172205 0.08720199 0.09180544 0.019888544 0.005622225
0.2892627 -0.035575878 -0.24852571 0.04893236 0.31779897 -0.36222878 -0.012833112 0.19169877
-0.04575686 -0.08549584 -0.3521928 0.13930285 0.064047016 0.27302265 0.08344904 -0.13781409
0.030085234 0.18375988 -0.075134054 0.13874775 -0.30566496 -0.2377173 0.20413227 -0.21765965
-0.012781805 0.34300902 -0.10554259 0.27342722 0.29702422 -0.1524099 0.08986417 0.0276021
-0.07545384 0.21229425 -0.20919766 -0.061953593 -0.31308508 0.16382824 0.34569976 -0.17321107
-0.34398514 0.21024595 -0.10138182 -0.096915856 0.030050691 0.08719696 -0.3401015 -0.1741059
-0.0038861453 -0.16484287 0.6631826 -0.049648415 0.082767695 -0.033823416 -0.032282297 0.14287165
-0.048906486 0.10023997 0.076424226 0.15239727 -0.025522744 -0.031822275 0.043326717 -0.10022543
-0.059424516 0.16581458 -0.033018455 0.03486167 0.10781787 0.121859945 0.13286331 -0.027459765
0.020831699 0.12302948 0.013554912 -0.095413506 -0.078484766 0.100176014 -0.13379495 -0.058663245
-0.11235482 -0.015238274 0.107226744 -0.016338183 0.07455953 -0.021884961 0.046833213 0.14901347
00000000: 5696 a03d 18bb 5fbe 0fab 6dbd 8256 30be
00000010: f596 b23d 7e04 bc3d 4ded a23c a43a b83b
00000020: 3e1a 943e 03b8 11bd 867d 7ebe 4c6d 483d
00000030: 8cb6 a23e 0d76 b9be f941 52bc af4c 443e
00000040: 8c6b 3bbd 7118 afbd 9d52 b4be 68a5 0e3e
00000050: 152b 833d a0c9 8b3e 55e7 aa3d 231f 0dbe
00000060: 4f75 f63c 8d2b 3c3e e2df 99bd e413 0e3e
00000070: 1e80 9cbe 2a6c 73be 0d08 513e 2ce2 5ebe
00000080: c76a 51bc e19e af3e b726 d8bd a7fe 8b3e
00000090: 8f13 983e 5711 1cbe b50a b83d cd1d e23c
000000a0: 8b87 9abd aa63 593e e937 56be 0dc3 7dbd
000000b0: b04c a0be 97c2 273e 8fff b03e 3e5e 31be
000000c0: d21e b0be b74a 573e 46a1 cfbd d27b c6bd
000000d0: de2c f63c 5294 b23d c921 aebe d148 32be
000000e0: b3ae 7ebb 92cc 28be 56c6 293f 235c 4bbd
000000f0: 1c82 a93d 6c8a 0abd 713a 04bd f24c 123e
00000100: 2b52 48bd 9d4a cd3d 4e84 9c3d 080e 1c3e
00000110: 1315 d1bc 1358 02bd 5b77 313d fe42 cdbd
00000120: 1f67 73bd 4ccb 293e 5c3e 07bd 1ccb 0e3d
00000130: 9ecf dc3d b591 f93d 520d 083e 4df3 e0bc
00000140: 3da7 aa3c e1f6 fb3d 6c15 5e3c 2868 c3bd
00000150: 9fbc a0bd 1529 cd3d 8b01 09be df48 70bd
00000160: 491a e6bd f4a9 79bc b299 db3d a7d7 85bc
00000170: abb2 983d 1748 b3bc 2fd4 3f3d fd96 183e

bias_hh_l1 f4 [96]
0.19617768 -0.10618978 0.06422521 -0.12827295 0.20656207 0.19318318 -0.16971043 -0.006997627
0.07233938 -0.04242407 -0.09828736 0.1684964 0.34448296 -0.19821352 0.19183975 0.1261131
0.058579724 0.11292479 -0.4464539 -0.046846278 0.045690645 0.40117827 -0.009289251 -0.174072
0.060080975 -0.06713904 -0.103979915 0.32871273 -0.13709213 -0.09219249 0.033554696 -0.061835766
-0.09992219 0.19018169 -0.027976839 0.24308868 0.13792391 -0.31592515 -0.23876782 -0.18247208
0.083948135 0.5068705 -0.12319682 -0.13487007 -0.291015 0.15655781 0.40799138 -0.07917878
-0.17492527 0.24063967 -0.05358465 -0.0135127865 0.057270564 -0.11967664 -0.19226351 -0.09933962
-0.02482142 -0.1756531 0.5804812 0.050505325 0.123764426 -0.051422153 0.13859302 -0.063531905
0.19606826 -0.039437044 0.07726144 -0.02592254 0.24563724 0.21117313 -0.028308457 0.0633926
0.04514695 -0.016191233 0.06115309 0.16681293 -0.2616494 0.03220203 -0.12771161 -0.08107739
0.20072988 0.034113403 -0.07369886 -0.025060607 0.11151112 -0.09174136 -0.17209458 0.06656958
0.13361937 0.04276095 -0.08925944 -0.0009209092 -0.09525854 -0.18387906 0.1395316 0.12598126
00000000: cde2 483e 077a d9bd 8288 833d fc59 03be
00000010: 0285 533e d0d1 453e 92c8 2dbe 5a4c e5bb
00000020: ab26 943d ddc4 2dbd e24a c9bd 528a 2c3e
00000030: 1260 b03e 7cf8 4abe a471 443e cb23 013e
00000040: 4bf1 6f3d 1d45 e73d 9b95 e4be e2e1 3fbd
00000050: 1d26 3b3d 3d67 cd3e f131 18bc ee3f 32be
00000060: 7817 763d 3180 89bd 6cf3 d4bd 094d a83e
00000070: e161 0cbe 6bcf bcbd a670 093d 8047 7dbd
00000080: 01a4 ccbd fdbe 423e af2f e5bc 3dec 783e
00000090: ed3b 0d3e f1c0 a1be 8d7f 74be f6d9 3abe
000000a0: 00ed ab3d 44c2 013f 9d4e fcbd 611b 0abe
000000b0: ebff 94be b150 203e 3fe4 d03e 7c28 a2bd
000000c0: 9c1f 33be 3f6a 763e 947b 5bbd bc64 5dbc
000000d0: 8a94 6a3d 0719 f5bd bae0 44be 9272 cbbd
000000e0: 4a56 cbbc 68de 33be 6a9a 143f acde 4e3d
000000f0: 3478 fd3d 09a0 52bd 54eb 0d3e 041d 82bd
00000100: 1ec6 483e bd88 21bd 3f3b 9e3d 825b d4bc
00000110: 5488 7b3e c53d 583e 23e7 e7bc fbd3 813d
00000120: 02ec 383d 7aa3 84bc aa7b 7a3d 02d1 2a3e
00000130: e9f6 85be 47e6 033d d5c6 02be e70b a6bd
00000140: 228c 4d3e 7fba 0b3d 6eef 96bd e74b cdbc
00000150: f15f e43d e5e2 bbbd 9039 30be a255 883d
00000160: 84d3 083e 1b26 2f3d a7cd b6bd 2c69 71ba
00000170: e916 c3bd cb4a 3cbe 5fe1 0e3e 3b01 013e

weight f4 [4, 32]
-0.016676258 -0.00064398977 -0.21596864 0.14778692 0.020029914 -0.16965988 0.1276316 -0.14611328
-0.26975745 0.036830824 0.15547606 -0.5671686 0.10416162 0.2557656 0.07336811 0.108785644
0.11662752 0.1440404 -0.25798723 -0.38062003 -0.08148844 0.18525237 -0.2191876 -0.020179838
0.10597688 0.18401866 0.08393432 -0.46071804 -0.23564401 0.018909646 -0.09130303 -0.079102434
0.10716644 0.11466719 -0.20234239 0.19438088 0.029752973 0.01860142 0.1453116 -0.19921832
-0.22225522 0.04069895 0.1338377 -0.13839561 0.093821704 0.15896685 0.13780606 0.0002753967
0.24359468 0.17884701 -0.16819662 -0.3431576 0.20585027 0.005795123 -0.08221314 -0.16464046
0.037128504 0.28417006 0.25346687 -0.1353767 -0.14789028 0.08084502 -0.1397578 -0.097639665
0.11524937 0.15874793 -0.21877287 0.19772425 0.074031934 0.112503126 0.08874694 -0.14763498
-0.067798376 0.054941542 0.1925404 0.043143716 0.029254748 0.13683991 -0.12669975 -0.14332013
0.14192195 0.28121918 -0.090375796 -0.09805786 0.23049179 -0.044375546 -0.05043568 -0.18926783
0.123332396 0.18651913 0.30313864 0.113390215 -0.18941827 0.13141948 -0.096975096 -0.1497797
0.02261503 0.19798212 -0.2417038 0.16247684 0.082473986 0.11550241 0.04405903 -0.08623448
0.08096193 0.13035543 0.21280369 -0.10186717 0.012038177 0.07835307 -0.4439916 -0.18259002
-0.015616677 0.2395725 -0.12296923 0.013163169 0.2013305 -0.02753497 -0.074577644 -0.093019366
0.25599378 -0.03735735 0.3295686 0.108319946 -0.30122304 0.16103464 -0.0042081885 -0.21074423
00000000: a69c 88bc 6cd1 28ba e226 5dbe 7455 173e
00000010: c615 a43c 52bb 2dbe dcb1 023e b89e 15be
00000020: a61d 8abe ebdb 163d 1e35 1f3e f631 11bf
00000030: b052 d53d b5f3 823e 0542 963d 02cb de3d
00000040: 69da ee3d 547f 133e e716 84be a1e0 c2be
00000050: 69e3 a6bd ccb2 3d3e b772 60be 3050 a5bc
00000060: 680a d93d 636f 3c3e c2e5 ab3d 3ce3 ebbe
00000070: aa4c 71be 67e8 9a3c 15fd babd 7500 a2bd
00000080: 147a db3d a2d6 ea3d d832 4fbe c80b 473e
00000090: 82bc f33c 0162 983c 90cc 143e e3ff 4bbe
000000a0: df96 63be f1b3 263d c00c 093e 94b7 0dbe
000000b0: 9825 c03d 35c8 223e 081d 0d3e 1f63 9039
000000c0: e270 793e ac23 373e bc3b 2cbe 5ab2 afbe
000000d0: 6aca 523e 04e5 bd3b 5d5f a8bd 8297 28be
000000e0: 0f14 183d bd7e 913e 69c6 813e 31a0 0abe
000000f0: 8d70 17be 1392 a53d ab1c 0fbe 4ef7 c7bd
00000100: dd07 ec3d d18e 223e ff05 60be 3a78 4a3e
00000110: 0e9e 973d 0a68 e63d f5c0 b53d a02d 17be
00000120: e0d9 8abd 620a 613d 5029 453e 77b7 303d
00000130: a7a7 ef3c c31f 0c3e 94bd 01be 83c2 12be
00000140: fd53 113e f6fb 8f3e f216 b9bd 8fd2 c8bd
00000150: 0a06 6c3e 22c3 35bd a595 4ebd 6dcf 41be
00000160: b295 fc3d dffe 3e3e fd34 9b3e 2139 e83d
00000170: ddf6 41be d492 063e e19a c6bd da5f 19be
00000180: 2843 b93c d3bb 4a3e 3381 77be 5460 263e
00000190: 1fe8 a83d 878c ec3d 3e77 343d b49b b0bd
000001a0: 5ecf a53d e57b 053e 36e9 593e bc9f d0bd
000001b0: c63b 453c 9377 a03d de52 e3be e1f8 3abe
000001c0: 17dd 7fbc 7e52 753e 4bd7 fbbd 55aa 573c
000001d0: 9529 4e3e 0491 e1bc 2abc 98bd f080 bebd
000001e0: 9e11 833e 0504 19bd 37bd a83e d9d6 dd3d
000001f0: e839 9abe 44e6 243e d8e4 89bb 56cd 57be

bias f4 [4]
0.038662013 0.02571014 0.016541975 0.0061223987
00000000: 0f5c 1e3d 129e d23c 0983 873c 679e c83b
