models/LEG_9.85.pth (torch, 49862 bytes, 10 tensors)

weight_ih_l0 f4 [96, 15]
0	0xbf8a9c6e	-1.0828989
1	0xbf2f9fde	-0.6860331
2	0xbe09630a	-0.13416687
3	0x3e408227	0.18799649
4	0x3e8bce03	0.27305612
5	0x3db28f1f	0.087187044
6	0xbf2b8926	-0.67006147
7	0xbd81da9d	-0.06340525
8	0x3e72c57d	0.23708148
9	0x3e96afcf	0.29431006
10	0xbdda9b73	-0.10674181
11	0x3db1d1d7	0.08682602
12	0x3a348cbf	0.0006887428
13	0xbe65dca9	-0.22447456
14	0xbf1cd444	-0.6126139
15	0xbeade46a	-0.3396333
16	0xbe33143a	-0.17488185
17	0xbe0e5b1b	-0.13901941
18	0x3ca966ab	0.020678839
19	0xbeb4838c	-0.35256612
20	0xbf3a7d04	-0.7284701
21	0xbe416a71	-0.1888826
22	0xbe158f94	-0.14605552
23	0xbed40c8b	-0.4141582
24	0xbf2ca8b0	-0.67444897
25	0xbf3719ce	-0.7152375
26	0x3e21708c	0.1576559
27	0xbeaf90c1	-0.34290126
28	0xbec0e915	-0.37677827
29	0x3f1be092	0.6088954
30	0x3e47f5af	0.19527315
31	0x3deee7e9	0.11665327
32	0xbe81ec7a	-0.2537573
33	0x3d6e2661	0.05814207
34	0x3ec96778	0.39336753
35	0x3d910d46	0.0708261
36	0x3d6b57a3	0.057456624
37	0xbdae9920	-0.085253
38	0xbf7aad46	-0.97920644
39	0xbe5bf4fa	-0.2148017
40	0x3eb977bc	0.36224163
41	0x3de8c5ec	0.113658756
42	0x3e52cfd5	0.20587094
43	0x3d172a2f	0.036905464
44	0x3ecb10e2	0.39661318
45	0x3d8574c0	0.06516409
46	0x3e9e39ac	0.30903375
47	0xbe94551c	-0.28971183
48	0xbf89d013	-1.0766624
49	0x3e8bbb24	0.27291214
50	0xbe9166ef	-0.28398845
51	0x3d869436	0.06571238
52	0x3d50fddd	0.051023353
53	0x3f27ebb8	0.65594053
54	0x3e908a91	0.28230718
55	0x3cf8b40c	0.03035929
56	0x3eb40b9a	0.351651
57	0x3ea63e8f	0.32469603
58	0x3ee8027e	0.453144
59	0xbe2a71f0	-0.16645026
60	0x3edf4e68	0.43614507
61	0x3f7c0d01	0.9845734
62	0xbea95ed8	-0.33080173
63	0xbf3487fa	-0.70519984
64	0x3eafc518	0.34330058
65	0xbf9ccc3d	-1.2249829
66	0x3e9995de	0.29997152
67	0xbe3482d5	-0.17628033
68	0xbe0695bb	-0.13143055
69	0x3e6d8fc8	0.2319938
70	0x3be7c3ba	0.007072893
71	0x3e55f427	0.20893918
72	0x3e95391e	0.2914514
73	0xbd62b5f1	-0.055349294
74	0xbd5e9be7	-0.0543479
75	0x3e6698ad	0.22519179
76	0x3cee8be2	0.029119436
77	0xbe98fdfd	-0.29881278
78	0x3ecc7f62	0.39940935
79	0xbf0690c4	-0.52564645
80	0x3f2d3ef0	0.6767416
81	0xbd8d3604	-0.06895068
82	0xbc27c413	-0.010239619
83	0x3f58fdab	0.84762067
84	0x3ecee462	0.40408617
85	0x3e760436	0.24025044
86	0x3e92d085	0.28674713
87	0x3eee3c90	0.4653058
88	0x3e80705e	0.2508573
89	0xbdefa89d	-0.11702082
90	0xbe0808bc	-0.13284582
91	0xbe96f491	-0.29483464
92	0xbf08477f	-0.53234094
93	0xbedeaa81	-0.4348946
94	0x3f217240	0.63064957
95	0xbeb607ea	-0.35552913
96	0xbe457f54	-0.19286853
97	0xbda8a267	-0.08234101
98	0x3e68273e	0.2267122
99	0xbf4c059f	-0.7969608
100	0x3d6432df	0.055712577
101	0x3ec4325e	0.38319677
102	0x3e697bfa	0.228012
103	0xbe302828	-0.17202818
104	0x3dcf60e5	0.10125903
105	0x3e351696	0.17684397
106	0x3dff33b0	0.124610305
107	0x3d90b9b7	0.07066672
108	0xbe88cc4d	-0.2671837
109	0xbc8ecd3b	-0.017431846
110	0xbf34c94f	-0.7061967
111	0x3e847fc4	0.25878727
112	0x3c34c6a3	0.011033687
113	0xbc35954a	-0.011082957
114	0xbed61066	-0.41809386
115	0x3d0d3edb	0.03448377
116	0x3e89d7cc	0.26922452
117	0x3ed51f66	0.41625518
118	0x3e8361b5	0.25660482
119	0xbf2dae15	-0.67843753
120	0x3e411a73	0.18857746
121	0x3f3f44b3	0.747142
122	0xbf08e3a3	-0.53472346
123	0x3f4c7e25	0.7987998
124	0x3f8e81a9	1.1133319
125	0xbe0890cc	-0.13336486
126	0x3f3aa8a6	0.7291359
127	0x3ccd32be	0.02504861
128	0xbe20d577	-0.1570643
129	0x3e0eb3c4	0.13935763
130	0x3dc22ef4	0.09481612
131	0x3deedb97	0.11662977
132	0x3ec840ed	0.39112034
133	0xbd69b1b5	-0.05705424
134	0x3e4fe844	0.20303446
135	0xbec321bd	-0.38111678
136	0x3eb5bf82	0.3549767
137	0xbf0d92d8	-0.5530219
138	0x3f173026	0.59057844
139	0xbe66f744	-0.22555262
140	0xbee1618c	-0.44019735
141	0xbbed113b	-0.00723472
142	0xbdb73c50	-0.089470506
143	0xbec5d100	-0.38636017
144	0xbeec3365	-0.4613296
145	0xbeb8aa91	-0.36067632
146	0x3e29e8d9	0.1659273
147	0xbe171438	-0.14753807
148	0xbeb85ac1	-0.3600674
149	0x3d876512	0.066110745
150	0xbf51dcd2	-0.8197757
151	0xbfba5dac	-1.4559836
152	0x3e65c6b2	0.22439077
153	0xbf1fca17	-0.6241774
154	0xbe8c4ab3	-0.2740074
155	0xbe513581	-0.20430566
156	0xbea019f1	-0.31269792
157	0xbd468259	-0.048464153
158	0xbebc807d	-0.3681678
159	0xbee7f332	-0.4530273
160	0xbe882aaa	-0.2659505
161	0x3dfa7805	0.12229923
162	0x3e2047dd	0.15652414
163	0x3dc34f3b	0.095365964
164	0xbf26ad3b	-0.6510808
165	0x3cdb2f36	0.02675591
166	0xbf0036cd	-0.5008362
167	0x3ede3c90	0.4340558
168	0x3fc1c04c	1.5136809
169	0xbdc6df40	-0.0971055
170	0xbe81111d	-0.2520837
171	0x3f234266	0.6377319
172	0xbd5bfed8	-0.053709835
173	0xbddf4884	-0.10902503
174	0x3e58c57d	0.21169086
175	0xbe995f0e	-0.29955333
176	0xbdf059f7	-0.117359094
177	0x3f2b7481	0.66974646
178	0x3c2ab98e	0.010420216
179	0xbf846146	-1.0342185
180	0x3ea4ed10	0.32212114
181	0xbf780c9e	-0.9689425
182	0x3f0d2010	0.5512705
183	0x3eda4587	0.4263117
184	0xbf765d37	-0.96235985
185	0x3cdf250e	0.027239349
186	0x3ec5923d	0.38588133
187	0x3e2d8a2a	0.16947237
188	0x3c09ec82	0.008418204
189	0xbdcc0132	-0.099611655
190	0xbe54b25b	-0.20771162
191	0x3f0d4d20	0.5519581
192	0x3e4c1b24	0.19932228
193	0x3e0a607f	0.13513373
194	0xbf0b9681	-0.54526526
195	0x3e584684	0.2112065
196	0xbeed3b44	-0.4633428
197	0x3e4f2acc	0.2023117
198	0xbf27a75d	-0.6548975
199	0x3d5ca6b1	0.053869907
200	0x3d917911	0.0710317
201	0xbf47a742	-0.7798959
202	0x3cdec3ad	0.027192915
203	0x3e3c82c8	0.18409264
204	0xbc202bfa	-0.00977611
205	0x3e470ccb	0.19438474
206	0x3e8ec710	0.27886248
207	0xbeac8bbe	-0.33700365
208	0x3db75f62	0.0895374
209	0xbf6e2df8	-0.9303889
210	0xbf4ef58c	-0.80843425
211	0x3eb320df	0.34986016
212	0x3d4b0030	0.049560726
213	0xbeac3e2f	-0.33641192
214	0x3e5c81d9	0.21533908
215	0xbe7b04f9	-0.24513616
216	0x3f2e311f	0.680437
217	0x3de723db	0.11286136
218	0xbf146770	-0.57970333
219	0xbe9b942a	-0.30386478
220	0xbd11edc3	-0.035627138
221	0xbf2858be	-0.6576041
222	0x3dda0a44	0.10646489
223	0x3eb2baff	0.34908292
224	0x3e5cdc2a	0.21568361
225	0x3f0238bc	0.5086782
226	0x3d63844d	0.055546094
227	0xbd3a96e6	-0.045554064
228	0x3f02f61a	0.5115677
229	0xbefbe84b	-0.49200663
230	0x3cd6393c	0.026150338
231	0x3cc63109	0.024193304
232	0xbe274044	-0.16333109
233	0xbf135b75	-0.5756143
234	0xbe102ee0	-0.14080381
235	0xbcade502	-0.021227363
236	0xbea574d9	-0.3231571
237	0x3e52827d	0.2055759
238	0xbf19f143	-0.6013376
239	0xbf6c2f27	-0.9225945
240	0xbf962346	-1.1729515
241	0xbfe94ab4	-1.8225923
242	0x3e5e9e46	0.21740064
243	0xbf2292ee	-0.63505447
244	0xbf6c815c	-0.92384887
245	0xbe9787e3	-0.2959586
246	0xbf0f1966	-0.5589813
247	0x3b9d5a75	0.004802043
248	0xbeb7c81d	-0.35894862
249	0x3f20b209	0.6277166
250	0x3e24cdf1	0.16094185
251	0x3f1b9a6e	0.60782516
252	0xbebfde1e	-0.3747415
253	0x3e05bf46	0.13061246
254	0x3e8213ed	0.25405827
255	0xbbf439e7	-0.0074531916

weight_hh_l0 f4 [96, 32]
0	0x3f027751	0.5096331
1	0x3e094562	0.13405374
2	0xbd215a45	-0.03939273
3	0xbf0cd51a	-0.5501267
4	0xbec257eb	-0.379577
5	0x3ed781cb	0.42091212
6	0x3e2dc2d7	0.16968857
7	0xbe830306	-0.25588244
8	0x3d7b85e0	0.06140697
9	0x3ec89930	0.39179373
10	0xbf0c9811	-0.54919535
11	0x3f38095e	0.71889293
12	0x3dcb2c83	0.09920599
13	0x3eb7d063	0.35901174
14	0xbedff36c	-0.43740404
15	0xbf327f86	-0.69725835
16	0x3f8e3d68	1.111249
17	0xbe1740c9	-0.14770807
18	0xbd60a55a	-0.05484519
19	0x3cd77de0	0.026305139
20	0xbdee4e48	-0.11636025
21	0xbe73aa7f	-0.23795508
22	0xbe74ff78	-0.23925579
23	0xbf51e5dd	-0.8199137
24	0xbeddc64c	-0.4331535
25	0xbf38f743	-0.7225229
26	0xbf5697bd	-0.83825284
27	0xbf291cc0	-0.66059494
28	0x3ee40d27	0.44541284
29	0x3dcc2c90	0.09969437
30	0xbedc52ac	-0.43031824
31	0xbdefeda6	-0.1171525
32	0xbf19e2c6	-0.60111654
33	0x3d4227c8	0.04740122
34	0xbeb75a53	-0.358111
35	0x3c8213ad	0.015878523
36	0x3f1e5149	0.6184278
37	0xbe6f77a2	-0.2338548
38	0x3f47df08	0.78074694
39	0x3eea1895	0.4572188
40	0xbe9247eb	-0.28570494
41	0xbedc2558	-0.4299724
42	0xbe90c32a	-0.28273898
43	0x3e821ea4	0.25414002
44	0x3f024f8e	0.5090264
45	0xbf7f5873	-0.9974434
46	0xbdbca5a6	-0.092112824
47	0x3e0e6be7	0.13908349
48	0xbf19de7f	-0.6010513
49	0xbf0c22e9	-0.5474077
50	0x3efa80ff	0.4892654
51	0xbe64387e	-0.22287175
52	0x3d420c50	0.047375023
53	0x3ea7236a	0.32644206
54	0xbef6371b	-0.48088917
55	0x3e166413	0.14686613
56	0x3e1ff859	0.15622081
57	0xbe3bc4b7	-0.1833676
58	0x3e5ea479	0.21742429
59	0x3edbef39	0.4295595
60	0x3e574817	0.21023594
61	0xbf132e6b	-0.57492703
62	0x3e741a56	0.23838171
63	0x3f0d2a54	0.5514271
64	0xbd869763	-0.065718435
65	0x3edcbd7d	0.43113318
66	0x3db43907	0.087999396
67	0xbe7c602c	-0.24646062
68	0xbf8fa4dd	-1.1222187
69	0xbef60707	-0.48052236
70	0x3ef23cac	0.47311914
71	0x3ccbbafc	0.024869435
72	0x3e3bbe17	0.18334232
73	0xbb9faf08	-0.0048731603
74	0x3f12dd6f	0.5736913
75	0x3e603b70	0.21897674
76	0xbef6158b	-0.4806331
77	0x3d8144ce	0.063119516
78	0x3dbd64fe	0.09247778
79	0xbec0793a	-0.3759249
80	0x3b6e71f0	0.003638383
81	0xbddcc1ae	-0.10779129
82	0x3f2e27df	0.6802959
83	0xbf11abab	-0.5690257
84	0xbc006982	-0.007837655
85	0xbdc7b6aa	-0.09751637
86	0x3e8e4b20	0.2779169
87	0x3f19cba5	0.6007636
88	0xbe1c9952	-0.15292862
89	0xbefd541d	-0.49478236
90	0x3ed2a080	0.41138077
91	0xbee7909c	-0.45227516
92	0xbe78ee2a	-0.24309602
93	0x3e35a930	0.17740321
94	0x3ed0b61b	0.40763935
95	0x3f297955	0.66200763
96	0x3ef4db19	0.47823408
97	0x3efe2d1b	0.49643788
98	0xbf2208c1	-0.6329461
99	0xbf419dc7	-0.75631374
100	0xbda28868	-0.07936174
101	0x3ed017e7	0.40643236
102	0x3f487030	0.78296185
103	0x3d18fc3c	0.037349924
104	0x3edf316d	0.43592396
105	0x3f3fd9f6	0.74941957
106	0xbe4c7077	-0.19964777
107	0x3f03a45b	0.5142266
108	0x3deca38f	0.11554634
109	0xbe88d8b6	-0.26727837
110	0xbdd2f70d	-0.103010274
111	0xbdc82813	-0.097732686
112	0x3f56ed48	0.8395581
113	0x3e1da841	0.15396215
114	0xbccde1a8	-0.025132015
115	0x3e7f7dfd	0.24950404
116	0xbdb500dc	-0.088380545
117	0xbdb199cf	-0.08671915
118	0x3eb486eb	0.35259184
119	0x3d855f72	0.065123454
120	0x3d35d056	0.044388138
121	0xbe71ee0b	-0.23625962
122	0xbe9fc637	-0.31205913
123	0xbf0e0604	-0.5547793
124	0x3f1c82e2	0.6113721
125	0xbd9431d3	-0.07236066
126	0xbe5fa500	-0.21840286
127	0x3f0adc79	0.54242665
128	0x3e0b6a1c	0.13614696
129	0x3eeccbaf	0.46249148
130	0x3e67e274	0.22644979
131	0xbe77bf21	-0.24194004
132	0x3ce204cc	0.027590178
133	0x3eb99874	0.36249125
134	0xbdf20f9a	-0.11819382
135	0x3f29aaf4	0.6627648
136	0x3cb859a0	0.022503674
137	0xbd9a48bb	-0.075334035
138	0x3d990a9a	0.07472725
139	0xbd2e7347	-0.042590406
140	0x3d42113f	0.04737973
141	0x3df5e3bc	0.120063275
142	0x3e00a6cd	0.1256363
143	0xbeb09dd0	-0.344954
144	0xbe3078f0	-0.17233634
145	0x3e9ab016	0.30212468
146	0xbe707c0b	-0.23484819
147	0xbdb7253c	-0.08942649
148	0xbdce4d35	-0.1007332
149	0x3ee322e0	0.44362545
150	0xbde5fd23	-0.112299226
151	0x3df8dce7	0.12151509
152	0xbdb33f16	-0.08752267
153	0xbe844544	-0.25834095
154	0xbe3d33a0	-0.18476725
155	0x3e16e9e7	0.14737664
156	0xbccf97bf	-0.025340913
157	0xbe4631fb	-0.19355004
158	0x3d10f2f6	0.035387956
159	0x3f126136	0.5717958
160	0x3f68b233	0.9089691
161	0x3edcdd35	0.43137518
162	0xbe2ea763	-0.1705604
163	0xbf906044	-1.1279378
164	0xbe073516	-0.13203844
165	0x3f067f55	0.52538043
166	0x3f091261	0.5354367
167	0x3ed73cae	0.42038482
168	0xbe877d1c	-0.26462638
169	0x3ea29852	0.31756836
170	0xbed6e018	-0.41967845
171	0x3f5177b8	0.818233
172	0xbe26f865	-0.16305692
173	0x3db3f4b7	0.0878691
174	0x3e958d05	0.29209152
175	0xbf327ea5	-0.69724494
176	0x3eb110c6	0.3458311
177	0x3f0c6bd3	0.54852027
178	0xbd40b9dd	-0.047052253
179	0x3e8dfc10	0.2773137
180	0xbe6de788	-0.23232853
181	0x3dded9f4	0.10881415
182	0xbe513d4d	-0.2043354
183	0x3e85941b	0.26089558
184	0xbd3dabd9	-0.046306465
185	0xbd5c89ca	-0.053842343
186	0xbecff10d	-0.40613595
187	0x3d55ce37	0.052198615
188	0x3fb711a1	1.4302255
189	0x3e212c9a	0.1573967
190	0xba01427b	-0.0004930866
191	0x3f45eb2d	0.77311975
192	0x3e8f8b48	0.2803595
193	0x3dd67008	0.10470587
194	0xbeba98f1	-0.3644481
195	0xbf271ef6	-0.6528162
196	0x3fa406a8	1.2814531
197	0xbf011e65	-0.50437003
198	0xbdd950d8	-0.10611123
199	0xbdf83052	-0.12118591
200	0x3ecd1b05	0.40059677
201	0xbebadfcc	-0.36498868
202	0x3e908da3	0.2823306
203	0xbe1468a3	-0.1449304
204	0x3e416337	0.18885504
205	0xbe1ac1e8	-0.15113032
206	0xbf6cbb8b	-0.9247367
207	0xbf4f1f17	-0.80906814
208	0xbea4fb09	-0.32222775
209	0x3f11e838	0.5699496
210	0xbd8a2256	-0.0674483
211	0xbe1cf621	-0.15328266
212	0xbf6ca1e0	-0.924345
213	0x3d59bcf5	0.05315872
214	0xbeef844c	-0.46780622
215	0x3f5b5736	0.8567995
216	0xbea8f1ff	-0.32997128
217	0x3f19fb88	0.6014943
218	0x3ec135ce	0.37736362
219	0xbe268c13	-0.16264372
220	0x3e88557c	0.2662772
221	0xbe8f9026	-0.28039664
222	0x3d1231e8	0.035692126
223	0x3df9a2a1	0.12189222
224	0x3ed6f188	0.4198115
225	0xbeb7af05	-0.35875717
226	0x3f5eca26	0.87027204
227	0xbebcd929	-0.3688443
228	0xbe21c20d	-0.15796681
229	0x3f2752b1	0.6536055
230	0x3f39aa7b	0.7252576
231	0x3f030b43	0.5118906
232	0xbd7a74ee	-0.06114667
233	0x3e9546e4	0.29155648
234	0xbd903317	-0.070409946
235	0xbdf2eb7a	-0.1186132
236	0xbe5eff1b	-0.21777003
237	0xbe5d27de	-0.2159724
238	0x3e6bf532	0.23042753
239	0x3d1bd4d3	0.038044762
240	0xbf7002ba	-0.9375416
241	0xbd69e346	-0.05710151
242	0x3eacc81a	0.33746415
243	0x3f0eba6f	0.55753225
244	0x3ea86f18	0.32897258
245	0x3f738bc5	0.95135146
246	0xbf346872	-0.7047187
247	0x3f2b6ef6	0.6696619
248	0x3a234968	0.0006228895
249	0x3e4d539a	0.20051423
250	0x3e3c161b	0.18367808
251	0xbed634c4	-0.41837132
252	0x3f1ef7ed	0.62097055
253	0x3eba7158	0.364146
254	0x3eb98f6d	0.36242238
255	0x3d86e455	0.0658652

bias_ih_l0 f4 [96]
0	0x3f2df3ba	0.6795002
1	0xbe44fa4d	-0.19236107
2	0xbc4bcb4b	-0.012438606
3	0x3ebb956e	0.36637443
4	0xbd0633d5	-0.032764275
5	0x3d695945	0.0569699
6	0x3e64f336	0.22358403
7	0x3d259035	0.04042073
8	0x3e595f9b	0.21227877
9	0x3dacccc7	0.08437496
10	0xbb302c6b	-0.0026881944
11	0x3dd54c13	0.10414901
12	0x3d664fa5	0.0562283
13	0xbe6b5d6d	-0.22984858
14	0xbdea443a	-0.114387944
15	0x3e28c47d	0.16481204
16	0x3dc64b04	0.09682277
17	0x3b437f36	0.0029830462
18	0x3e1b21fb	0.15149681
19	0x3ccb7cda	0.024839807
20	0x3e7167c0	0.23574734
21	0x3dee0f54	0.11624017
22	0x3cc2230f	0.023698358
23	0x3ec61c13	0.38693294
24	0xbdd65607	-0.10465627
25	0x3d4fbc52	0.050716706
26	0x3c8935d6	0.016749304
27	0xbc8c3cbf	-0.01711881
28	0x3e3af6ee	0.18258259
29	0x3d1c4158	0.038148254
30	0x3dfa1497	0.122109585
31	0x3e3a94e1	0.18220855
32	0xbec7cb47	-0.39022276
33	0x3ee0f9b2	0.43940502
34	0xbe829c94	-0.25510085
35	0x3b42929a	0.0029689432
36	0x3e19a2b2	0.1500347
37	0xbf1e1154	-0.6174519
38	0xbf2ca690	-0.67441654
39	0xbeb64cf9	-0.356056
40	0xbed8346e	-0.422275
41	0xbe685737	-0.2268952
42	0xbe8ef103	-0.27918252
43	0xbdd69fbe	-0.10479687
44	0xbec2f760	-0.38079357
45	0x3e68bcea	0.22728315
46	0xbe096702	-0.134182
47	0xbe87ab40	-0.2649784
48	0xbe14ecfe	-0.1454353
49	0x3daa0a15	0.08302704
50	0x3e2783f2	0.16358927
51	0xbd839409	-0.0642472
52	0x3e8ea294	0.27858412
53	0xbe82c835	-0.2554337
54	0x3e983e13	0.2973486
55	0xbe35feee	-0.17773029
56	0xbd280f9c	-0.04103051
57	0xbda73ed3	-0.0816628
58	0xbe824b63	-0.2544814
59	0xbd88f09f	-0.0668652
60	0x3de9588b	0.11393841
61	0xbd9f1fd7	-0.07769745
62	0xbe4de819	-0.2010807
63	0xbf46350b	-0.7742469
64	0x3e576f15	0.21038468
65	0x3ced9ddb	0.029005935
66	0x3d48828a	0.048952617
67	0xbc91daac	-0.017804466
68	0xbc3091dd	-0.010776964
69	0xbcdf58a1	-0.027263941
70	0x3e30f3dc	0.17280525
71	0x3cde3f6d	0.027129853
72	0xbbcb4f54	-0.006204525
73	0x3d00f896	0.03148707
74	0xbd958455	-0.07300631
75	0xbe25eb01	-0.16202928
76	0x3e297585	0.16548736
77	0xbe423eba	-0.18969241
78	0xbda87ab5	-0.082265295
79	0xbc993045	-0.018699775
80	0x3ddd71f0	0.108127475
81	0x3b723022	0.003695496
82	0x3d72dd4a	0.05929307
83	0xbe1e98f4	-0.15488034
84	0xbe33c703	-0.17556386
85	0x3e08d65b	0.1336302
86	0xbdbcf88f	-0.09227096
87	0x3c97427b	0.018464318
88	0x39139a81	0.0001407657
89	0x3eb4e0a1	0.35327628
90	0xbe397c61	-0.18113853
91	0xbe46a665	-0.19399412
92	0x3e1afe8b	0.15136163
93	0xbd839fda	-0.06426974
94	0xbda5b5f7	-0.08091348
95	0xbd4ec738	-0.05048296

bias_hh_l0 f4 [96]
0	0x3f12d92f	0.57362646
1	0xbd5192d9	-0.051165435
2	0xbcf0267a	-0.029315222
3	0x3e9c2a01	0.30500796
4	0xbe5a9524	-0.21345955
5	0x3d40a38b	0.047030967
6	0x3e28fb22	0.1650205
7	0xbe13aed1	-0.14422156
8	0xbbcd8889	-0.00627238
9	0xbdc56995	-0.09639279
10	0xbe04d4bb	-0.12971775
11	0x3d082713	0.03324039
12	0x3e2d4421	0.1692052
13	0xbc7c0e9d	-0.015384343
14	0x3d7b19c1	0.061303858
15	0x3e834227	0.25636408
16	0x3e7731af	0.24140047
17	0x3dcb4c8f	0.09926712
18	0x3ccfb261	0.025353612
19	0xbda02ed7	-0.07821434
20	0x3d7c18e1	0.061547164
21	0x3e2a2a43	0.16617684
22	0xbe1f1cf9	-0.15538396
23	0x3f049c29	0.5180078
24	0x3e403dae	0.18773529
25	0x3e43bd8d	0.19115277
26	0xbdd300f6	-0.10302918
27	0x3e03150f	0.12801002
28	0x3e72c91d	0.23709531
29	0x3df4d968	0.119555295
30	0x3dfe88ce	0.12428437
31	0x3e87f7c5	0.2655622
32	0xbeed6741	-0.4636784
33	0x3eba20dd	0.36353198
34	0xbf158c66	-0.58417356
35	0xbdcbce66	-0.09951477
36	0x3e527ef2	0.20556238
37	0xbead32b3	-0.33827743
38	0xbf03aea0	-0.5143833
39	0xbef691be	-0.48158067
40	0xbec83c2e	-0.39108413
41	0xbeb596c7	-0.35466596
42	0xbe1d82ac	-0.15381879
43	0xbdff1344	-0.124548465
44	0xbe9f6f52	-0.31139618
45	0x3eb3dec1	0.35130885
46	0x3d4a8ad0	0.04944879
47	0xbeab82d6	-0.33498257
48	0xbe0da6d7	-0.13833176
49	0xbe14f2d1	-0.14545752
50	0x3cbeaf1e	0.023276862
51	0xbe0ed59a	-0.1394867
52	0x3e4ff0b2	0.20306662
53	0xbe478e9f	-0.19488
54	0x3e194377	0.14967142
55	0x3bf04c31	0.0073333015
56	0xbd93d98a	-0.07219227
57	0x3df38c30	0.11891973
58	0xbe5fcc57	-0.21855293
59	0x3e103a78	0.14084804
60	0x3cc774ba	0.024347652
61	0xbe00042b	-0.1250159
62	0xbe81756a	-0.25284892
63	0xbf4c489f	-0.7979831
64	0x3dbda16e	0.09259306
65	0x3cdb2464	0.02675075
66	0xbe2d83c0	-0.1694479
67	0xbe8db6f6	-0.2767865
68	0x3d8397f0	0.06425464
69	0x3e840597	0.25785515
70	0xbe3bc93d	-0.18338485
71	0xbea413ea	-0.32046443
72	0xbcb5456a	-0.022127826
73	0xbea00c5a	-0.31259423
74	0x3d32cab0	0.04365033
75	0x3e158997	0.14603268
76	0xbe071958	-0.13193262
77	0x3c66974c	0.014074158
78	0xbdadca1b	-0.08485814
79	0x3ed1cdc7	0.40977308
80	0xbe20fe84	-0.1572209
81	0xbd1595ed	-0.036519933
82	0xbbab0b20	-0.005219832
83	0xbe6aa0fb	-0.22912972
84	0x3d48d242	0.049028642
85	0x3e778213	0.24170713
86	0x3e2771aa	0.16351953
87	0xbe9085e4	-0.2822715
88	0xbe13a7b5	-0.14419444
89	0x3d850001	0.06494141
90	0x3ded7040	0.115936756
91	0x3e06a024	0.13147026
92	0x3bebf9c7	0.0072014066
93	0x3dd2309f	0.1026318
94	0xbe55c154	-0.2087453
95	0x3ded4718	0.11585826

weight_ih_l1 f4 [96, 32]
0	0x3e9cf3f7	0.3065488
1	0x3e4a1190	0.19733262
2	0xbf4ba1a3	-0.79543513
3	0xbd6eb287	-0.058275726
4	0xbe5c7094	-0.2152732
5	0xbf6b4c21	-0.9191304
6	0x3ed6a5dd	0.4192342
7	0xbd625590	-0.05525738
8	0x3afbb2aa	0.0019203026
9	0xbd94eafe	-0.07271384
10	0x3e7819f7	0.24228655
11	0xbeba9732	-0.36443478
12	0x3e5f3594	0.21797782
13	0xbe59c628	-0.21266997
14	0xbec0a0f5	-0.376228
15	0xbea8812b	-0.32911047
16	0x3d8e1468	0.06937486
17	0x3efeeb5f	0.4978895
18	0xbf09888a	-0.5372397
19	0x3eaa9b45	0.33321586
20	0xbc70cf45	-0.014697854
21	0xbe41dbd7	-0.18931518
22	0x3ef0efcc	0.4705795
23	0xbdb4b218	-0.08823031
24	0xbdf26e60	-0.118374586
25	0xbe1bb61f	-0.15206192
26	0x3dc2cc5e	0.09511636
27	0xbe0c013e	-0.13672349
28	0xbec98706	-0.39360827
29	0x3f25ef82	0.64818585
30	0x3edeb46e	0.43497032
31	0xbf275d47	-0.65376705
32	0xbe8659e3	-0.26240453
33	0xbe929dd9	-0.28636053
34	0xbe830413	-0.25589046
35	0x3f163481	0.58673865
36	0xbf2b1501	-0.66828924
37	0xbe985961	-0.2975569
38	0x3f005296	0.50126016
39	0xbf281759	-0.65660626
40	0x3f180494	0.59381986
41	0x3d5a027b	0.05322502
42	0x3eee5456	0.46548718
43	0x3e2b41c8	0.16724312
44	0xbe85db3a	-0.2614382
45	0x3e22600a	0.15856948
46	0xbe070803	-0.1318665
47	0x3d16bfa9	0.036803875
48	0xbee5302c	-0.44763315
49	0xbef3edde	-0.47642416
50	0x3f325353	0.6965839
51	0xbe2f7405	-0.17134102
52	0x3e44e97b	0.1922969
53	0x3e076ee5	0.13225897
54	0xbc43abd5	-0.011942823
55	0x3e6028a2	0.218905
56	0x3ed46fcb	0.4149154
57	0xbe6263c3	-0.22108369
58	0xbe9741de	-0.2954244
59	0x3ec841de	0.39112753
60	0xbf0a6527	-0.54060596
61	0xbe1bbdfe	-0.15209195
62	0xbccaf56f	-0.024775235
63	0x3dd5921a	0.10428257
64	0xbd3afad8	-0.04564938
65	0xbf18360b	-0.59457463
66	0xbe87229f	-0.263936
67	0xbdee2ccb	-0.11629637
68	0x3d4c48cd	0.049874116
69	0x3d4c193a	0.049828745
70	0xbe16dc30	-0.14732432
71	0xbd028444	-0.03186442
72	0x3ed2cd6d	0.41172352
73	0xbebd37cf	-0.3695664
74	0xbe948e95	-0.2901503
75	0x3f0f2c21	0.5592671
76	0xbec073ba	-0.37588292
77	0xbf8a4280	-1.0801544
78	0x3d4c2ce6	0.049847506
79	0x3e4bdfd0	0.19909596
80	0x3ba04068	0.0048904903
81	0xbd677b2a	-0.056513943
82	0x3ee9c3b7	0.4565713
83	0x3cfd797b	0.030941715
84	0xbf219c27	-0.63128895
85	0x3eea9c5e	0.45822424
86	0xbde39124	-0.11111668
87	0x3da40d65	0.08010367
88	0xbda63564	-0.08115652
89	0x3ed6316a	0.41834575
90	0x3ef892af	0.4854941
91	0xbdc23dc1	-0.09484435
92	0xbe31b9c2	-0.17356017
93	0xbe8ab718	-0.27092814
94	0xbf1026b9	-0.56309086
95	0x3ebaa3e6	0.3645317
96	0xbd438c84	-0.047741428
97	0x3e002d99	0.12517394
98	0x3eb9871e	0.362359
99	0x3e544891	0.20730807
100	0x3f08d570	0.5345068
101	0xbd743478	-0.05962035
102	0xbd560832	-0.05225391
103	0x3ea0ee02	0.31431586
104	0x3deb08e6	0.114763066
105	0xbf2a231e	-0.66459835
106	0xbe885b47	-0.2663214
107	0x3e163002	0.14666751
108	0xbf26edeb	-0.65206784
109	0x3f397291	0.7244044
110	0xbeb04438	-0.34427047
111	0xbf024646	-0.5088848
112	0xbedb7d13	-0.42868862
113	0xbe1d0701	-0.15334703
114	0xbe1d6c98	-0.15373456
115	0xbe77c4d3	-0.24196176
116	0x3ed04478	0.40677238
117	0x3e8a0f62	0.2696486
118	0xbf31282c	-0.6920192
119	0x3d2da7e2	0.042396434
120	0x3e8c502c	0.27404916
121	0xbf3e0a11	-0.7423411
122	0x3d9c587d	0.07634065
123	0xbdcc6e4e	-0.099819764
124	0x3e0b9dbe	0.13634393
125	0x3f216c43	0.6305582
126	0xbdc57a4b	-0.09642466
127	0xbe9d42f1	-0.30715135
128	0x3e1bbef6	0.15209565
129	0xbebf6608	-0.3738253
130	0xbc26f76a	-0.010190824
131	0xbf1a8211	-0.60354716
132	0xbed11f5e	-0.40844244
133	0xbdcad0e7	-0.09903126
134	0xbe45e90a	-0.19327179
135	0xbeb31fd4	-0.3498522
136	0xbdad2152	-0.08453621
137	0x3f1d1327	0.6135735
138	0x3d503542	0.05083204
139	0x3e968116	0.2939536
140	0xbe944665	-0.28959957
141	0xbe19e140	-0.15027332
142	0x3e43e111	0.19128825
143	0x3df19b69	0.1179722
144	0x3ec019a2	0.37519556
145	0x3e521179	0.20514478
146	0xbd8fed48	-0.0702768
147	0x3ee802f2	0.45314747
148	0x3bb207ec	0.0054330733
149	0x3de71f93	0.11285319
150	0x3e906786	0.28203982
151	0xbe922959	-0.2854717
152	0xbe408066	-0.1879898
153	0x3eafe927	0.3435757
154	0xbce4b86f	-0.027919976
155	0xbe07ed08	-0.13274014
156	0x3f22d9b7	0.63613456
157	0xbe64e324	-0.22352272
158	0xbd53630d	-0.051608134
159	0xbdc18f9f	-0.09451222
160	0xbf0b3a6d	-0.54386026
161	0xbed1f43e	-0.41006655
162	0xbf602d05	-0.87568694
163	0xbe166e4c	-0.14690512
164	0xbd9ce726	-0.076612756
165	0x3cdc5a63	0.026898568
166	0x3dd99f45	0.106260814
167	0xbfadd023	-1.3579143
168	0xbd8f359d	-0.06992648
169	0x3e05af61	0.13055183
170	0xbea4b902	-0.321724
171	0x3e8dbe8c	0.27684438
172	0x3d688c66	0.05677452
173	0x3f45ae77	0.7721934
174	0x3e0a1cc8	0.13487542
175	0xbe0ef754	-0.13961536
176	0xbe858892	-0.26080757
177	0x3db1ee1e	0.086879954
178	0xbce6818d	-0.028137947
179	0x3e9b82bd	0.30373183
180	0x3d98f54e	0.07468663
181	0xbd9bb3ff	-0.07602691
182	0x3ef233c3	0.47305116
183	0x3d0a8ad7	0.033823814
184	0x3cfdad55	0.03096644
185	0x3dd31858	0.103073776
186	0x3e3bea77	0.1835116
187	0xbe648153	-0.22314958
188	0xbddae3f9	-0.106880136
189	0x3beaab7d	0.0071615563
190	0xbf2944ec	-0.6612079
191	0x3efdc4fb	0.49564347
192	0xbf612335	-0.87944347
193	0xbe9497fe	-0.2902221
194	0xbf09e74f	-0.53868574
195	0xbe9fcb67	-0.3120987
196	0xbd9776a8	-0.07395679
197	0xbe07faaa	-0.13279215
198	0x3eb4206f	0.35180995
199	0x3f0f2350	0.5591326
200	0x3dcad0f5	0.09903137
201	0x3ecd96b6	0.40154046
202	0x3f12cd95	0.57344943
203	0xbf34f2e0	-0.706831
204	0x3dbd7b4f	0.09252035
205	0xbdb957d9	-0.09049959
206	0xbd701c42	-0.0586207
207	0xbe0cd382	-0.13752559
208	0x3d909fb1	0.07061709
209	0x3e25f0d7	0.16205154
210	0x3e210c1f	0.1572728
211	0xbeb6f32e	-0.35732406
212	0x3e31f1d3	0.17377405
213	0x3d912f20	0.070890665
214	0x3e71ea8f	0.23624633
215	0xbe17eead	-0.14837141
216	0xbcae684a	-0.021289963
217	0xbda4b978	-0.08043188
218	0x3f26f74d	0.652211
219	0xbef38c20	-0.47567844
220	0xbe6a1542	-0.22859672
221	0xbdbeae6c	-0.09310612
222	0x3f1a168f	0.6019067
223	0xbeaf658d	-0.34257165
224	0x3e3b72ab	0.18305461
225	0xbe1bf276	-0.1522921
226	0xbe08baf7	-0.13352571
227	0xbed23891	-0.41058782
228	0x3d47c865	0.048775095
229	0x3eda6fc1	0.42663386
230	0xbc465ad9	-0.012106621
231	0x3e1a8758	0.15090692
232	0x3e57e9f2	0.21085337
233	0xbe9d2104	-0.3068925
234	0xbe8dbf88	-0.2768519
235	0x3e840a15	0.25788942
236	0xbe6d70b3	-0.23187523
237	0x3eec04a2	0.46097285
238	0x3aae4866	0.0013296723
239	0xbf66e119	-0.9018722
240	0x3e8d4999	0.27595213
241	0xbe0dcd5e	-0.13847873
242	0xbe0b651e	-0.13612792
243	0xbf0bf5d5	-0.54671985
244	0xbe31c2fd	-0.17359538
245	0xbf09f188	-0.5388417
246	0xbf10bba4	-0.56536317
247	0xbe0b7c13	-0.1362155
248	0xbc11eff0	-0.008907303
249	0xbe75aa46	-0.23990735
250	0xbf506fd2	-0.81420624
251	0x3e5dedb5	0.2167271
252	0x3e2b7efc	0.1674766
253	0xbecd2be5	-0.4007255
254	0xbef51b76	-0.47872514
255	0xbe4b2f63	-0.19842295

weight_hh_l1 f4 [96, 32]
0	0xbdd37cc5	-0.10326532
1	0xbcbe6787	-0.023242725
2	0x3f53cbcb	0.8273284
3	0xbdc71640	-0.09721041
4	0xbdbcb40e	-0.0921403
5	0xbe431204	-0.19049841
6	0xbf4a9629	-0.79135376
7	0xbd2e6253	-0.042574238
8	0x3dcc4d02	0.099756256
9	0x3e58be9a	0.21166459
10	0x3d3b5198	0.04573211
11	0x3e4f4eb6	0.2024487
12	0x3e6653cd	0.22492905
13	0xbdbb6d1c	-0.0915167
14	0xbefd2476	-0.4944188
15	0x3e17ef69	0.14837421
16	0xbe90cac8	-0.2827971
17	0xbd4ddc5a	-0.05025897
18	0x3f511b2b	0.8168208
19	0xbe9aca88	-0.30232644
20	0x3f0030e4	0.500746
21	0xbe0ee499	-0.1395439
22	0x3e2b3cdf	0.16722439
23	0xbd890ad7	-0.06691521
24	0x3e90187e	0.28143686
25	0xbe0c1947	-0.13681518
26	0xbdb7b2cf	-0.08969652
27	0xbe0ee646	-0.1395503
28	0x3f0bd426	0.5462059
29	0x3e8b0bae	0.27157348
30	0x3e183301	0.14863206
31	0xbecb2b47	-0.39681455
32	0xbebe7c73	-0.37204322
33	0x3f3fc70c	0.74913096
34	0xbe458a58	-0.19291055
35	0x3e042eb3	0.1290844
36	0xbd7697ec	-0.060203478
37	0xbe2c6396	-0.16834864
38	0x3c8b574f	0.017009405
39	0x3e3cffa8	0.184569
40	0xbea720a3	-0.32642087
41	0x3ef771b6	0.48328942
42	0x3d57cad6	0.052683674
43	0x3e2ac43a	0.16676417
44	0x3e83a878	0.2571447
45	0xbd55a211	-0.05215651
46	0xbd373dfe	-0.044736855
47	0xbdfd1814	-0.12358108
48	0x3e452e91	0.19256045
49	0x3d503c8b	0.05083899
50	0x3e696415	0.22792085
51	0x3ee84c99	0.4537094
52	0xbe367be5	-0.178207
53	0x3e3583fa	0.17726126
54	0xbe1e4b0a	-0.15458313
55	0xbe045ae9	-0.12925304
56	0xbdf832f7	-0.12119096
57	0x3efb48e6	0.49079055
58	0xbde85e72	-0.11346139
59	0xbc0e2a9d	-0.008677152
60	0x3b27b0f2	0.0025587645
61	0x3e412f99	0.18865813
62	0xbedd4152	-0.43213898
63	0xbd9d975e	-0.076948866
64	0xbf0b489a	-0.54407656
65	0x3f00fc73	0.50385207
66	0x3b8e9b2a	0.004351993
67	0x3e48bebd	0.19604011
68	0x3d098705	0.03357603
69	0x3e54f82f	0.207978
70	0xbd39e635	-0.04538556
71	0xbd59196a	-0.053002752
72	0xbe2ecdcb	-0.17070691
73	0xbbaed8e7	-0.0053359154
74	0xbb324b4a	-0.002720552
75	0xbe587a27	-0.21140347
76	0x3e074296	0.13208994
77	0xbd8a9f35	-0.067686476
78	0x3d233ee0	0.039854884
79	0xbed4e105	-0.41577926
80	0xbe02345d	-0.12715288
81	0xbe5b851e	-0.21437499
82	0x3d64262c	0.055700466
83	0xbee71e10	-0.45140123
84	0xbef1122e	-0.47084183
85	0xbda47b9b	-0.08031388
86	0xbea86a64	-0.3289367
87	0xbe68fbb1	-0.22752263
88	0xbd78359f	-0.060598012
89	0x3ecb135d	0.3966321
90	0x3ed74448	0.42044282
91	0x3e3a881b	0.18215983
92	0x3cf42264	0.029801555
93	0x3cb1984a	0.021679062
94	0x3efcab61	0.49349502
95	0xbe9fb091	-0.31189397
96	0x3e658fe4	0.22418171
97	0x3d485dbf	0.04891753
98	0x3ee22e95	0.44176164
99	0xbe93b5df	-0.28849694
100	0x3e3d1859	0.18466319
101	0xbd88eddd	-0.06685994
102	0x3e41000a	0.18847671
103	0xbe944d77	-0.2896535
104	0xbd406175	-0.046967942
105	0xbe18a018	-0.14904821
106	0xbccccb31	-0.024999233
107	0x3e00ac2c	0.12565678
108	0xbec37ea9	-0.38182572
109	0x3e8782d6	0.26467007
110	0x3ec1e43d	0.37869444
111	0xbe9350a0	-0.2877245
112	0x3ec07e40	0.3759632
113	0x3dee109a	0.1162426
114	0x3ebcd470	0.36880827
115	0x3f00b67d	0.50278455
116	0x3dd14fe3	0.10220315
117	0xbc703cba	-0.014662916
118	0x3f345235	0.7043794
119	0xbd921566	-0.07132988
120	0xbe7c05cf	-0.24611591
121	0xbe9ee264	-0.31032097
122	0x3e20b50e	0.15694067
123	0xbcb731fe	-0.022362705
124	0xbd5fb851	-0.054619137
125	0xbda9697b	-0.08272072
126	0x3a37c3d5	0.0007010077
127	0xbebf3f42	-0.3735295
128	0xbf023d22	-0.5087453
129	0xbd1fb1a2	-0.038987763
130	0x3d484d50	0.048901856
131	0x3e95c3bc	0.29250896
132	0x3efd9cb8	0.4953363
133	0xbf680f24	-0.906481
134	0x3dcef867	0.10105973
135	0x3d96227c	0.07330796
136	0xbca12587	-0.019671215
137	0xbe104c9a	-0.14091721
138	0xbec5da6c	-0.38643205
139	0xbef81567	-0.4845383
140	0x3e6a37e8	0.22872889
141	0xbb9571a1	-0.0045606648
142	0x3e83c3e4	0.2573539
143	0xbe00e5f9	-0.12587728
144	0x3bec061b	0.0072028763
145	0x3de04c0c	0.10952005
146	0xbe5059b8	-0.20346725
147	0x3dabb5ff	0.083843224
148	0xbe0fb29f	-0.14032982
149	0xbe4029ef	-0.18765996
150	0xbea4f383	-0.32217035
151	0xbddb8101	-0.10717965
152	0x3d562517	0.052281465
153	0x3d8d4182	0.0689726
154	0x3ca11ca8	0.019666985
155	0x3d66d0f1	0.056351606
156	0x3cbf2785	0.023334274
157	0x3dfd7349	0.123755045
158	0xbe3c0237	-0.1836022
159	0x3f04e5ab	0.51912946
160	0xbe370ab8	-0.17875183
161	0xbc2d53a5	-0.010579024
162	0x3e46c4e9	0.19411053
163	0xbed797f7	-0.42108127
164	0xbece5407	-0.40298483
165	0x3f5216f1	0.82066256
166	0xbed50023	-0.41601667
167	0x3eb21709	0.347832
168	0xbe7020e3	-0.23450045
169	0x3d91cc28	0.07119018
170	0xbe9d35a8	-0.30705
171	0x3c690bba	0.014223987
172	0xbe3d78d5	-0.18503125
173	0xbf50972b	-0.81480664
174	0xbe9722dd	-0.29518786
175	0x3ead73b8	0.3387735
176	0x3e7950ef	0.2434728
177	0x3ecd09e2	0.40046602
178	0x3f31e5d3	0.6949131
179	0xbeb7d5f3	-0.35905418
180	0xbdeb5ee3	-0.114927076
181	0xbee97d9a	-0.4560364
182	0xbf28a764	-0.6588042
183	0x3b3c6d0a	0.0028751516
184	0xbea6cff1	-0.32580522
185	0xbf01406e	-0.50488937
186	0x3f22fc16	0.636659
187	0xbe4297c9	-0.19003214
188	0x3eccd395	0.40005174
189	0x3d97d2ea	0.074132755
190	0x3df11e82	0.11773397
191	0xbec97059	-0.39343527
192	0xbf3b541a	-0.73175204
193	0x3e243e8b	0.16039483
194	0x3f11736a	0.5681673
195	0xbeb9cce9	-0.36289147
196	0xbef1fd96	-0.47263783
197	0xbee97241	-0.4559498
198	0xbf095e90	-0.53659916
199	0x3ebaaeb6	0.3646142
200	0x3f390a09	0.7228094
201	0x3bd5a726	0.00652017
202	0xbd4a38d1	-0.04937059
203	0x3d53f48a	0.051746882
204	0xbf031195	-0.51198703
205	0xbeab1dd2	-0.3342119
206	0x3e12c2a9	0.1433207
207	0x3eaef13f	0.3416843
208	0x3e03ce2d	0.12871619
209	0x3db3d732	0.087812796
210	0x3d80f48f	0.06296646
211	0x3f16d3a6	0.589167
212	0x3eb2a64b	0.34892496
213	0xbe05e132	-0.13074186
214	0x3ed65a62	0.41865832
215	0x3e616e0b	0.22014634
216	0xbe6c584f	-0.23080562
217	0x3e7e0778	0.24807537
218	0xbeea2637	-0.4573228
219	0xbcebd3f9	-0.0287876
220	0x3e2f60fe	0.17126843
221	0xbd81b172	-0.06332673
222	0xbf37eafa	-0.7184292
223	0x3f021414	0.50811887
224	0xbe4ba748	-0.19888031
225	0x3dab2457	0.08356541
226	0x3ea4792b	0.32123694
227	0xbe14f987	-0.14548312
228	0xbd0d1eaa	-0.03445307
229	0x3cfcfead	0.030883158
230	0x3d7fbbda	0.06243501
231	0x3cf4e1a3	0.029892748
232	0x3dc4cd28	0.09609443
233	0x3b564096	0.0032692305
234	0x3d0d92f9	0.034563992
235	0x3e0435af	0.12911104
236	0xbe24f2d2	-0.16108254
237	0x3e7cf9d3	0.24704675
238	0xbdb97f35	-0.09057466
239	0xbe99ab5f	-0.30013558
240	0xbcfa92aa	-0.030587513
241	0xbf1fca39	-0.6241794
242	0xbdecf63a	-0.115704015
243	0x3e489ab9	0.19590272
244	0xbe9b9e37	-0.30394146
245	0x3e469b5a	0.193952
246	0x3ef244cf	0.47318122
247	0xbeb4220f	-0.35182235
248	0xbbd140f8	-0.0063859187
249	0xbeb81fa1	-0.3596163
250	0x3b12e917	0.0022416764
251	0x3eb41881	0.35174945
252	0xbe2db211	-0.16962458
253	0xbec8a620	-0.39189243
254	0xbe17805c	-0.14795059
255	0x3cd7f44b	0.026361605

bias_ih_l1 f4 [96]
0	0x3e27deaf	0.16393541
1	0xbf0c8bc7	-0.54900783
2	0xbe2adb4a	-0.16685215
3	0xbe9ef9f9	-0.3105009
4	0x3d8b3d5d	0.067988135
5	0xbe8f9023	-0.28039655
6	0x3be969fa	0.007123229
7	0xbcd5282d	-0.026020134
8	0xbe82d66b	-0.25554213
9	0xbcca6ea1	-0.024710955
10	0xbe2e2c55	-0.17009099
11	0x3ec2660e	0.37968487
12	0xbd26761b	-0.040639978
13	0xbe1613b2	-0.1465595
14	0xbeca7291	-0.39540532
15	0xbe3dd8c5	-0.18539722
16	0xbe0342fe	-0.12818524
17	0xbc1bdaed	-0.009512645
18	0x3e64f73a	0.22359934
19	0xbf283ee6	-0.65720975
20	0xbd84adab	-0.06478437
21	0xbec4bd52	-0.3842569
22	0x3dc440d9	0.09582681
23	0x3e1df3ea	0.15425077
24	0xbdd24c21	-0.10268427
25	0x3de87ff7	0.11352532
26	0x3e85647a	0.2605322
27	0xbcf9faf0	-0.030515164
28	0x3e312e5a	0.17302838
29	0xbe5157c2	-0.20443633
30	0xbe2b5a2a	-0.16733614
31	0x3e48efeb	0.19622771
32	0xbe235292	-0.15949467
33	0x3ec7181d	0.38885584
34	0x3ef9e8dd	0.48810473
35	0xbec58907	-0.38581106
36	0xbdd1a63a	-0.10236783
37	0x3e9820f1	0.29712632
38	0xbd8d5366	-0.069006726
39	0x3c7db9db	0.015486206
40	0xbe253937	-0.16135107
41	0x3ef5060e	0.47856182
42	0x3edf5fce	0.4362778
43	0x3caf8d03	0.021429544
44	0x3e864e0c	0.2623142
45	0x3eb93e9f	0.3618059
46	0x3ef980e6	0.48731154
47	0x3ddf711c	0.10910246
48	0x3d94eba1	0.07271505
49	0xbe10bc42	-0.14134315
50	0xbddd3a7f	-0.10802173
51	0x3eb341ba	0.35011083
52	0x3e4074c6	0.18794546
53	0x3e3dbacd	0.1852829
54	0xbc69cd91	-0.014270202
55	0xbd7a4d77	-0.061109032
56	0x3e659774	0.22421056
57	0x3f0b0532	0.543048
58	0xbee629c7	-0.4495375
59	0x3eab2d18	0.3343284
60	0x3eb70f81	0.35754016
61	0xbda1a93b	-0.07893606
62	0x3f00f427	0.50372547
63	0xbe6cb9dc	-0.23117775
64	0x3e0b9718	0.13631856
65	0xbdd6e5a3	-0.104930185
66	0xbda01249	-0.078159876
67	0x3d240856	0.040047012
68	0xbe23e3c3	-0.16004853
69	0xbba1c976	-0.004937346
70	0xbd16bad7	-0.036799278
71	0x3c759cbb	0.014990981
72	0xbd6a7ff3	-0.057250928
73	0x3d789baf	0.060695346
74	0xbd580e00	-0.052747726
75	0x3d4d70be	0.050156347
76	0x3c7a0751	0.015260533
77	0xbd8acf8d	-0.067778684
78	0xbd458646	-0.048223756
79	0xb88a6abc	-6.6002336e-05
80	0x3d91c462	0.07117535
81	0x3e1ac90e	0.15115759
82	0xbcf5d0d3	-0.030006802
83	0xbde94aa8	-0.11391193
84	0xbd95206d	-0.07281575
85	0x3d94288a	0.07234295
86	0x3d575c7f	0.052578446
87	0xbc46d043	-0.012134614
88	0xbc429dc7	-0.011878437
89	0xbd225926	-0.0396358
90	0xbd27471b	-0.040839296
91	0x3cd4c3c7	0.02597226
92	0x3c96e30b	0.01841881
93	0x3d866441	0.06562091
94	0x3d5e0c1c	0.054210767
95	0xbc8b9350	-0.017038018

bias_hh_l1 f4 [96]
0	0x3e888b32	0.26668698
1	0xbe82e36b	-0.2556413
2	0x3d265dd3	0.04061682
3	0xbe9a0a75	-0.30086103
4	0x3d916104	0.070985824
5	0xbd188e80	-0.037245274
6	0x3d682022	0.05667127
7	0xbdd848f6	-0.10560791
8	0x3cd17e81	0.025573017
9	0xbe976f3c	-0.29577053
10	0xbd9ae030	-0.075622916
11	0x3e9b50a4	0.3033496
12	0xbe99b80d	-0.30023232
13	0xbe18dbd9	-0.14927615
14	0xbdbc2d9b	-0.09188386
15	0xbe8e295f	-0.2776594
16	0x3dcd852e	0.10035168
17	0xbaf1b878	-0.0018441817
18	0x3e7d6fcd	0.2474968
19	0xbf077a1b	-0.52920693
20	0xbdcaa912	-0.09895529
21	0xbeac11a1	-0.336072
22	0xbd759748	-0.059958726
23	0x3e7604b8	0.24025238
24	0xbe7d9cb5	-0.2476681
25	0x3bb565e5	0.0055358284
26	0x3ed40810	0.414124
27	0xbd1e754d	-0.038686085
28	0xbe00c7d8	-0.12576234
29	0xbea5c67b	-0.3237799
30	0xbe47064b	-0.19435994
31	0x3e3747bc	0.17898458
32	0x3e161c7d	0.14659305
33	0x3eb8a9c3	0.36067018
34	0x3eb388ee	0.35065407
35	0xbec963c3	-0.39333925
36	0x3e372602	0.17885593
37	0x3ecf9ffd	0.4055175
38	0xbd068668	-0.032843024
39	0x3e63785f	0.22213887
40	0x3dc18607	0.09449392
41	0x3f0210a2	0.5080663
42	0x3ebeb750	0.3724923
43	0x3dc88f5a	0.09792967
44	0xbd910c06	-0.070823714
45	0x3eaf8911	0.3428426
46	0x3f336c2f	0.7008695
47	0x3cb1a498	0.02168493
48	0x3e802a9b	0.25032505
49	0x3c0bdfbe	0.008537231
50	0xbdce5fa6	-0.10076837
51	0x3ea7aeb5	0.32750478
52	0x3e52f83e	0.2060251
53	0x3c1f612c	0.009727757
54	0xbdf9fa32	-0.12205924
55	0xbdab87b5	-0.083754934
56	0x3e5f940e	0.21833822
57	0x3f0a7d92	0.54097855
58	0xbeb45785	-0.35223022
59	0x3eda0c90	0.4258771
60	0x3f146c0f	0.57977384
61	0xbe2ec370	-0.17066741
62	0x3f0b54e5	0.54426414
63	0xbdf0f80d	-0.11766062
64	0x3dc644c7	0.09681087
65	0xbd5fdd67	-0.054654505
66	0xbda72388	-0.08161074
67	0xbd60de4b	-0.054899495
68	0x3dfe4ee9	0.12417395
69	0xbe228f42	-0.15874961
70	0x3e6522b6	0.22376522
71	0xbe807e95	-0.25096574
72	0xbdb36d87	-0.08761125
73	0xbe261989	-0.16220678
74	0x3de84f65	0.11343268
75	0xbe384b91	-0.17997576
76	0x3ce322a0	0.027726471
77	0x3e76957c	0.24080461
78	0x3bb3077d	0.005463539
79	0xbe7f9ff6	-0.24963364
80	0xbe1ef14d	-0.15521736
81	0x3d880f03	0.06643488
82	0xbc916fa8	-0.017753437
83	0xbe070cdc	-0.13188499
84	0x3dcfe480	0.10151005
85	0xbdfd5a82	-0.123707786
86	0xbdbac221	-0.091190584
87	0x3d8569c8	0.06514317
88	0xbca79cb2	-0.02046046
89	0xbccf3c53	-0.02529732
90	0x3e0e0838	0.13870323
91	0x3dc0f77e	0.094222054
92	0x3c0469e5	0.008081888
93	0xbc3b96e7	-0.011449552
94	0x3d866461	0.065621145
95	0xbab580f0	-0.001384763

weight f4 [4, 32]
0	0xbe2d4b15	-0.16923173
1	0x3d863fcd	0.06555138
2	0x3daa89ff	0.08327102
3	0x3e22e9de	0.15909526
4	0xbd95782d	-0.07298312
5	0x3e8cce32	0.27501065
6	0x3f369a75	0.7132943
7	0xbca23bc0	-0.019803882
8	0xbed7a3d4	-0.42117178
9	0x3dc56727	0.096388154
10	0xbdcff263	-0.101536535
11	0xbb5e9440	-0.0033962876
12	0x3efe54b4	0.49673998
13	0xbe897653	-0.26848087
14	0xbdc837e1	-0.09776283
15	0xbdca0d7e	-0.09865855
16	0x3e5177e9	0.20455898
17	0x3e7adf93	0.2449935
18	0x3e4c1647	0.19930373
19	0x3d4938e1	0.04912651
20	0xbe40b2eb	-0.18818252
21	0xbdb39304	-0.087682754
22	0xbf1b8d49	-0.6076246
23	0xbdca90b9	-0.09890885
24	0x3e3b75eb	0.18306701
25	0xbdc2fe23	-0.09521129
26	0x3f128514	0.5723431
27	0x3d4590da	0.048233844
28	0x3c6ca964	0.014444683
29	0x3e2ffbb5	0.17185862
30	0xbd96ba9d	-0.073598124
31	0xbe04b07d	-0.1295795
32	0x3e91eab0	0.28499365
33	0x3dc8c6e2	0.09803559
34	0x3dad1b7f	0.0845251
35	0x3eab5e3f	0.33470342
36	0x3ded74fe	0.1159458
37	0xbe8440e5	-0.2583076
38	0x3e209f1a	0.15685692
39	0x3be8e1d9	0.0071070013
40	0xbdcb34f7	-0.099222116
41	0x3e00716e	0.1254327
42	0xbe1979ea	-0.14987913
43	0xbe080868	-0.13284457
44	0x3e9c8c4a	0.30575782
45	0xbe8aad7c	-0.27085483
46	0xbe0c889e	-0.1372399
47	0xbebe3196	-0.37147206
48	0x3e8a6cca	0.27036124
49	0x3e105e13	0.14098386
50	0x3e9f0a78	0.31062675
51	0x3dc94399	0.09827346
52	0xbe3c8d0f	-0.18413185
53	0x3ec32152	0.3811136
54	0xbe199389	-0.14997686
55	0xbe6e525e	-0.23273608
56	0x3e392e79	0.18084134
57	0xbdc5418c	-0.09631643
58	0x3e1f8004	0.15576178
59	0x3d705cfd	0.05868243
60	0xbdb46bbb	-0.088096105
61	0x3e4a2b5f	0.19743107
62	0xbe6f6517	-0.23378406
63	0xbd7539ea	-0.059869684
64	0x3d8b11f5	0.067905344
65	0x3e33f228	0.17572844
66	0x3e42e4f4	0.19032651
67	0x3e12874c	0.14309424
68	0x3e42f618	0.1903919
69	0xbe66497f	-0.22488974
70	0xbd73b9f1	-0.0595035
71	0x3df281cf	0.11841165
72	0xbd5bc61e	-0.053655736
73	0x3e5d77a5	0.21627672
74	0xbe51590e	-0.20444128
75	0xbe1500bd	-0.14551063
76	0x3e2be551	0.16786696
77	0xbe1d285c	-0.15347427
78	0xbe5f3eb7	-0.21801268
79	0xbea59ebc	-0.32347667
80	0x3e187b21	0.1489072
81	0x3e02747b	0.12739746
82	0x3d5344a9	0.05157915
83	0x3e3796ee	0.17928669
84	0xbe6e21a2	-0.23255017
85	0x3ec1f5e7	0.3788292
86	0x3c0fdc1c	0.0087805055
87	0xbe83b7de	-0.25726217
88	0x3e62fc4e	0.22166559
89	0x3edbaef2	0.4290691
90	0xbd45b564	-0.04826869
91	0x3e05430c	0.13013858
92	0xbe6bc6db	-0.23025076
93	0x3e2892db	0.16462271
94	0xbe345600	-0.17610931
95	0xbbf2657d	-0.0073973523
96	0xbe8ed098	-0.2789352
97	0x3e816691	0.25273564
98	0x3e9be1a1	0.3044558
99	0x3dc9602d	0.09832797
100	0x3e7e7d33	0.24852447
101	0xbdedeff7	-0.11618035
102	0x3da8f58b	0.082499586
103	0x3e576130	0.21033168
104	0xbe4b15e5	-0.19832571
105	0x3e15e7a8	0.14639151
106	0xbe874605	-0.26420608
107	0xbddb137f	-0.10697078
108	0x3d7c68af	0.06162327
109	0xbd547d89	-0.051877532
110	0xbebb0b85	-0.36532226
111	0xbd63a46a	-0.05557672
112	0x3de49d85	0.11162857
113	0x3d9388cb	0.072038256
114	0xbddba46d	-0.10724721
115	0x3e747b65	0.23875196
116	0xbe992ffe	-0.29919428
117	0x3e82a234	0.25514376
118	0xbdd0b92e	-0.1019157
119	0xbd817938	-0.06321949
120	0x3e609366	0.21931228
121	0x3f2249d8	0.63393927
122	0xbc0561b2	-0.008140968
123	0x3e474ae4	0.19462162
124	0xbe8d02c3	-0.2754117
125	0x3d314027	0.04327407
126	0xbdd12699	-0.1021244
127	0x3d84fadb	0.064931594

bias f4 [4]
0	0xbc0e44cf	-0.008683397
1	0x3ae08ce0	0.0017131828
2	0x3b518dd5	0.0031975408
3	0x3a48f140	0.00076653436
