models/MORN_9.40.pth (torch, 49876 bytes, 10 tensors)

weight_ih_l0 f4 [96, 15]
000000 df d4 19 bd 8d a7 e4 3c 82 aa b8 be 9d 65 68 bc
       -0.037556525 0.027911926 -0.36067587 -0.014184383
000010 83 fd ac 3c 60 09 4e 3e 38 09 20 be a9 ad 25 3e
       0.021116978 0.20120764 -0.15628517 0.16179527
000020 4e d4 49 3d dc e9 5f be 6f cd 80 3e 6a 83 3f 3f
       0.049274735 -0.21866554 0.25156733 0.74809897
000030 91 65 aa be a2 54 8a 3e e3 ce 03 3f 8a 36 da be
       -0.33280614 0.27017695 0.5148756 -0.42619735
000040 8d f3 15 bf db 19 19 3f e5 f3 c8 3e 28 88 ee 3e
       -0.58574754 0.5980508 0.39248577 0.46588254
000050 72 cd 45 3e ca 7e 9d 3e 41 ff eb 3e 32 c5 63 3f
       0.19316652 0.30760795 0.4609318 0.8897277
000060 59 d4 fc 3e 70 67 88 3e af 9c 84 3d e0 b6 44 3e
       0.49380758 0.26641417 0.064751975 0.19210386
000070 07 75 eb 3e 87 cb 93 be 7a 7b a9 be d1 90 6f 3f
       0.45987722 -0.28866217 -0.33102018 0.9358035
000080 98 ee 2d bf 44 3e 76 be c9 5f a9 3e 46 2c b6 3e
       -0.6794219 -0.2404719 0.3308089 0.35580653
000090 33 a3 8b be 7c f5 cb be fa 0c e8 be 3f bd 31 bf
       -0.2727295 -0.39835727 -0.453224 -0.6942939
0000a0 59 dc 09 be 24 17 8d bd fe ec 03 be 41 fa 8f be
       -0.13462962 -0.06889179 -0.12883374 -0.28120616
0000b0 42 fb fd be 5d 57 11 3e c0 f6 1f be 84 ec 09 be
       -0.49605757 0.14193483 -0.15621471 -0.1346913
0000c0 f4 3b 0c 3f 6a 07 3a be a0 11 0b bf e6 9a c2 be
       0.5477898 -0.1816689 -0.5432377 -0.38008803
0000d0 57 07 70 3e e1 c7 e7 3c a0 4f 92 3e ee 59 e5 3d
       0.234403 0.028293552 0.28576374 0.11198793
0000e0 0d 9b 09 3d 48 cc 99 3e cc 18 a6 3d 6e 08 30 3f
       0.033595134 0.30038667 0.081101984 0.6876286
0000f0 3f c5 3c 3f f4 83 65 bf 1a 29 de 3e 27 cc 43 3e
       0.73738474 -0.8965447 0.43390733 0.19120847
000100 a3 fe b0 be f2 5f 07 3f 9b 2d 03 bc 6d d2 0f 3f
       -0.34569272 0.52880776 -0.008006479 0.5618046
000110 8b c8 1c be 10 a1 88 be 07 e1 47 be d3 f7 a8 be
       -0.15310876 -0.2668538 -0.19519435 -0.33001575
000120 f1 65 91 3e bf d7 51 be b3 84 24 3d fb 83 0c bf
       0.28398088 -0.20492457 0.040165614 -0.54888886
000130 e6 33 dc be ec 19 47 be 01 39 84 bf 60 f5 a0 3e
       -0.43008345 -0.19443482 -1.0329896 0.31437206
000140 78 c0 5a 3f a2 5c 9b be 53 6a ae 3e 07 dd 71 3e
       0.85449934 -0.3034411 0.34065494 0.23619471
000150 fc c5 e6 3d ee 36 43 be 16 24 d9 3e 91 07 4c bf
       0.11268231 -0.19063923 0.42410344 -0.79699045
000160 57 88 9a be 15 51 a1 3f 93 5a 98 be 7f 3d 88 be
       -0.30182144 1.2602869 -0.29756603 -0.26609418
000170 1b 6a 6a 3e 93 05 62 bf b2 91 b8 3e 66 21 f2 be
       0.22892039 -0.88289756 0.36048657 -0.47291106
000180 72 c7 7c 3e 1c a3 7f 3e 9b d8 c1 be dc b0 24 3e
       0.24685457 0.24964565 -0.3786057 0.16083091
000190 0a 69 89 3e 20 8e 03 be fb cb 98 bc e9 00 dd 3e
       0.2683795 -0.12847185 -0.018651953 0.43164757
0001a0 e7 97 98 3e c8 c7 67 bf 15 cb 90 3d fb 9e 5c 3d
       0.29803392 -0.90539217 0.07069985 0.053862553
0001b0 42 8a 58 be 49 8c 7a 3e 2a 10 d1 be b1 1b ee 3d
       -0.21146491 0.24467577 -0.40832645 0.116263755
0001c0 2e 02 87 bd 34 51 94 be 58 78 81 bf 83 f8 6c be
       -0.065922126 -0.28968203 -1.0114851 -0.23141675
0001d0 de 1b 32 be 6e 12 28 bf 54 90 ce 3e 75 d3 f3 bd
       -0.17393443 -0.6565312 0.4034449 -0.119055666
0001e0 32 c3 86 3e 97 82 27 3e 34 90 03 bf ad b0 21 bf
       0.26320797 0.1635841 -0.5139191 -0.6316021
0001f0 17 86 c1 be 13 61 5d bf d1 17 86 be b5 97 91 bd
       -0.37797615 -0.8647625 -0.26190045 -0.07109014
000200 f2 c2 74 be 2c 12 0b be de 01 07 3e b7 75 52 be
       -0.2390249 -0.13581151 0.13184306 -0.20552717
000210 8e f5 b1 3e 72 3b ed bd 43 b3 8e 3c 6d e1 9d 3e
       0.34757656 -0.11583604 0.017419463 0.3083605
000220 3b cd 09 bf d6 79 13 3f 34 11 55 3f ce 83 d2 be
       -0.5382878 0.5760778 0.83229375 -0.41116184
000230 35 71 39 be 56 96 19 3f 8b b8 10 3d 1d 0c 07 bd
       -0.18109591 0.5999502 0.035332244 -0.032970537
000240 65 46 6c 3d 75 13 9f 3e 84 7f 67 3d 6f 7b 27 bd
       0.05768432 0.31069532 0.056518093 -0.0408892
000250 b0 46 03 be 96 e3 69 bd 53 86 2d 3e 96 6b a0 be
       -0.12819934 -0.05710181 0.16945772 -0.31332082
000260 39 16 1b 3f fe 39 6d bf 7a 4e f1 3d 1d 1e 2b 3d
       0.60580784 -0.92666614 0.11782546 0.041776765
000270 e7 4c 2c 3e 3b 3d 04 3f 4d e1 4e bf c8 28 55 3d
       0.16826211 0.5165593 -0.8081253 0.052040845
000280 9e 09 42 be 87 41 f2 be 8e 6e 86 3e 8a 1d f5 3e
       -0.18948981 -0.47315618 0.26256222 0.478741
000290 05 17 73 3e 15 55 24 3e 73 0d f5 be 74 06 3f be
       0.2373925 0.16048081 -0.47861823 -0.18654805
0002a0 99 f8 c2 3d 29 a3 b3 bd de 9c 07 3f b8 2a 2d be
       0.095200725 -0.08771355 0.52973735 -0.16910827
0002b0 84 42 a6 bc bf 22 00 bf 47 ab 4d 3e 61 ca 96 be
       -0.020295389 -0.5005302 0.20084868 -0.29451278
0002c0 43 1e 18 be 7c 61 8f be 58 5d a2 bc 97 7e c6 3e
       -0.14855294 -0.28004062 -0.0198199 0.38768455
0002d0 be 86 99 3e 35 0d 84 3d e3 20 0d 3e e0 37 27 3e
       0.29985613 0.064478315 0.13782077 0.16329908
0002e0 0b f7 b9 bc e6 3f 47 bc 0c 47 81 bc 7c 0c 85 3d
       -0.022700807 -0.012161231 -0.015780948 0.06496522
0002f0 44 c3 d5 be 4b a7 47 bd f4 7d 45 3d 63 df 96 3d
       -0.41750538 -0.048743527 0.04821582 0.073668264
000300 a1 25 47 3e 65 29 a1 3e a1 37 91 3f f6 c4 10 be
       0.19447948 0.31476894 1.1345102 -0.14137635
000310 0c 65 53 3f d8 d5 b9 3c c4 b9 1c 3e d6 76 4b 3e
       0.8257606 0.022684976 0.15305239 0.19869551
000320 70 cf 31 bf 25 2e 96 3e e9 ce b5 3d 9f f7 41 3f
       -0.6945715 0.2933208 0.088773556 0.75768465
000330 fc bc 75 3a 8f 40 db bd cd 10 fb bd 5b d5 e3 3e
       0.0009374169 -0.10705673 -0.12259064 0.44498715
000340 7f 83 97 3e 43 0d 7f 3e a9 99 7e be c6 3e 22 3f
       0.2959251 0.24907403 -0.24863304 0.63377035
000350 9f 76 5e 3e 7a c4 02 bf 1d ab 41 3e 99 b7 63 bd
       0.21724938 -0.5108105 0.18912931 -0.055595014
000360 e6 1c 95 3e 47 bc 6b bb d0 1f 89 3d 17 36 92 3e
       0.2912361 -0.0035970376 0.06695521 0.28556892
000370 28 a1 04 3e ab 58 38 be 69 73 91 3c 83 7e 40 3e
       0.12952101 -0.18002574 0.017755227 0.1879826
000380 f2 5c 9d 3d ff f0 c2 3d b9 a5 2e be 4f 56 f5 3e
       0.076837435 0.095186226 -0.17055406 0.4791741
000390 1e 78 0a bf ee 8b e2 3e e6 9f 14 bf c3 91 b2 3e
       -0.54089534 0.44247383 -0.58056486 0.34876832
0003a0 fe 41 1f 3f 85 2c e6 3e 80 fa e7 be 72 9d cc bb
       0.6221007 0.4495584 -0.45308304 -0.006244355
0003b0 52 54 62 3e 32 dc 83 3e ad 70 a0 3e 16 67 71 bf
       0.22102478 0.25753933 0.31335965 -0.9429792
0003c0 00 41 da 3e e3 58 1d be d6 1f 95 3e 49 47 8a be
       0.42627716 -0.15365939 0.2912585 -0.2700751
0003d0 9e 46 88 be 48 de c7 be d7 7b 35 3e 3e 46 a8 3e
       -0.26616377 -0.39036775 0.17723022 0.3286609
0003e0 68 72 97 39 96 36 76 3e 93 e3 cc 3d 03 30 03 be
       0.00028886204 0.2404426 0.10004344 -0.12811284
0003f0 f5 d7 84 be 72 05 a4 3d a3 96 94 bd 9a 49 55 3e
       -0.25946012 0.08008851 -0.07255294 0.20828858

weight_hh_l0 f4 [96, 32]
000000 4b 19 68 be 19 51 a9 3e 5f 41 87 bd 5f a7 eb bc
       -0.22665899 0.33069685 -0.066042654 -0.028766332
000010 d9 fa d9 bd bb 68 a2 be 73 d8 27 be 57 92 44 be
       -0.106435485 -0.31720528 -0.16391163 -0.19196449
000020 12 40 15 3d b5 a6 4f bb 4c 8f f2 3d c3 a7 8c 3e
       0.036438055 -0.0031685058 0.11843738 0.27471742
000030 78 16 a0 3d 75 2e 06 3e 55 25 63 be da 16 8e 3b
       0.078167856 0.1310366 -0.2218221 0.00433622
000040 cd 26 5a be 02 e0 3d bf 37 40 0f 3f 0d b6 8b 3e
       -0.21303864 -0.74169934 0.5595736 0.2728733
000050 be 08 ec 3d 7c 46 e9 be 5e 00 80 3d f6 46 04 3f
       0.11525105 -0.45561588 0.0625007 0.5167078
000060 b6 5d 3a 3f e0 0b a7 bd 72 dc fa 3e e2 f2 7c 3e
       0.7279924 -0.08156562 0.4899631 0.24702027
000070 b4 9f 05 be 52 05 29 bb 76 d8 ae 3e 78 79 ed 3d
       -0.13049203 -0.0025790525 0.34149522 0.11595434
000080 6a 28 8c 3e a0 10 e4 be 1c d8 ab bb 18 21 90 be
       0.27374583 -0.44543934 -0.005244268 -0.2815025
000090 49 ea 2b be 6e c7 ee be 50 7e 77 bd 95 ff 87 bf
       -0.16788591 -0.46636528 -0.060423195 -1.0624872
0000a0 72 96 51 be a0 cd e9 bb e3 e9 8c bb 4c 33 67 3e
       -0.20467547 -0.007135108 -0.0043003424 0.22578162
0000b0 23 96 02 bf bf 8d bd 3c 1f 8d 91 bd 5e f6 bf 3e
       -0.5101034 0.023138879 -0.07106995 0.3749265
0000c0 58 bb cb 3d fa 7e 09 3f d0 45 bd bd ae 03 4c be
       0.09947842 0.53709376 -0.09241831 -0.19923279
0000d0 50 08 33 3e a3 81 d5 be 2c e5 93 3e 40 30 db 3e
       0.1748364 -0.41700467 0.28885782 0.4281025
0000e0 de be 04 3e a6 92 ea bd 69 94 74 bf c4 9f d5 be
       0.12963435 -0.11453752 -0.95538956 -0.41723454
0000f0 6b 9e 5a be 58 ff 2b 3f d1 a1 1d bf 5e 5c c2 3e
       -0.21349494 0.671865 -0.6157504 0.37961096
000100 9a f2 15 be a9 1b 91 be d8 10 d8 3d ea 80 7b 3e
       -0.14643326 -0.28341416 0.10550088 0.24560896
000110 aa 31 d0 3e 88 cb 44 3f d8 70 3d 3e d2 69 36 3e
       0.4066289 0.76873064 0.18500078 0.17813805
000120 4e 11 23 3e c8 ba 58 bf 6c 5a 8e be 6c 3f cd be
       0.1592457 -0.84660006 -0.2780336 -0.4008745
000130 3e 28 a4 3e 27 ee a6 3e f2 dc 05 3f 8f f7 e5 bd
       0.32061952 0.3260357 0.5229026 -0.11228859
000140 16 70 b0 be 3b 09 d5 be 21 c4 9d be a6 96 bd 3d
       -0.34460515 -0.41608605 -0.30813697 0.092572495
000150 65 09 6f be 1e 4d cc bd f1 c3 0b 3e 23 0e 3e bf
       -0.23343427 -0.099756464 0.13648964 -0.7424032
000160 43 fd 83 bf 7d e7 93 3b e5 01 9a bd 4a 2d 4d 3d
       -1.0311664 0.0045136795 -0.075198926 0.05009202
000170 c1 d0 2a 3f 96 e0 13 bd d5 0f 2a 3b cb d2 c3 be
       0.66724783 -0.036102854 0.0025949378 -0.3824676
000180 99 47 b3 3e dc 91 a0 bd b6 88 e6 3e b4 f8 0f 3e
       0.35015562 -0.078403205 0.45026177 0.14059716
000190 c1 3c 4c 3e c7 33 ea bd 0f 1b f8 3e 66 36 e3 be
       0.19945051 -0.11435657 0.48458144 -0.4437744
0001a0 94 3b 0b be b4 49 5e 3f af b3 01 be 66 92 fb 3c
       -0.13596946 0.8683121 -0.126662 0.030709457
0001b0 69 a4 04 bf 5f b4 02 bd b3 45 24 3f dd d1 cb 3e
       -0.5181337 -0.031910297 0.6416885 0.3980855
0001c0 63 e6 0c bd 44 da 93 be 6d 4c ab 3e ea d7 51 3f
       -0.0343994 -0.2887746 0.33456746 0.81970084
0001d0 a5 5f 5b 3e 26 12 f9 bd 60 b4 0d 3d 77 84 ab 3e
       0.21423204 -0.12161665 0.034595847 0.334995
0001e0 27 71 a8 be 7b 9a bb 3d d1 a2 04 bf fa 4f f4 be
       -0.32898828 0.09160324 -0.5181094 -0.47717267
0001f0 7a c0 3c bf 4b 23 6d bf 32 fe 07 bf 60 cf f3 be
       -0.73731196 -0.9263198 -0.53122246 -0.47619152
000200 d3 e4 cb be 60 f1 9a 3e 95 ad 8a 3e 06 75 54 3e
       -0.39823017 0.3026228 0.27085558 0.20747766
000210 74 b6 0d bd 46 8c 17 bd e7 55 95 3e 35 7e ae be
       -0.03459783 -0.03699901 0.291671 -0.34080663
000220 a7 25 38 be f2 0e 24 3f 2b 5b 21 bd 08 7e 94 be
       -0.17983113 0.64085305 -0.039393585 -0.29002404
000230 e6 a0 f2 3d eb ff 9b 3e 12 00 d6 be f0 17 e7 3e
       0.11847095 0.30468687 -0.4179693 0.4513545
000240 75 df 35 be 1a 9c 29 bd db cb 46 be 95 e3 6d 3e
       -0.17761023 -0.041408636 -0.19413702 0.23231347
000250 da b4 b9 3e c5 2f 51 3e 80 da f2 bd b4 bb d6 be
       0.3627079 0.20428379 -0.11858082 -0.4194008
000260 6f 3d fe be e8 d4 91 3c 4c f8 91 3b 75 02 6d 3f
       -0.49656245 0.017801717 0.004454648 0.92581874
000270 a8 e7 0e 3e a1 e4 17 bc 7a 0b 00 3e 14 ef b3 3e
       0.13955557 -0.009270818 0.12504378 0.3514334
000280 8b fc ae 3e 53 e6 d8 3e 1c 49 52 bf 04 6a 2c 3e
       0.3417705 0.42363223 -0.82142806 0.16837317
000290 73 55 93 bd 47 86 7c 3d 8d ae 47 bf 71 4c ac bd
       -0.071940325 0.061651494 -0.7800072 -0.084130175
0002a0 79 1d a6 3e 94 e0 8d 3d 6a aa 8c be f8 b7 bf 3e
       0.3244436 0.069276005 -0.27473766 0.37445045
0002b0 d6 d1 42 be 04 e5 b7 be 5a 91 2f 3e 38 91 2d be
       -0.19025359 -0.35916913 0.17145291 -0.16949928
0002c0 cf 00 0c 3e 4d 61 e7 3e 4f fa a8 3f af 01 81 3f
       0.13672183 0.45191422 1.3201388 1.0078639
0002d0 dc b7 9f 3e 43 87 ef 3e 81 d2 b8 be ad 27 ca 3e
       0.3119496 0.46782884 -0.36098102 0.39483395
0002e0 7f 69 40 3f f6 38 89 3e b3 f5 ef be b7 d3 75 be
       0.75160974 0.2680127 -0.4686714 -0.24006544
0002f0 16 53 ef be 9d b0 a3 3e 32 3a df 3a 15 7c 26 3e
       -0.46743077 0.31970683 0.0017030893 0.16258271
000300 fc 7a e1 3e b8 a7 c5 be 65 7e db 3e 49 2f c4 be
       0.44039142 -0.38604522 0.4286987 -0.38317326
000310 1f 80 93 3e 59 48 c0 be 42 17 fe 3d b5 69 1b be
       0.28808686 -0.37555197 0.1240678 -0.15177043
000320 16 59 5f be f3 5a 34 bf a3 cd 2f be 39 c9 81 bc
       -0.21811327 -0.7045128 -0.17168288 -0.01584302
000330 19 c3 c0 3c fa 61 76 bf fb 1e 9e 3e 3b d3 17 3f
       0.02353053 -0.9624325 0.3088301 0.5930669
000340 7d c8 e9 bd a2 e7 48 3f 54 7b 7a 3e 7c 54 c4 be
       -0.11415193 0.78478444 0.24461108 -0.38345706
000350 fa e2 0c 3d 83 02 75 bd 37 37 1f 3f f5 c8 35 3f
       0.03439615 -0.05981685 0.62193626 0.7100976
000360 69 bb 83 3e c2 6b f0 3d 5e 9a 38 3f 82 10 fa bd
       0.2572892 0.11739303 0.72110546 -0.1221018
000370 2e de 79 3f 46 77 06 3f 42 5d 43 3f 65 b8 0c 3f
       0.97604644 0.52525747 0.76314175 0.54968864
000380 a4 40 fa bd f1 b6 44 3f 8b c6 d5 be 28 c2 3d be
       -0.122193605 0.76841646 -0.4175304 -0.18531096
000390 b5 4f 54 3f 8e 16 67 3e 4c 99 1e be d8 68 3e 3e
       0.82934123 0.22567198 -0.15488166 0.18594682
0003a0 37 32 07 3f c2 21 c4 3e c4 77 c7 3e 02 21 07 3f
       0.52810997 0.38307005 0.3895856 0.5278474
0003b0 11 44 d2 be 5d ca 71 3e bf d1 0b 3f 48 8e a0 3e
       -0.41067556 0.23612352 0.5461692 0.31358552
0003c0 1a 8c 90 3e 25 46 07 3e 58 ea 2d bc 57 61 91 be
       0.2823189 0.13210352 -0.010614954 -0.28394577
0003d0 d6 e6 8f 3e e8 fa 69 3d cb bc 93 3e 30 c6 6b be
       0.281058 0.05712405 0.28854975 -0.23024821
0003e0 4d 9f 20 3f 0e fb 17 bf 8e 95 d9 bc 5d 5a 6f 3e
       0.62743074 -0.59367454 -0.026560571 0.23374315
0003f0 03 b7 aa 3e ed 73 f2 3e fd 0d 9e be ec e1 30 3f
       0.33342752 0.4735407 -0.30870047 0.6909473

bias_ih_l0 f4 [96]
000000 ee 44 39 3d 9e d3 e9 bd d4 a8 9d bd 18 f2 17 3c
       0.045231752 -0.11417316 -0.07698217 0.009274028
000010 43 f9 17 3d 40 85 a3 bd c1 23 a1 3d 55 3a 2e be
       0.03710295 -0.079844 0.07868148 -0.1701444
000020 37 d8 b6 3d 53 ef 3a bc 03 f8 ad bd 35 87 f2 3e
       0.089279585 -0.011409598 -0.0849457 0.4736878
000030 27 8f 43 3e 3c 03 8a 3e 1a 68 70 bd ae cc 0a be
       0.19097577 0.26955593 -0.05869303 -0.13554642
000040 fe a5 75 3e f1 ca 85 3e f7 25 8a 3e a5 5d 00 be
       0.23989102 0.26131395 0.2698209 -0.12535723
000050 ef e5 00 3e 1e e6 49 3e 13 bd f1 3e 97 14 91 bd
       0.12587713 0.19716689 0.47214565 -0.07084005
000060 37 d1 33 bc 81 fb d1 3c 03 a5 e6 bd b0 9b 3e 3d
       -0.010975174 0.025632622 -0.11261942 0.046535194
000070 86 d4 b3 3d 93 af 4c 3e a0 c4 d9 3d d8 2d 9b bb
       0.0878077 0.19988851 0.10633206 -0.0047356896
000080 fe 45 d5 be 0d 51 6a bb 60 35 d1 3c 92 e4 58 be
       -0.41654962 -0.0035753876 0.025538146 -0.21180943
000090 1c 5f 26 be 23 a4 07 be a8 43 03 bf 68 94 b8 3e
       -0.16247219 -0.13246207 -0.5127511 0.36050725
0000a0 6d 36 32 be 77 ec 80 be c9 6b ad bc b9 81 83 bf
       -0.17403574 -0.25180408 -0.02116956 -1.0273963
0000b0 05 57 41 3e ec ed ea be ec 7e 89 be 52 8d 35 3d
       0.18880852 -0.45884645 -0.26854646 0.044324227
0000c0 01 04 dc bd 33 ca 63 3e 96 0e a9 3d f7 f0 82 3c
       -0.10742951 0.22245102 0.08254735 0.015984042
0000d0 bc 8b e2 be 48 2d a7 be e6 75 1b bf 28 0e 58 bd
       -0.44247234 -0.32651734 -0.60726774 -0.052747875
0000e0 9a 34 92 3e 59 f3 85 be 76 31 20 be 79 c3 88 bd
       0.28555757 -0.26162222 -0.15643868 -0.066779085
0000f0 0e ca 0b bf 0a 21 03 be 46 c5 70 be d0 48 27 3e
       -0.54605186 -0.12805572 -0.23512754 0.1633637
000100 6f 78 c6 3c ab a6 81 bd b1 bf 78 3e 2b 3f a9 3d
       0.02422735 -0.063306175 0.24291874 0.082640015
000110 90 26 5b bd 25 76 31 3e 0b 53 b8 bd 4f a8 dd 3d
       -0.053503573 0.17330225 -0.09000214 0.10823118
000120 9d 95 53 3e 96 db 56 3d e8 9a 86 be 56 3a 07 bd
       0.20662542 0.052455507 -0.2629006 -0.033014618
000130 f6 58 0d be 9f 84 14 be 0c 89 88 3d 55 39 0a bd
       -0.13803467 -0.14503716 0.066667646 -0.033746082
000140 ed 1c f5 3d 44 c7 87 be e2 8d 09 3d c7 4e 72 bd
       0.11968408 -0.26519215 0.033582576 -0.05915716
000150 42 dc 71 3a b2 06 14 be d7 25 c8 3d 63 db 7b 3e
       0.00092262414 -0.14455679 0.097728424 0.24595408
000160 c3 1f 0e be 6c 6c 1a 3e 75 75 00 3e 56 03 1f bd
       -0.13879304 0.15080422 0.12544806 -0.03882154
000170 a5 ea 5f 3d a2 8c 8f bd 6e 52 2f 3e 5c 91 c4 bd
       0.054667134 -0.070092455 0.17121288 -0.095980376

bias_hh_l0 f4 [96]
000000 68 f4 b0 bd f2 78 c3 be 09 bf df bd 0d 54 12 3e
       -0.08640367 -0.3817821 -0.10925109 0.14289875
000010 86 f1 df bd 6e 28 5a 3e b7 d2 1f 3e 8d 02 83 be
       -0.10934739 0.21304485 0.15607725 -0.25587884
000020 f2 a9 83 3e f9 e8 10 3e 44 6c 11 be b7 a7 cc 3e
       0.25715595 0.14151372 -0.14201456 0.39971706
000030 7f d4 0f 3e 1a ec dd 3d 41 60 28 3e 3a f6 93 3d
       0.14045905 0.108360484 0.16442968 0.07224698
000040 73 0c 67 3d c3 a8 a0 3d e3 ff a8 3e 88 fe 2b 3e
       0.056408357 0.07844689 0.33007726 0.16796315
000050 97 c3 87 3d a5 fe 4b 3e d8 a7 de 3e 64 ab 41 bd
       0.06629103 0.19921358 0.4348743 -0.04728259
000060 f5 4b f1 3d e5 08 fd bc e6 4f 5c 3d 80 32 bf 3d
       0.11782066 -0.03088803 0.053787135 0.09335804
000070 80 c6 b7 3e ee 7a 2a 3e 77 98 71 3d df b5 2a 3d
       0.3589363 0.16648456 0.058983292 0.041677352
000080 be 52 43 be d8 00 17 be f1 85 36 bd b5 ac 05 bf
       -0.19074532 -0.14746416 -0.04456133 -0.52216655
000090 32 9f 32 3c 6d 63 99 be 5f fa ed be 75 07 b0 3e
       0.010902213 -0.29958668 -0.4648008 0.3438069
0000a0 a1 53 1a be a6 e5 04 bf a8 0f 3a 3e d9 de 86 bf
       -0.15070964 -0.51912916 0.18170035 -1.0536758
0000b0 99 4d 74 3e 3f 9b db be 98 aa 03 bd 3a 8a 80 bd
       0.23857726 -0.4289188 -0.032145113 -0.062763646
0000c0 5f cd 8a bc 38 6d ad 3e 21 1a 9b bd 72 c6 52 be
       -0.016943632 0.3387239 -0.07573343 -0.20583513
0000d0 02 f2 a2 be 28 03 e8 be ec d8 50 bf 65 5e 96 bd
       -0.31825262 -0.45314908 -0.81580997 -0.07342223
0000e0 87 dd 7a 3e 79 85 d1 be e2 68 08 be de fb 93 be
       0.24498568 -0.40922144 -0.1332126 -0.28903097
0000f0 f5 ec 0a bf e7 d3 8c 3d 18 b1 78 bc a6 48 90 3e
       -0.5426782 0.06876355 -0.015178941 0.28180426
000100 4b f2 ab 3d 77 b6 cb bc 86 af dd 3d 4a 28 db bc
       0.08395823 -0.02486728 0.10824494 -0.02675261
000110 e3 86 fe bd ff bb 48 3e 67 1c 98 bd 1d ca d8 bd
       -0.12428071 0.19602965 -0.07427292 -0.10585425
000120 06 9b e5 bd 5e cf f4 bd 07 54 cd 3d 59 78 61 be
       -0.11211209 -0.11953615 0.100257926 -0.22018565
000130 40 a5 be be 96 2e 04 bc 85 29 ae bd d3 13 f0 3c
       -0.3723545 -0.008067748 -0.08504013 0.029306328
000140 d6 d2 1a be 1f 2f 19 bd c0 f8 c7 bd 41 d2 c0 bd
       -0.1511949 -0.037398454 -0.09764242 -0.09415103
000150 7b ec b4 bd 79 0a d6 bc e9 41 c0 bc 33 4c ae 3d
       -0.088341676 -0.02612804 -0.023468928 0.085106276
000160 47 98 9e bd a7 24 a9 3c aa 46 51 ba 7f 78 c5 bc
       -0.07743888 0.02064736 -0.0007983247 -0.024105309
000170 08 09 49 bd ed f1 14 be 51 a7 b7 bd 2e 6c 16 3e
       -0.04908088 -0.14545412 -0.0896746 0.14689705

weight_ih_l1 f4 [96, 32]
000000 98 57 75 3e 71 b9 39 3e fe 20 7a be 27 5c 18 3f
       0.23959196 0.18137147 -0.24426648 0.59515613
000010 3b bb 8c 3e c2 3b 91 3e 15 54 a9 3c 7d cf b9 bd
       0.27486596 0.28365904 0.020669976 -0.090727784
000020 64 9d e0 bd aa 26 a8 be c5 e8 36 3d 21 33 48 bd
       -0.1096752 -0.32841998 0.04465558 -0.048876885
000030 ba 9b 99 3e 91 c3 b4 3d bf 2c 56 be ab 52 da 3e
       0.30001622 0.08826364 -0.20915507 0.42641196
000040 c3 79 88 bd 8e 00 28 3e d7 85 79 be 03 a8 98 3c
       -0.06663849 0.16406462 -0.24367462 0.018634802
000050 04 0d bc be 97 44 cd bd d8 4f 93 3e d7 96 5d be
       -0.3672868 -0.10022848 0.28771853 -0.21639572
000060 01 e4 82 bc a4 eb d4 bd 43 ae cb 3d 35 9f d7 3d
       -0.015977861 -0.103965074 0.09945347 0.10528413
000070 e2 6e 14 3f 4a 3c f0 3e 19 06 cc bd 33 f7 8b 3e
       0.57981694 0.46920997 -0.099621005 0.27337036
000080 74 ab 29 3e 0b bc e0 be 8d 5d 80 be c5 3e d1 bd
       0.1656931 -0.43893465 -0.25071374 -0.102170505
000090 f8 f7 06 be 10 2f 1c bf bd db 2d 3e 96 d9 51 bd
       -0.1318053 -0.6100931 0.16978355 -0.051232897
0000a0 1a 66 85 bd 75 73 bf be 98 cd 33 3e a5 cd 63 be
       -0.06513615 -0.37392774 0.17558897 -0.22246416
0000b0 12 01 a0 be ce f4 1b be af 72 ea be d7 04 16 3f
       -0.31250817 -0.15230104 -0.45790622 0.58601135
0000c0 a9 25 33 be 2f 47 66 3d 69 ce 77 3e e4 d5 bc 3e
       -0.17494835 0.05622023 0.24199833 0.36881936
0000d0 37 47 06 bf 16 d1 f8 be 12 47 07 3f 73 dc 2e 3f
       -0.52452415 -0.4859702 0.5284282 0.6830513
0000e0 36 8d ae 3d a8 22 8e be 1c b3 a2 3e 98 2f ed 3d
       0.085230276 -0.27760816 0.31777275 0.115813434
0000f0 9f 06 13 3f cc 0e 37 3e 67 9e bf 3e 16 73 e0 3d
       0.5743198 0.17876738 0.3742554 0.10959451
000100 6a bc c6 3e 22 e3 0d bf 17 14 f4 3e 4a ea d7 be
       0.38815624 -0.554247 0.47671577 -0.42170936
000110 2d 2e e5 3e 90 6c b6 3d 61 1c d0 3e 4a a9 44 3e
       0.44761792 0.089074254 0.4064665 0.19205204
000120 8a 41 8a bc 1f 15 f8 3e 55 f2 a1 be 87 70 12 3e
       -0.016876955 0.48453614 -0.31630197 0.14300738
000130 f9 86 78 3e 00 1e f9 3a 5c e7 56 3f a9 a7 52 3f
       0.24270238 0.0019006133 0.83946776 0.8228708
000140 90 28 88 3e 9c b1 c0 bd 45 63 2e bf 36 14 aa 3d
       0.26593447 -0.09408876 -0.68120223 0.08304636
000150 c5 65 18 3e 22 fb c9 be 9e 4f 11 3e 20 d4 62 3e
       0.14882572 -0.39449412 0.14190528 0.22151232
000160 63 c3 24 be 7b 99 23 be 49 59 ff bd 27 01 77 bd
       -0.16090159 -0.15976517 -0.12468202 -0.060303833
000170 d7 1d aa 3e 8f fa 12 bf 60 14 3a bf 84 0b ba 3e
       0.3322589 -0.5741357 -0.7268734 0.3633691
000180 73 6d 98 3c 8f dd 4c 3c ad 7d 6f 3e ce 81 45 be
       0.018606877 0.012503996 0.23387785 -0.19287798
000190 05 9e 0b 3e b5 6e cd be 9f 48 a7 3e 79 75 04 3e
       0.13634498 -0.40123525 0.32672593 0.12935437
0001a0 4e d3 bb 3c 2d 3c 27 3e c2 41 89 3e db f3 f5 be
       0.022927906 0.16331549 0.26807982 -0.4803761
0001b0 17 0d 3f 3d b0 c5 a1 be 10 57 d3 3e 9a c6 9c 3e
       0.046643343 -0.31596136 0.4127736 0.3062027
0001c0 4b cd 8a be 01 4a 07 3d 9a b0 95 3e f3 a4 d1 3e
       -0.2710975 0.03302956 0.292363 0.4094616
0001d0 ce 9e fc bc 96 43 30 3e a3 8d 80 bd 11 42 b6 3e
       -0.030837443 0.17213282 -0.06277015 0.3559728
0001e0 8c 07 24 be 46 64 c2 3e 2b 7a 15 be cc c1 2f 3e
       -0.16018504 0.37967128 -0.14597385 0.17163771
0001f0 b8 d0 de 3d a2 07 9e 3e ae ba d1 3d 58 f8 d0 3d
       0.10879654 0.30865198 0.102406844 0.10203618
000200 c5 78 b6 be da 00 fc 3e c4 16 f0 be e2 ac 2d 3e
       -0.35639015 0.492194 -0.4689237 0.16960481
000210 80 0c a0 bd fc bc bb 3e d4 11 9c bd 0f e5 1d 3e
       -0.07814884 0.3666762 -0.07620588 0.1541941
000220 11 ab 8d ba 15 9e 9a 3e 2f 36 e7 3e 0c 05 04 3f
       -0.0010808428 0.30198732 0.45158526 0.515702
000230 a7 15 f9 3d b3 39 11 3d 3b 98 dc bd 7a 58 77 3e
       0.12162333 0.035455417 -0.10771223 0.24154845
000240 b8 7c 51 be 6f 07 60 3f 52 cd 5b be bd 16 42 3e
       -0.20457733 0.8751134 -0.21465042 0.18953986
000250 03 27 df bd 74 4d 77 3e 2a 2c 1f 3e 0d ff ad 3e
       -0.10896113 0.2415064 0.15544191 0.3398365
000260 9d 27 1f 3d 0b 43 9e be ba ec b2 3c cb f8 7d bc
       0.038856138 -0.30910525 0.021841396 -0.015501211
000270 df bc 1d be 93 5a 20 3f 3a 1d 30 be cd 5d d1 3e
       -0.1540408 0.62638205 -0.17198649 0.40891877
000280 98 48 9c bd 43 ff 55 be d1 a0 35 3f ba e6 d1 bf
       -0.07631034 -0.20898156 0.7094851 -1.6398537
000290 17 fb 00 bf 38 f2 82 3d 9c 74 89 3e 43 ac 8a 3d
       -0.5038313 0.06393856 0.26846778 0.067711376
0002a0 b2 2f 09 be 99 59 62 bd f6 7c 16 be 7e 79 eb be
       -0.133971 -0.05526123 -0.14696106 -0.4599113
0002b0 4a 0e 93 38 e9 61 fd be 3c d3 78 3c 98 bc e3 bd
       7.012168e-05 -0.49488762 0.015187081 -0.11119956
0002c0 a5 c7 06 3f 01 fd 8e be b2 2f bc 3d e0 48 ad be
       0.52648383 -0.27927402 0.09188785 -0.33844662
0002d0 8d 2c 1e be 5e 96 ac bd 55 de 59 bd 7c 84 d1 3e
       -0.15446682 -0.08427118 -0.053190548 0.4092139
0002e0 76 aa 17 3f 79 06 a0 3e 55 86 da 3b 66 0c ed 3e
       0.5924448 0.31254938 0.0066688457 0.46298522
0002f0 ad 9c 37 be d2 f4 36 bf 08 b8 01 3f 56 ba ed 3e
       -0.17930861 -0.71467316 0.50671434 0.46431226
000300 ec 5d 3a bd 21 fc e6 be a4 32 ef 3e a6 79 4b be
       -0.045499727 -0.45114234 0.46718323 -0.19870624
000310 96 d5 eb be 36 5a 6e be 61 6e 20 bc a7 af e9 3d
       -0.4606139 -0.232766 -0.009791941 0.11410456
000320 30 d9 0c bf 09 c9 b8 be 7e 5b cf bd 2a 36 53 be
       -0.550189 -0.36090878 -0.101248726 -0.2062613
000330 ac 18 f7 bd 80 c6 d6 3d 3a 8b 89 3e 85 19 7f bd
       -0.12065253 0.104870796 0.26864034 -0.062280197
000340 b6 f8 be bd 5f e9 0d bf 75 14 13 3f 96 e2 9f 3b
       -0.093247816 -0.5543422 0.5745309 0.004879306
000350 39 4a b9 be b4 18 68 3d 50 aa 22 be 57 06 85 3d
       -0.3618944 0.056664184 -0.15885282 0.0649535
000360 b7 c4 73 3d 87 b5 84 3e 76 75 a0 bd 83 b4 fc 3e
       0.059513774 0.25919744 -0.07834904 0.4935647
000370 af 1e 03 be ef e0 08 bf a6 2e 8f be ec a8 b1 be
       -0.12804674 -0.5346822 -0.27965277 -0.3469919
000380 09 61 2a 3e b8 5c 41 3d a6 10 e7 be 1a d5 8b 3d
       0.16638578 0.047207564 -0.4512989 0.06827755
000390 1e 15 b5 3e e6 00 10 be 3a 6a c2 be 56 60 0e be
       0.35367674 -0.14062843 -0.3797167 -0.13903937
0003a0 9d 2c 94 bd f4 90 73 3d 88 1d ab bd 2a 99 12 bc
       -0.07235072 0.05946441 -0.08355242 -0.00894765
0003b0 e5 c1 73 3d 62 10 0f bf 4f 5e 16 3e 84 ae c0 3e
       0.059511084 -0.55884373 0.14684413 0.37633145
0003c0 8c 22 9e 3c d8 0d a0 3e b7 36 24 3e cc c2 0d 3e
       0.019303583 0.31260562 0.16036497 0.1384384
0003d0 39 bc e7 3a ce 06 5c 3f b5 2e d4 3e 18 bb 07 be
       0.0017679996 0.85947883 0.41441885 -0.13254964
0003e0 40 c7 29 3e 9f 15 9a 3d ff 13 b6 bd 64 10 2b bf
       0.16579914 0.07523655 -0.08890533 -0.66821885
0003f0 16 e5 29 be da ab 3c 3f f4 f1 bb bb 9b 08 37 3f
       -0.16591296 0.73699725 -0.00573563 0.71497506

weight_hh_l1 f4 [96, 32]
000000 6b 2b 37 be cf 22 6e 3d 11 ce 91 3e d4 c1 32 3e
       -0.17887656 0.058138665 0.2847753 0.17456752
000010 37 8a f4 bd 00 96 d1 3d f9 71 a6 bd c2 89 d4 3d
       -0.11940425 0.10233688 -0.08127207 0.10377838
000020 79 c8 81 3e 0c 89 36 3d c7 ec 8e bd 80 d6 4d 3e
       0.2534826 0.04456429 -0.069787554 0.20101357
000030 0e 9d 0f 3f e5 75 fd 3e c1 13 6b 3d 48 20 f5 3d
       0.5609902 0.4950401 0.057391886 0.11969048
000040 3f 8f dc 3e 89 62 cb 3e 59 54 39 3e 4e ac ab be
       0.43078038 0.39723614 0.18098582 -0.33529896
000050 21 f2 07 3f fe 6b c9 be e6 90 b1 bd c6 32 24 bf
       0.53103834 -0.39340204 -0.08670215 -0.64139974
000060 19 ac 45 3f f1 75 71 be de 98 e9 3e b4 06 35 3f
       0.77215725 -0.23580147 0.4562444 0.70713353
000070 54 c6 d0 bd 4a 35 4d 3f 8f 0c 4f bd 53 a1 23 be
       -0.10194078 0.8015944 -0.050549086 -0.15979509
000080 8a 02 ad be a5 1e 59 3e 44 9d 78 3e 9a 3a 10 3e
       -0.33791 0.21203096 0.24278742 0.14084855
000090 9b a7 93 bd 79 81 89 3e 76 ea 81 be e6 c9 27 3f
       -0.072097026 0.26856592 -0.25374192 0.6554245
0000a0 9b a8 cd 3e 96 28 74 bd aa 91 d2 bc 9b d5 6e 3d
       0.40167698 -0.05960902 -0.025704224 0.05830918
0000b0 3b d5 dc 3e 02 31 4b 3d 92 05 9e bd 7b e4 08 be
       0.43131432 0.049607284 -0.07715906 -0.13368408
0000c0 32 df d4 3e cb e2 0e 3f f4 db ca 3d d7 c3 3f bf
       0.41576535 0.5581481 0.09905234 -0.749082
0000d0 2f 4c 4b bd fa 1c 98 be d2 b8 5b 3e f1 3d 20 be
       -0.0496332 -0.29709607 0.21457222 -0.15648629
0000e0 bb 47 9e 3e 29 4d b3 3e 45 90 0c 3e 92 7f 1e 3f
       0.309141 0.35019806 0.1372691 0.61913407
0000f0 b9 37 31 3e 27 c5 3c 3d 19 d6 81 bd 9e 2e 8c 3e
       0.17306413 0.046086457 -0.06339664 0.27379316
000100 80 b9 84 be ae 60 99 be d4 51 87 be 4f 58 b7 bc
       -0.25922775 -0.29956573 -0.26429617 -0.022380976
000110 c1 ef 1d 3f b0 b4 03 bf 0a 74 d0 3e 86 53 fc 3c
       0.6169396 -0.5144758 0.4071353 0.030801546
000120 e9 fc f7 3d f8 b4 50 3e 70 ca e8 3c 64 4c 89 3e
       0.12108786 0.20381534 0.028416842 0.26816094
000130 c2 3d 0c 3e bb ec 5d be 6f 86 2c 3f 2a 07 ae 3e
       0.13695434 -0.21672337 0.6739263 0.3398984
000140 3a 75 7f bd 35 41 b0 3c 4b 0e a4 bd 7f 15 88 be
       -0.062367655 0.021515468 -0.08010539 -0.265789
000150 50 d2 31 be da 01 c2 be 63 43 93 be 63 02 0c 3d
       -0.17365384 -0.37892038 -0.2876235 0.034181964
000160 f9 8e ea bc 93 d6 f8 3d e9 13 b6 3b 78 8b 3b 3e
       -0.028632628 0.12150302 0.0055565727 0.18314922
000170 62 85 1d be be 5b a1 3e 87 04 6d be fe 80 c2 be
       -0.15382913 0.31515306 -0.23146258 -0.37989038
000180 a9 c4 32 be ce 3d 5f be 7a 6d 6b 3e a0 46 80 bd
       -0.17457832 -0.2180092 0.2299098 -0.06263471
000190 49 41 22 be e0 9d a9 3d e1 11 6e 3d c9 2a d5 be
       -0.15845217 0.082820654 0.05812252 -0.41634205
0001a0 29 dd 4f be be 07 43 bb 37 82 ac 3d 8b 03 9d bc
       -0.2029921 -0.0029759253 0.08423274 -0.019166728
0001b0 4d ef 29 3e f0 fa ce 3e cb 04 00 bf 47 c8 e9 3e
       0.16595192 0.40425825 -0.50007313 0.45660612
0001c0 1b 9f 35 3f 2b 85 02 be 25 11 6c 3e 69 24 cf 3e
       0.709459 -0.12746112 0.23053415 0.40457466
0001d0 4b 27 33 3e 4b fc be 3e ec b0 51 3d 61 f4 05 3c
       0.17495458 0.3730186 0.051194116 0.00817594
0001e0 e2 30 e8 3e ed b9 87 bf b2 7f aa be 66 16 5a bd
       0.45349795 -1.0603615 -0.3330055 -0.053244017
0001f0 0c 15 84 3d dd 04 19 3f a5 2e 98 3e 6a 91 d8 3d
       0.06449327 0.59773046 0.29723087 0.105746105
000200 30 06 67 3e d3 32 0b 3f 84 c0 99 3e f3 cd 4a 3e
       0.22560954 0.54374427 0.3002969 0.19805126
000210 b2 98 89 3e b1 94 58 3f d2 40 b3 be 91 40 5b 3d
       0.2687431 0.84601885 -0.3501039 0.053528372
000220 17 e0 16 3f f2 d3 91 3e 3a 54 eb 3e e8 ca ad 3e
       0.58935684 0.28482014 0.45962697 0.33943868
000230 49 a8 f6 3e 13 91 15 3e f3 82 6f 3e fb 65 f1 3e
       0.48175266 0.14606123 0.23389797 0.47148117
000240 99 a6 01 bc 38 95 05 3f 60 54 3c 3f e0 db 23 be
       -0.007913255 0.52180815 0.73566246 -0.16001844
000250 e6 64 14 3f 15 93 2f be d9 5c 2a bd ba 09 01 bf
       0.5796646 -0.17145951 -0.041592453 -0.50405467
000260 9c d5 d9 3e a9 e2 15 3d 4d 3c 0a 3f f0 d0 ed 3e
       0.42545784 0.036593113 0.5399826 0.4644847
000270 43 dc 6f 3e 4c 5e 19 3f f6 d2 9a 3e 2c 8a 55 be
       0.23423867 0.5990951 0.30239075 -0.2085349
000280 69 3c 4a 3e 35 3c 18 bf a3 6a 4c bf b3 f1 aa be
       0.19749607 -0.5946687 -0.79850215 -0.33387527
000290 5e 0d 97 3d ad 27 ba 3d 43 42 8c 3d c8 76 94 be
       0.073755965 0.09089599 0.06848576 -0.28996873
0002a0 73 52 8e be e5 ee 95 be e2 d8 d7 3b ce 44 22 bf
       -0.2779728 -0.29283825 0.0065871337 -0.6338624
0002b0 e6 2e 8a be 47 16 7c be 91 87 25 bf e8 f6 28 3e
       -0.26988906 -0.24617873 -0.6465998 0.16500437
0002c0 26 1f 2e 3d 4b bc 0b 3e 56 28 fd bd 7f 0a d3 3d
       0.042510174 0.13646047 -0.12361209 0.10304736
0002d0 04 51 8e be 55 ce dd 3c ac b5 1f 3e 85 c6 6f 3e
       -0.27796185 0.027075926 0.15596646 0.23415573
0002e0 83 8f 16 bf c3 94 9e be f8 55 c0 3e 86 d1 a6 bd
       -0.5881273 -0.3097287 0.3756559 -0.08145432
0002f0 55 61 48 bd 0f 79 61 3d b1 34 f9 3d f7 d0 f2 bc
       -0.048920948 0.05504709 0.12168253 -0.029640658
000300 ff b8 8e be bb 02 0d bf 57 19 65 bd e0 36 3f be
       -0.27875516 -0.5508229 -0.05593237 -0.18673277
000310 9d a2 09 be 3e 15 20 3f 23 21 33 3e cd 6c 35 be
       -0.13440938 0.62532413 0.1749311 -0.17717285
000320 e1 44 cf be a3 49 15 3d a4 3f 6c 3e ec 17 8a be
       -0.40482238 0.03644718 0.23071152 -0.26971376
000330 10 78 dd be 8c 71 c3 3e 26 1a 06 bf 5f e1 74 be
       -0.43255663 0.38172567 -0.5238365 -0.23914097
000340 a0 83 b3 bd 3a a1 31 3b 14 e1 dc 3e 42 4e 8e 3f
       -0.0876534 0.0027104155 0.4314047 1.1117632
000350 45 15 a9 3e 84 78 f4 3b d4 5b 71 be a6 a3 8e 3e
       0.3302404 0.0074606556 -0.23570186 0.2785923
000360 d9 d9 38 b9 4b 89 8d bf 3b 4f 0c bb 5e dc 9e bd
       -0.00017628762 -1.1057523 -0.002140953 -0.077568755
000370 a2 af d6 3d 2b 4c 31 3e 19 87 1f 3f ea 5a 01 3e
       0.10482718 0.17314212 0.6231552 0.12632337
000380 4c ec 76 3d ad e0 80 3d f3 a2 81 3b e8 1b a3 3e
       0.060283944 0.062928535 0.0039561926 0.31857228
000390 34 5a d7 bd 28 2a 69 bd b1 6b e9 39 c1 8d a5 be
       -0.10515252 -0.05692497 0.0004452146 -0.32334712
0003a0 32 08 11 bc 69 6d 52 be 2e 6c 99 3d 77 e7 66 3d
       -0.008852052 -0.20549549 0.07491337 0.056373086
0003b0 5f 8c 14 3e 01 f5 03 3e c0 b5 0e 3e 9d 19 9c be
       0.14506672 0.1288643 0.1393652 -0.3048829
0003c0 f2 6c 55 3e 6f cc 8d 3e 68 e3 23 3f 95 fd 83 3e
       0.2084234 0.27695033 0.6401887 0.25779405
0003d0 5c c9 3c be 11 e4 a9 3d 1b 45 99 3e 8f 1f e4 be
       -0.18436188 0.08295453 0.29935536 -0.44555327
0003e0 4e 15 31 be a2 04 9c 3e 88 84 61 3f 5c 50 b6 bd
       -0.17293283 0.30472285 0.8809285 -0.08902046
0003f0 b4 f0 0c be af bb a8 be 18 01 91 bd dc d1 19 be
       -0.13763696 -0.3295569 -0.07080287 -0.15021461

bias_ih_l1 f4 [96]
000000 46 70 0e bd 8d 5d 8b 3d a8 dc 45 3e 9b 60 32 3d
       -0.03477504 0.06804953 0.19322455 0.04354916
000010 97 4d be be e6 13 41 3e 1a d8 bc 3e 94 00 9d be
       -0.3716857 0.18855247 0.36883622 -0.30664504
000020 93 8e 0e be f8 e3 41 be 8b 78 a1 3e 38 09 9a bd
       -0.13921575 -0.1893462 0.3153728 -0.075212896
000030 01 37 bc be dc 77 20 be 6e 37 f3 3d 9a 1c 54 3e
       -0.36760715 -0.15670723 0.11875807 0.20714036
000040 e8 c5 05 3d c5 bc 10 bd dd c9 dc 3c 21 e1 40 be
       0.03265944 -0.035336275 0.026951725 -0.1883588
000050 3a f1 44 3d 22 7e 12 be a3 07 38 3e d8 3e aa 3e
       0.048081614 -0.14305928 0.17971663 0.3325107
000060 cc 31 5c 3e 1d 3d 22 bd 21 84 03 3e 2d b8 23 be
       0.21503371 -0.039609063 0.12843372 -0.15988226
000070 78 5d fc bd ee f6 c5 3e d4 90 5a 3e f2 e4 f0 bd
       -0.12322515 0.38664955 0.2134431 -0.11762418
000080 72 e5 92 3e 32 d5 03 3e af cc 04 be 3d b4 83 be
       0.28690678 0.12874296 -0.12968706 -0.25723448
000090 ad b9 b6 bd e0 ad e9 be 54 a9 a1 be e6 05 a7 3e
       -0.089221336 -0.4564047 -0.315745 0.32621688
0000a0 d8 0c 16 3e fa a8 4c 3e 02 d9 11 3d f1 ad 21 3e
       0.14653337 0.19986334 0.035607345 0.1578901
0000b0 dd 32 5e 3e e6 cf e7 be 04 cd 9e be d9 a0 a8 be
       0.2169909 -0.452758 -0.3101579 -0.32935217
0000c0 c8 c2 7e 3d e0 10 41 3f 70 7f 35 3d f5 61 37 3e
       0.062197477 0.75416374 0.044310987 0.17908461
0000d0 57 02 ea bd 0c 79 f6 bd d3 09 64 3e e2 ea b8 be
       -0.114262275 -0.120348066 0.22269373 -0.361167
0000e0 80 2c 26 3c ff 5f 0e bf 12 b6 32 3e bf 63 da 3e
       0.010142446 -0.5561523 0.17452267 0.42654225
0000f0 93 a0 61 3e de d2 29 3e 26 e8 d7 3e ff b4 b2 bd
       0.2203391 0.16584346 0.42169303 -0.087259285
000100 c2 3f 79 3c 6e ec d7 3d 47 74 de bd 8c 23 1e ba
       0.015212955 0.10543142 -0.10862022 -0.00060325186
000110 e3 09 b6 3d 8f d2 ad bc 14 9f b2 bd 17 e3 27 3c
       0.088886045 -0.021218566 -0.08721748 0.0102470135
000120 32 c7 ae bd 46 f5 9d bc ef 88 a1 bd d0 a2 00 bd
       -0.08534087 -0.019281995 -0.07887446 -0.03140527
000130 80 e0 98 bc a4 79 90 3c f9 87 70 bd c8 1e b5 3c
       -0.018661737 0.017636128 -0.058723424 0.022109404
000140 ae fb 25 bd ff 2e 21 bd f6 12 ef bd fc dd 3d bd
       -0.040523224 -0.03935146 -0.116735384 -0.04635428
000150 66 02 04 be 4e bd bc bd 1a 61 0f be d2 fe 61 3b
       -0.1289154 -0.092157945 -0.14001885 0.003448416
000160 de 95 73 bd 3d b2 8c 3d 57 93 3b 3d 31 f4 e9 bd
       -0.059469096 0.06869934 0.04579481 -0.11423529
000170 bf 79 ae 3d eb bf 04 be a2 6d f1 3d 16 f9 06 3c
       0.08519315 -0.12963836 0.11788489 0.008238098

bias_hh_l1 f4 [96]
000000 bf 76 1e 3e 12 1e c2 bd 22 60 af 3e b9 d9 f0 3c
       0.15474986 -0.09478392 0.3425303 0.029400693
000010 cc 3e 1b be ca ca 41 3e 72 7e 93 3e e1 70 6e be
       -0.15160674 0.18925014 0.28807408 -0.23285247
000020 3a fa 89 be d3 6b 7b bd e1 45 ae 3e fa 27 0d be
       -0.2694872 -0.061382126 0.34037688 -0.13784781
000030 38 2b 91 be 62 30 6e bd 5c f2 83 3e ae 9b 81 3e
       -0.28353286 -0.05815161 0.25770843 0.25314087
000040 fc c6 0f 3d 9a c6 c4 3b ba ba 25 3e 5e 92 4c be
       0.035101876 0.0060051205 0.16184512 -0.1997771
000050 ca 4d 68 3e a6 d0 67 be 24 9b 86 3e 3e a7 23 3e
       0.22685924 -0.22638187 0.26290238 0.15981767
000060 1f 85 83 3e 8b 21 52 bd 46 45 5c 3e f9 50 3f be
       0.256875 -0.05130152 0.215108 -0.18683232
000070 6c 55 95 be 01 98 d2 3e 1a 51 37 3e 2f 30 8b bd
       -0.29166734 0.41131595 0.17902032 -0.067963
000080 fd d4 6c 3d 55 f1 0c 3e 7f ca 5b be d1 9b 8b be
       0.05782031 0.13763936 -0.21463965 -0.27267316
000090 70 02 ad be 9a e8 b0 be bd 81 fe be 64 15 f0 3e
       -0.33790922 -0.3455246 -0.49708357 0.4689132
0000a0 a9 b3 9d 3e f9 d6 51 3d d6 5e 84 3e 98 2b 4c 3d
       0.30801132 0.051230405 0.25853604 0.04984626
0000b0 37 08 8d bd f5 a6 cf be f6 8b 87 be 49 37 00 bf
       -0.068863325 -0.40557066 -0.2647397 -0.5008436
0000c0 41 75 60 3e 94 30 27 3f 80 9f 16 3c ff 77 c3 3c
       0.21919729 0.653085 0.009193301 0.02386093
0000d0 bf 2d 11 bd f5 1e 73 bd 52 b2 f0 bc e1 95 80 be
       -0.035444017 -0.059355695 -0.029381905 -0.2511435
0000e0 73 99 63 bd 23 98 e1 be 66 bc a8 3d 43 8d a6 3e
       -0.055566262 -0.44061384 0.08239059 0.3252965
0000f0 cf d3 bf bd 15 df ad 3e fb 35 e3 3e 9e 12 1b be
       -0.09366571 0.3395926 0.4437712 -0.1514382
000100 4c e3 fb bc 67 1a 03 be 30 12 aa bd 52 78 33 3e
       -0.030748032 -0.1280304 -0.0830425 0.17526367
000110 ee 8f 3d bd 68 ad 23 3e fb 84 bb 3a 17 5c 01 3e
       -0.04627984 0.15984118 0.0014306599 0.12632786
000120 1d 0f 98 bd ab 93 21 bd 6f df 09 3e 5a df c8 3d
       -0.07424758 -0.039447468 0.1346414 0.09808226
000130 22 16 b9 bd bb 9c 34 be 5e af e2 bd 84 ed e8 bd
       -0.090374246 -0.17637913 -0.11068605 -0.113734275
000140 a6 53 d8 bd 4d df b0 bc aa 68 bf 3d 79 18 2b 3d
       -0.1056283 -0.021590853 0.09346135 0.041771386
000150 3a 6d ef bd 20 65 85 3d a2 87 1d 3e 7c 4f 01 3e
       -0.11690755 0.06513429 0.15383771 0.12627977
000160 b5 f0 48 3e f8 6a 95 3e f3 7e 7b 3e 90 a3 b2 3d
       0.19623072 0.29183173 0.24560146 0.08722603
000170 5e d7 e6 bb d2 45 d4 ba ba da f1 bc 76 19 24 bd
       -0.0070447167 -0.0016195124 -0.029523242 -0.040063344

weight f4 [4, 32]
000000 43 8b 19 be d0 63 09 be 43 95 fa bc 6d c9 ee 3e
       -0.1499453 -0.13416982 -0.030588752 0.4663805
000010 7c 93 8d 3e b8 16 13 3e ea 83 2a bf 49 7b 46 bc
       0.27651584 0.14364135 -0.66607535 -0.012114354
000020 f8 1a 45 3e 26 8d 31 bc 08 7e eb 3e a8 26 8b 3e
       0.19248569 -0.010836875 0.45994592 0.2717793
000030 3f c5 75 3e 89 74 2c 3e ec 7a 73 3e ff 02 65 3d
       0.24001025 0.1684133 0.2377736 0.05591106
000040 81 1f 97 3d 00 5d 78 be db 90 53 3e de 68 ee bd
       0.07379056 -0.24254227 0.20660727 -0.116410956
000050 1a 8c b9 bb 7a 10 d4 3e 4f 9c 65 be 10 0d f8 3e
       -0.0056624534 0.4141882 -0.22422908 0.48447466
000060 1d 85 a0 bd 3d 3b 92 3d 5a 7b b0 3d f8 3c a4 3b
       -0.07837889 0.07140205 0.086172774 0.005012151
000070 f3 a6 01 3e 6e 90 83 bd 1c 2b 3e 3e e9 81 a5 3d
       0.12661342 -0.06424032 0.18571132 0.08081419
000080 3f a9 3b be e9 31 f3 bd 58 58 66 3c 84 02 aa 3e
       -0.18326281 -0.11874754 0.014059149 0.33205044
000090 cf 91 82 3e 23 83 5e 3e 1c 12 be 3d bf 9b 59 3e
       0.25501868 0.21729712 0.09280798 0.21250819
0000a0 9c 6d 51 3e 95 cc 7e 3d 3b 66 d2 3e df 7f a6 3e
       0.20451969 0.062206823 0.4109362 0.32519433
0000b0 40 d2 cb 3d 92 76 b3 bc 06 16 31 3e 62 92 77 3e
       0.099522114 -0.021907125 0.17293558 0.24176934
0000c0 ad 50 f3 3d 28 99 0c be ad 3c 36 3e 76 23 86 be
       0.11880622 -0.137303 0.17796583 -0.2619893
0000d0 56 1f a4 bd da aa 94 be 7c 09 aa be 28 7d 16 3e
       -0.08013789 -0.290366 -0.3321036 0.14696181
0000e0 77 6d 4c bd b8 1a f1 3d d1 aa 07 bd 72 c6 1e 3e
       -0.04990908 0.11772674 -0.033121888 0.15505388
0000f0 1c 3c 2c 3e 43 fa 8b bd 0f 4e 73 3c c4 10 e2 bd
       0.16819805 -0.06834843 0.014850154 -0.11038354
000100 76 d7 e9 bd dc b3 ed bd 47 8b 42 3d e7 b0 ad bc
       -0.11418049 -0.11606571 0.047496106 -0.021202518
000110 48 7e 3a 3e f6 39 15 be 32 f5 40 3e da 53 81 3e
       0.18212235 -0.14572892 0.18843535 0.25259286
000120 8e a3 5e 3e 22 51 72 3e 67 66 81 3e 60 80 5d 3e
       0.21742079 0.23663762 0.2527344 0.21631002
000130 62 28 6b 3e ce 51 fa bd 59 25 1f 3e 18 04 83 3e
       0.22964624 -0.12222634 0.15541591 0.2558906
000140 98 c4 0c 3e 67 be 7e be 35 64 5a bd a5 fd 5b be
       0.1374687 -0.2487732 -0.05331822 -0.21483476
000150 41 f9 d3 bd 7c 8b 39 be ac 85 86 be 78 6c 4b 3d
       -0.10350276 -0.18119615 -0.2627386 0.04966399
000160 1a e3 5f bd c6 bc c8 bc 37 a2 9b bd 83 bd 50 3e
       -0.05465994 -0.024504077 -0.075992994 0.20384793
000170 52 33 83 3e b6 ca 92 bd dd f7 16 3e db 09 f1 bd
       0.25625092 -0.0716757 0.1474299 -0.11769458
000180 28 01 33 be fd 98 25 be 83 03 50 3d 93 eb af bd
       -0.1748091 -0.16171642 0.0507846 -0.08589854
000190 52 5a 4d 3e 61 7d 45 be 1c e4 5d 3d 25 49 1e 3e
       0.20053986 -0.1928611 0.05417262 0.1545759
0001a0 06 27 42 3e c2 9b a5 3e 69 26 67 be a0 27 24 3e
       0.18960199 0.32345396 -0.22573246 0.1603074
0001b0 e3 54 97 3e fe fe 4d bd a7 97 21 3e e7 62 4b bd
       0.2955695 -0.050292008 0.15780507 -0.049654868
0001c0 e8 d3 55 3d ef 59 90 be 87 1a 79 be e3 52 09 be
       0.052204043 -0.28193614 -0.24326526 -0.13410525
0001d0 c7 a9 33 be 09 9f 14 be 23 3a c4 bd 88 b3 2a 3e
       -0.17545234 -0.14513792 -0.09581401 0.16670048
0001e0 07 ec 59 bd 1c da 49 be 4a 43 22 be ae b4 62 3e
       -0.05320361 -0.19712108 -0.15845981 0.22139236
0001f0 1e 64 89 3e 0f 1f 3d bd 78 d7 c6 3e 43 f9 bc bd
       0.26834196 -0.046172198 0.38836265 -0.092272304

bias f4 [4]
000000 3e b6 e8 3c a4 32 71 3c fb 89 57 3c 94 be 2b 3c
       0.028407212 0.014721546 0.013155456 0.010482449
